trained_models/C_0_exp.pth (torch_old, 141084 bytes, 7 tensors)

layers.0.weight f4 [128, 13]
000000 88 2d e2 3d 17 79 24 3d a3 e3 50 bd 40 cc 5a 3e
       0.11043841 0.040154543 -0.05099834 0.21366978
000010 99 9a a2 bd e1 5e 58 3d 29 f8 80 bd 96 21 14 be
       -0.079396434 0.05282486 -0.06297333 -0.14465937
000020 9d 22 a8 3e 80 c0 8e 3c 4f 45 68 be 06 3b ac 3d
       0.32838908 0.017425776 -0.22682689 0.08409695
000030 88 ff a3 bd 87 5b 5c be 57 cc 70 3e 7e 24 94 be
       -0.08007723 -0.2151929 0.2351545 -0.2893409
000040 c9 b2 9f 3e 39 f5 31 bc cf 84 48 bd bf 7c e0 bd
       0.3119109 -0.010861688 -0.04895478 -0.109612934
000050 d3 ee af 3d a6 99 24 3e cc ae f6 3c 70 c9 51 3d
       0.08590474 0.16074237 0.030112647 0.051217496
000060 78 82 33 3e a4 96 13 bd c7 75 7b 3e 1f ad 44 3c
       0.17530239 -0.036032334 0.24556647 0.012004166
000070 2f e6 3e 3d 0c 2c b5 bd dc ed cf bd a8 a9 db 3b
       0.04660624 -0.08846292 -0.1015279 0.006703574
000080 1f 6c 80 3e 25 f9 4f be 2a ca 93 be 77 b2 bd 3e
       0.2508249 -0.20309885 -0.28865176 0.3705022
000090 2d 71 06 bc 8b 22 14 3c 69 e5 4c bc dc 67 d4 ba
       -0.008205694 0.009041439 -0.0125058675 -0.0016205269
0000a0 b6 a0 ab 3e a1 b7 e8 bd a9 32 31 be 50 86 8c bd
       0.3352105 -0.113631494 -0.17304482 -0.068615556
0000b0 50 c7 54 3e 76 59 9b bd 85 68 86 3e 51 e8 c0 bd
       0.20779157 -0.07585423 0.26251617 -0.09419311
0000c0 e0 e9 8d 3d 94 eb de 3d b9 5a 0c 3e e5 eb 9f bd
       0.06929374 0.10884777 0.13706483 -0.07808665
0000d0 8f 0b 23 3e 3d ad 4b 3b 0a 58 b8 3d 9d 55 52 3e
       0.15922378 0.00310786 0.09001167 0.20540471
0000e0 da ff ee be 03 da 60 3e 34 16 3a 3d 03 ff c9 be
       -0.46679574 0.21958165 0.04543133 -0.3945237
0000f0 d7 a8 87 3c c1 2b 20 be f3 3e 14 be 30 b1 74 be
       0.016560001 -0.15641691 -0.14477138 -0.23895717
000100 e8 ab eb bd f4 89 14 be 8b 35 49 3d 29 ea 68 be
       -0.11507398 -0.1450575 0.04912333 -0.22745575
000110 74 bf 1c 3d 36 58 08 3e 05 d7 80 3d 99 0b 3b be
       0.03826852 0.133149 0.06291012 -0.18266143
000120 b0 cf e0 3d d8 31 ed 3d 63 88 01 be a2 31 44 be
       0.10977113 0.115817726 -0.12649684 -0.19159558
000130 0a 2c a6 bd f0 f7 81 bd 9b bd a2 bc c3 34 41 3c
       -0.081138685 -0.063461185 -0.019865802 0.0117923645
000140 5f bc a2 bc 23 04 d0 bb d1 fe cf 3d f7 37 91 bd
       -0.019865213 -0.0063481494 0.10156024 -0.070907526
000150 c4 05 95 bd fe 08 3d bd 7a ff f2 3d d9 17 2d 3e
       -0.0727649 -0.046151154 0.118651345 0.16903628
000160 fe 08 4c 3e 8e f5 81 3e 59 ba 5a 3e f8 e8 c6 3c
       0.19925305 0.25382656 0.21360148 0.02428101
000170 25 49 c5 3c c2 65 9c 3d e4 ae 88 bd 34 ec 80 3e
       0.02408273 0.07636596 -0.06673983 0.2518021
000180 cb 29 20 3d 95 7e 6c 3e 41 90 63 be 75 97 56 bd
       0.039102357 0.23095162 -0.22222997 -0.052390534
000190 d7 03 4a 3e cb 7f dc 3d bb e1 f7 bd 58 b5 e2 bd
       0.19728027 0.10766562 -0.121036015 -0.11069745
0001a0 e6 aa 73 3d f8 5e 02 3e c3 58 a1 bd 8f 72 92 3c
       0.059489153 0.1273154 -0.07878258 0.017876891
0001b0 b6 89 70 be ba a8 73 3e 8c 8f 28 be 31 1c 1f 3d
       -0.23490033 0.23794833 -0.16461009 0.038845245
0001c0 92 99 49 3e a9 1a 15 3e 83 4a e9 bc 49 a2 77 3e
       0.19687489 0.14560951 -0.028477913 0.24183
0001d0 aa 70 f4 bd cf a3 9b bd d5 d6 46 3e 53 d9 06 3f
       -0.119355515 -0.075996034 0.1941789 0.5267536
0001e0 a3 f4 52 be fc c1 35 bd 78 5b c5 bc ee 4d 8b 3c
       -0.20601134 -0.04437445 -0.024091467 0.017004933
0001f0 85 3e 07 be 4a a4 5d 3c d6 f4 c9 bd 57 5d 8c be
       -0.13207443 0.013527939 -0.09861152 -0.27414963
000200 cb ff d4 3d 08 48 9b be 23 2b 8a 3e e4 6c 41 be
       0.10400351 -0.30328393 0.26986036 -0.18889195
000210 e8 09 e6 3e 02 e3 16 3d 68 7e fb 3d 54 61 1a 3e
       0.44929433 0.036837585 0.122799695 0.1507619
000220 ea 9d b7 3d 60 39 70 3d 5e b9 0d bd 37 15 d4 3e
       0.089656666 0.058648467 -0.034600608 0.41422436
000230 89 77 b3 3d 16 38 4e 3d 6f ae 74 3d c4 7f 8a be
       0.08763034 0.050346456 0.059736665 -0.27050602
000240 2b f9 a5 3d da 2d 7d 3e 58 20 6c bd ec da a6 bd
       0.08104166 0.24724522 -0.057648033 -0.08147225
000250 31 97 15 3e c2 1d a6 3d 15 3d 70 be e8 e6 63 bd
       0.14608456 0.081111446 -0.23460801 -0.05564013
000260 e5 b7 5e 3e ac de 37 3e 21 86 e8 bd 7d bd 71 3e
       0.21749838 0.17956036 -0.11353708 0.2360744
000270 cb 58 2a bf 83 e6 d6 bd c6 79 75 bb e8 67 86 3e
       -0.6654174 -0.10493185 -0.0037456616 0.2625115
000280 77 6e 50 3c 8f 2b 8f 3d 33 f3 2e bd 3d 8b 58 3d
       0.012721649 0.0699073 -0.0427124 0.052867163
000290 8b 22 3b 3e 36 10 45 bd 38 02 a3 bb 0c 0f 36 3d
       0.18274896 -0.048111163 -0.0049746297 0.044447944
0002a0 17 24 b9 3d f8 1f 96 3e 69 8c d2 bc c9 5d 77 3e
       0.09040087 0.29321265 -0.025701718 0.2415687
0002b0 04 3b 99 3e 5b 9f 23 bc 5e b7 8c 3c 2c c3 5f bc
       0.29927838 -0.009986724 0.01717728 -0.013657372
0002c0 59 97 94 3d 1b 76 90 3e 16 be d2 be c1 9c 22 3d
       0.0725543 0.28215107 -0.4116065 0.039700273
0002d0 1a 66 a2 3d 2e 07 66 be 2c 0f 8e 3e 76 ef bb 3c
       0.079296306 -0.22463676 0.2774595 0.022941332
0002e0 69 d0 43 bd 8b e1 50 be 9d 6b f1 bd ea e4 4f 3e
       -0.047806177 -0.20398538 -0.11788104 0.20302168
0002f0 42 07 de 3b d5 84 7b 3d d2 43 0d ba 30 9d 2a bd
       0.0067757675 0.061405975 -0.0005388829 -0.041653812
000300 09 11 33 bc 67 90 81 bd 45 3b 2f bd fc 5e ae 3e
       -0.0109293545 -0.06326371 -0.042781133 0.34056842
000310 b5 f1 c2 bd ef d9 a4 3e 51 ed 9f 3e 09 b7 6b 3d
       -0.09518758 0.3219752 0.31235746 0.057547603
000320 61 d0 21 3d e6 ad 59 bc e9 3f 86 3c 5c 3a 20 3d
       0.039505366 -0.0132860895 0.016387897 0.039118156
000330 e7 d7 9b 3d 1b a5 12 be a9 fa 2a 3e 1d 25 95 be
       0.076095395 -0.14320795 0.16697182 -0.29129878
000340 6b a4 06 be 82 02 80 be 0b 9d 4a be ea 69 1b 3e
       -0.13148658 -0.25001913 -0.1978647 0.15177122
000350 2b 57 fa 3a 87 d6 0f 3c 6f 75 08 3d c6 f7 a6 bd
       0.0019099464 0.008779175 0.03331512 -0.08152728
000360 b5 ee 77 bd f5 a3 ad 3d ba 61 12 3d 00 e3 8b bb
       -0.060530383 0.08478538 0.03573773 -0.004269004
000370 14 17 1d be 35 5c 1c be 0c 8e 2f be a3 4e 83 3e
       -0.15340835 -0.15269549 -0.1714403 0.25645933
000380 43 41 fc bb 4a d3 39 be 2d b2 0b 3e 5b fc b8 bd
       -0.0076982095 -0.18147007 0.13642187 -0.09032508
000390 98 bf fe 3d f4 e0 cf bc 44 3d 33 bd 6b 6f 8b bd
       0.12438887 -0.02537582 -0.0437596 -0.06808361
0003a0 0c 92 60 bc d9 f1 f3 bd 07 33 3d be 6d d0 1e be
       -0.013706695 -0.11911363 -0.18476497 -0.15509196
0003b0 51 0f 06 be 78 91 4f 3d 76 8d 0f be 6d 90 51 3e
       -0.1309178 0.05067584 -0.14018807 0.2046525
0003c0 97 a7 19 3e 61 3d 0c be f0 38 79 3e eb 99 39 be
       0.15005337 -0.13695289 0.24338126 -0.18125121
0003d0 49 31 00 be ae 78 0c 3e 66 e7 06 3e d4 df 03 be
       -0.12518801 0.1371791 0.13174209 -0.12878352
0003e0 61 4a 89 3c ed e8 89 bd dc 31 b4 bd de cc 99 3d
       0.0167591 -0.0673388 -0.087985724 0.075097784
0003f0 d4 6d e6 3d a1 64 5c 3c e8 25 26 3e c2 3e a8 bd
       0.11251417 0.013451726 0.16225398 -0.08215095

layers.0.bias f4 [128]
000000 e7 df 20 3e 91 f0 82 3e 82 90 8b 3c 9e 8f 84 3e
       0.15710412 0.25574163 0.01703668 0.2589082
000010 4b 8c 06 bf 20 75 fc 3e fc d5 c4 3c 70 f0 98 3e
       -0.5255782 0.4930811 0.024027817 0.2987094
000020 09 49 a2 3e bb 14 3d be 9a 26 aa be 52 f1 17 3e
       0.31696346 -0.1846494 -0.33232576 0.1483815
000030 aa 5e 04 be d6 dd 23 bf e0 e8 89 be 3a d5 06 3e
       -0.12926736 -0.6401037 -0.26935482 0.13167277
000040 66 bd fc be bb 17 8c be b7 95 79 be 9c 1c af 3e
       -0.4936325 -0.27361855 -0.24373518 0.34201515
000050 4d ba 41 3e 63 55 96 3e b5 43 95 be c0 0a 69 3e
       0.18918724 0.2936202 -0.2915322 0.22758007
000060 f4 76 86 3e 96 30 a1 3e ee b3 a5 bc 8c 62 3b 3e
       0.2626263 0.3148238 -0.020227399 0.18299311
000070 a4 6b 40 be 05 c9 b2 bd d0 3d bf be e3 60 08 3f
       -0.18791062 -0.08729748 -0.37351847 0.5327284
000080 51 9d f4 3d 03 7b 17 3e 07 ad 13 3f 6f a7 84 3d
       0.11944068 0.14793019 0.57685894 0.06477248
000090 c8 16 c8 3e fa 00 24 3d 65 7b ed be 5b 02 2c be
       0.3907988 0.040039994 -0.46383205 -0.16797774
0000a0 23 38 91 bd 28 56 87 3e b9 29 88 bc 3a 89 27 3d
       -0.07090785 0.2643292 -0.016621457 0.040902354
0000b0 0e 9d b2 3e 5e 02 d6 3d f4 3a c1 3e ba 82 a0 3d
       0.34885448 0.1044967 0.3774029 0.07837434
0000c0 82 8e a4 bd c4 92 99 be 39 49 da 3e e0 5d a2 3e
       -0.08034994 -0.29994786 0.4263399 0.31712246
0000d0 68 5c b9 3d 60 ce 99 3d 21 84 bc 3d ef 6f c0 3e
       0.09050828 0.07510066 0.09204889 0.375854
0000e0 b5 a4 95 bd 13 07 7d be 26 ed 21 bf fa ba d7 3e
       -0.07306806 -0.2470973 -0.63252485 0.4213484
0000f0 f0 a2 ea 3e 23 82 6e 3e df 3e 5e 3e 23 18 bd 3e
       0.45827436 0.2329183 0.21703671 0.36932477
000100 31 fe ea 3d 33 57 56 bf 32 77 07 bf 96 df bf 3e
       0.114742644 -0.83726805 -0.5291625 0.3747527
000110 70 f3 b1 3e 32 86 01 3f 36 b0 36 3e 73 0b 4d be
       0.3475604 0.5059539 0.17840657 -0.20023899
000120 dc 36 94 3e 00 67 68 be 74 38 4e 3e 0e 36 68 be
       0.28948104 -0.22695541 0.20138723 -0.2267687
000130 43 8c ab 3e 24 61 f1 3d fa 14 fb 3e f2 af 9c bd
       0.3350545 0.11786106 0.4903944 -0.076507464
000140 a0 37 a0 3e 39 ad d4 3e bf 84 89 bd 06 a3 b0 be
       0.31292439 0.41538408 -0.067147724 -0.34499377
000150 d7 52 39 3d ec 43 82 3e dc 1b 0b 3e 9c c0 1b bf
       0.045245018 0.25442445 0.13584846 -0.60840774
000160 19 36 1a 3d 10 6e 4c 3e 9d 2a 2b 3e b5 61 01 3e
       0.037649248 0.1996386 0.16715474 0.12634929
000170 9f ba 05 3e ad ac 07 bd cc aa ae 3e d4 89 14 3e
       0.13059472 -0.03312366 0.34114683 0.14505702
000180 63 c5 2d 3e a1 07 a7 3e a4 af a4 be 12 ba 5a 3e
       0.16969828 0.32623008 -0.32165253 0.21360043
000190 f1 03 74 3e 68 ff df 3e f8 b3 86 bc 61 d4 e3 3c
       0.23829629 0.43749547 -0.016443238 0.027811231
0001a0 fc ff 99 3e 9a c7 32 3e 95 24 f9 bd 58 fb cb 3e
       0.30078113 0.17458954 -0.121651806 0.39840198
0001b0 54 dc 5f bd 59 ae 26 bf fd 2f 62 be 3a e4 b4 3d
       -0.05465348 -0.65109783 -0.22088619 0.08832593
0001c0 82 e5 41 3e a1 38 03 bf b2 17 a2 3e 01 3c e7 3e
       0.18935207 -0.51258284 0.31658703 0.45162967
0001d0 a0 2f ae be fa 6a 85 3e 22 cd d0 be 55 28 b7 3e
       -0.3402071 0.2605818 -0.40781504 0.35772958
0001e0 f1 b6 d8 3e f6 bc b2 3e d4 62 c5 bd b6 9c 5e 3e
       0.42327073 0.3490979 -0.096379906 0.21739468
0001f0 b5 d4 ab 3e b3 ef 91 bd b1 88 b4 bd 45 f2 32 3e
       0.3356072 -0.07125797 -0.08815134 0.17475231

layers.1.weight f4 [128, 128]
000000 da f4 2e 3d 9f 57 0d bd ed 52 09 3d 6b 87 9b bd
       0.042713977 -0.03450739 0.03352635 -0.07594188
000010 d2 d1 84 bc d0 71 51 3d 0f 56 cd bd 03 f3 17 3d
       -0.016213331 0.05113393 -0.1002618 0.03709699
000020 ee d1 61 3c 90 09 e5 3d 7d a9 21 bd 63 51 ed bd
       0.013782961 0.111834645 -0.039468277 -0.11587789
000030 7e 12 c7 3d 13 55 4a bc eb eb c6 3d 88 94 c2 bb
       0.09720324 -0.012349385 0.097129665 -0.0059381165
000040 9e d6 39 be 92 de aa 3c c6 25 be bc 07 55 55 bd
       -0.18148276 0.020858083 -0.023211371 -0.05208304
000050 f2 7d a1 bc 49 0d 3e bd 11 ff ea 3d 79 54 a9 3b
       -0.019713376 -0.04639939 0.11474431 0.0051675406
000060 d2 ff bd 3d 81 fe bf bc 64 04 8c bd 31 42 de 3c
       0.092773095 -0.023436787 -0.06836775 0.027131172
000070 76 98 a6 3c d3 05 26 3d 2a 1f 9e bd 92 67 f0 bc
       0.02033637 0.0405329 -0.07720788 -0.029346261
000080 b4 e4 bd 3c 14 25 4c bd 0d 0d f3 ba cd 88 83 3d
       0.023180343 -0.049840048 -0.0018543318 0.06422577
000090 c6 5e 09 bd 6f fb 60 bc d4 d4 a6 3d 7a df a8 bc
       -0.03353765 -0.013731821 0.081460625 -0.020614374
0000a0 d4 59 30 3d 93 43 5e 3d d2 3f a4 bd 30 e2 a0 3c
       0.043054417 0.054263663 -0.08019985 0.019639105
0000b0 2b 5a 38 3d f6 8b ea bc 16 ca 05 3d bf a1 e2 bc
       0.045007866 -0.028631192 0.032663427 -0.027665017
0000c0 ef b1 25 3d 2c 3f 82 bd 94 b4 a3 3c e8 51 9c bd
       0.040452894 -0.06359705 0.019983567 -0.0763281
0000d0 81 72 49 3c 73 22 81 bd 79 7b e4 bc 84 e6 9b 3d
       0.012295366 -0.06305399 -0.027890908 0.07612327
0000e0 cc a5 1d bc 8f bc ab bd b0 0a 21 bd 90 32 99 3d
       -0.009622049 -0.08385574 -0.039316833 0.07480347
0000f0 b9 d9 c4 3c 5a 31 03 3e b3 a6 3c bd 48 83 cd bd
       0.0240296 0.12811795 -0.046057414 -0.100348055
000100 7a 52 a9 3d 90 59 4b bd 2b 0f 1b 3d ab 8a a7 bc
       0.08267684 -0.04964596 0.037856262 -0.020451864
000110 02 43 bb bd 87 ae 25 3e 15 99 a8 3d 87 ff d1 bc
       -0.0914364 0.16179858 0.08232323 -0.02563454
000120 3f 54 04 be 06 bd fa bc a5 c4 fb bc 82 5f 6a bd
       -0.12922762 -0.030607712 -0.030733416 -0.05721999
000130 a1 70 79 3d b3 86 f8 3c 61 fa 04 3e 2b b9 8a ba
       0.060898427 0.030337667 0.12986137 -0.0010583749
000140 9d 43 2a 3e bb f6 68 3d 8e 47 88 3d 51 8d 10 3e
       0.16627355 0.056875926 0.06654273 0.14116408
000150 61 e0 e9 bc b2 6a 19 3d d8 5b fd bc d2 e0 01 bc
       -0.028549375 0.03745527 -0.030927584 -0.0079271365
000160 15 82 c9 bd 54 9b 9d bd 66 4a 73 3d be 91 0e 3c
       -0.09839264 -0.07695642 0.059397124 0.00870174
000170 2d 2b 9e bb ac a3 b4 3d f0 ff 0c 3d 0b d7 38 bd
       -0.0048269243 0.088202804 0.03442377 -0.045126956
000180 5c 1f 55 bd f6 66 23 3d 0b 61 07 3d c2 90 05 bd
       -0.05203186 0.039893113 0.03305153 -0.032608755
000190 9e 7a 9e 3d ac 25 1d bb cb 5c 44 bd c8 58 1d 3b
       0.07738231 -0.0023978753 -0.047940057 0.0024009217
0001a0 e8 7c 0e 3d b8 fe e8 bc 47 50 89 bd 0d b0 4d 3d
       0.03478709 -0.028441772 -0.06704765 0.050216723
0001b0 04 ce 41 3e 92 9d ed 3d c4 1e 3d be bf 27 23 3a
       0.18926245 0.1160232 -0.18468767 0.0006223879
0001c0 f2 b8 1a 3d a6 68 bc bc 56 ed 7b bd ae 7d 7f 3b
       0.037774034 -0.022999119 -0.061505638 0.0038984823
0001d0 64 bb 25 be d9 9f 88 bd bd f8 74 3d 6c d4 84 3d
       -0.16184765 -0.066711135 0.059807528 0.06485829
0001e0 5e 6a 93 3c f2 97 8a 3c 11 6d 08 3d 1f 36 32 bb
       0.017995056 0.016918156 0.03330714 -0.0027192903
0001f0 04 fe 63 3d b7 b4 cf bd 2b 81 8d 3d bb cd df bd
       0.05566217 -0.101418905 0.069094025 -0.10927912
000200 d1 ff a9 3c 52 7d c3 3d d4 e2 2d bd 80 b6 b4 3d
       0.020751866 0.09545387 -0.04245265 0.088238716
000210 e3 18 06 bc 81 66 ab 3d 1a a9 f0 ba c0 b6 48 3d
       -0.008184644 0.083691604 -0.0018360943 0.04900241
000220 bc ad 28 3d 74 d3 69 3d 57 9c a6 bb e5 7b 09 bc
       0.04118131 0.057086423 -0.005084555 -0.008391355
000230 c2 1d 45 bd e1 6b a1 3d ee a6 80 3d 9f d1 99 3c
       -0.048124082 0.078819044 0.06281839 0.018776713
000240 52 e0 e0 3c 9e d2 0a 3d 55 0e 3a bd 7d b3 d3 bd
       0.027450714 0.033892266 -0.045423824 -0.10336969
000250 9d 71 6d 3d a0 77 f0 bc b9 14 9d bd 6f d8 72 bd
       0.05796968 -0.029353917 -0.07669968 -0.05928844
000260 6b 28 3f bb 29 5f 0b 3b 60 d9 18 3d 52 2c 76 bb
       -0.0029168378 0.0021266437 0.03731668 -0.0037563038
000270 7c ac 88 bd 2d cf 3c 3d bf 7c 05 3e 5b 53 c5 bd
       -0.06673524 0.046096016 0.13035868 -0.096350394
000280 ea aa 18 3d 07 4a 04 3d d1 85 0c bd 5c a0 11 bd
       0.03727237 0.03229716 -0.034307305 -0.03555332
000290 c2 4a 86 bd d3 3d 93 3d 88 48 e6 bd 92 d7 9a bd
       -0.06557228 0.071895264 -0.11244303 -0.07560648
0002a0 d6 03 0d 3e 85 3a f9 3d cd c9 80 bc e1 56 0c 3e
       0.13770995 0.12169365 -0.015721226 0.13705017
0002b0 18 d6 46 3d 96 06 4a 3d ed de 5b 3d f3 ab ed 3c
       0.04854402 0.049322687 0.053679395 0.029012656
0002c0 13 1e ad bc 97 b6 bb 3d 3c fe 38 3e 11 66 af bc
       -0.021132505 0.091656856 0.18065733 -0.021410974
0002d0 59 04 99 bd 17 ac 09 bd 62 95 89 3d d4 50 6c 3c
       -0.074715324 -0.033611383 0.06717946 0.014423568
0002e0 9b 6b 00 bd 8d 33 ce 3d 09 03 34 3d 81 b4 81 bc
       -0.03135262 0.10068426 0.043948207 -0.015833141
0002f0 6d 7a 9b 3c 16 f1 59 bd ae 22 4f bd 03 e8 02 be
       0.018979276 -0.053208433 -0.050570183 -0.12783818
000300 de ee ca bc 80 83 dd 3d 0e 42 19 3d f4 9f 6f 3c
       -0.024772104 0.10816097 0.03741651 0.014625538
000310 cd 64 de bc a6 1f 70 bc 84 d8 77 bd 62 84 d6 3d
       -0.027147675 -0.014655983 -0.06050922 0.10474469
000320 88 4b 5b bb dc df 8d bd d5 43 35 3c 9b f6 8c 3c
       -0.0033461768 -0.069274634 0.011063536 0.017207434
000330 e4 44 95 bd 9b 1a 6b 3c 88 78 06 bd a5 a5 17 be
       -0.072885305 0.014349605 -0.03282979 -0.14809282
000340 d6 c1 af 3c 77 16 40 3b 1d 2b d2 3d 2f e2 8a bd
       0.021454733 0.0029310265 0.102621295 -0.06781422
000350 f1 5e 9d 3d 18 8d 03 bd e6 bd b7 bd 29 9a 2c bc
       0.07684124 -0.03211698 -0.08971767 -0.0105348015
000360 89 54 78 3d 47 22 8d 3c 3b b6 71 3c 03 70 4b bd
       0.060627494 0.017228259 0.01475292 -0.04966737
000370 9e ed f0 3d 82 2a f6 3c 7c 40 12 3d 84 e6 2a 3b
       0.11764072 0.030049566 0.03570603 0.002607734
000380 e1 85 9b 3d cf 6e 2a bd 08 a4 a5 bd e9 d4 57 3d
       0.07593895 -0.04160958 -0.08087927 0.05269328
000390 61 bf 57 bd 0d fc a2 3d 8a d1 ac 3d 41 0d 4c bd
       -0.052672748 0.07958231 0.08438404 -0.049817327
0003a0 76 54 7a bd 00 c3 80 bc 28 7c d4 3d 93 02 c4 3d
       -0.061115704 -0.015717983 0.103752434 0.095708035
0003b0 d9 2b bc bc 7b 8f 36 bd 7d 77 db 3d 14 31 00 3e
       -0.022970127 -0.044570427 0.1071615 0.12518722
0003c0 bc d1 d0 3d 15 0e 29 3d 2f 85 47 3d b0 33 06 3e
       0.10196254 0.041273195 0.048711 0.13105655
0003d0 c6 34 32 3d ce fd d5 bd 7e b5 f2 3d 2b 45 f8 ba
       0.04350736 -0.104488 0.11851023 -0.0018941512
0003e0 bb 6d 65 3d 5b 4b 1c bd a2 f2 df 3c 4b ce 31 3d
       0.05601285 -0.038157802 0.027337376 0.043409627
0003f0 ca 3a c4 bd 0c 94 95 bc 54 1a 26 bd 9a 64 30 bd
       -0.095815256 -0.01825907 -0.040552452 -0.04306469

layers.1.bias f4 [128]
000000 f7 46 3c 3e 2c 4a 23 bc ca af 45 bd 82 d1 2f be
       0.18386446 -0.009966414 -0.04826335 -0.17169765
000010 c9 5a 63 bd 1f 93 21 3e 96 7b fe 3d 3d e9 29 bd
       -0.0555065 0.15778778 0.12425916 -0.0414822
000020 77 f7 d8 3d 17 33 41 3d 39 f8 08 3e a2 b9 f0 3d
       0.10594075 0.047167864 0.1337594 0.11754157
000030 b7 17 8d bd 77 c3 49 3e 73 0f d4 bd b5 5c aa 3d
       -0.06889289 0.1970347 -0.10354509 0.08318464
000040 e0 5e 3e 3d 45 e5 b4 3c e1 69 f6 3c cd 2a ef 3d
       0.0464772 0.02208198 0.030079784 0.116780855
000050 fc 62 b8 bd 7f 6e 0d bc 60 e8 07 3e dd 87 b8 3d
       -0.09003255 -0.008632301 0.13272238 0.09010289
000060 5d 24 0b 3e 9b d0 02 be e8 72 5a bb 16 a6 bc be
       0.1358809 -0.12774889 -0.003333265 -0.36845464
000070 71 fb 80 3d 5f b6 69 bd b4 51 c1 bd 40 a0 ff bc
       0.06297959 -0.05705869 -0.09439412 -0.031204343
000080 b5 fa 75 be 90 77 4e 3e 7b b9 03 bd e8 37 4f be
       -0.24021418 0.20162797 -0.03215931 -0.2023617
000090 7f ae e5 bd fe 2a 64 3d c1 2d c7 3d 99 2b b4 3e
       -0.11214923 0.055705063 0.09725524 0.35189512
0000a0 16 67 95 bb ea 4d d9 bd 30 4d 00 be cc d2 55 bd
       -0.004559408 -0.10610564 -0.12529445 -0.052202985
0000b0 b4 97 ba 3d 9a f1 ac 3d 70 71 34 be 86 8f a0 3e
       0.09110966 0.08444519 -0.17621398 0.313595
0000c0 67 d1 6f 3d 6e a4 2c be fe 66 80 3d 28 8b 5a 3d
       0.05854931 -0.168596 0.06269644 0.053355366
0000d0 e5 b7 e8 bd 5b 36 89 bd 9d 7d d3 bd d9 43 c4 3d
       -0.113632 -0.066998206 -0.10326693 0.095832534
0000e0 ca c0 79 3d e9 8f 80 3e 31 13 90 be 6a 78 a6 bd
       0.060974874 0.25109795 -0.28139642 -0.08128436
0000f0 46 00 d2 bc ca 96 7c 3d 17 fc 44 bd 08 69 73 be
       -0.025634896 0.06166724 -0.048091974 -0.23770535
000100 ef ee 6d bd 44 77 6a bd 03 20 3e 3e 0a 42 04 3d
       -0.058089193 -0.057242647 0.18566899 0.032289542
000110 9d f1 07 3e ad c5 3b bc 92 64 1e 3e e8 13 ee 3c
       0.13275762 -0.011460704 0.15468052 0.029062226
000120 28 5d 26 3d d5 37 9b 3e bb d6 45 be 77 26 90 be
       0.040616184 0.30316034 -0.19320194 -0.28154346
000130 80 5c 1f 3d 6a 01 41 be a6 31 6c 3d cf b4 6f bc
       0.038906574 -0.18848196 0.057664536 -0.0146305105
000140 ce 1e a7 bd 6c 46 81 bd d4 26 cb 3d 3e 99 f2 3d
       -0.081601724 -0.0631226 0.09919515 0.11845635
000150 6a 57 82 bb 29 1a ff bc bb 15 30 be 14 fb 00 bd
       -0.0039777057 -0.031140404 -0.1719579 -0.031489447
000160 3f 76 a8 3d c5 45 14 3e 90 6a 1e bd 01 6e 70 bd
       0.08225679 0.1447974 -0.038675845 -0.058698658
000170 a7 76 c0 3c d8 7f 8d 3d f0 5e a1 be 1c 61 70 3d
       0.023494078 0.0690915 -0.31517744 0.05868636
000180 fc fa 0f 3d df 4a f5 3d a9 6b b2 3d f1 1b ad 3c
       0.035151467 0.11977171 0.08711941 0.021131488
000190 25 07 70 bd f7 87 ef 3d 78 23 00 be 7f b8 7c 3e
       -0.058600564 0.11695855 -0.1251353 0.24679755
0001a0 e2 8e 3e bd 72 18 a0 bd 79 3a 08 be 0c 67 0f bd
       -0.046522982 -0.078171626 -0.13303556 -0.035010383
0001b0 d5 a2 59 bc 7a 5e c0 bd 23 80 24 be 4b 26 f4 bd
       -0.013283451 -0.0939302 -0.16064505 -0.11921366
0001c0 8c 75 51 3e 35 47 29 3e a6 87 6a bd 3a b1 f8 bd
       0.20454997 0.1653107 -0.05725827 -0.12143178
0001d0 a1 dc 31 3e c7 39 9e bc 18 15 10 3e 1a 1b 87 3d
       0.1736932 -0.01931466 0.14070547 0.06596966
0001e0 d5 53 75 bd 9c 31 2f 3d 21 2c 51 3e de e1 33 be
       -0.0598944 0.04277192 0.2042699 -0.1756663
0001f0 32 8f 7d 3d 12 8d 0f 3d da 33 83 be 01 96 27 be
       0.06190414 0.035046645 -0.25625497 -0.16365816

layers.2.weight f4 [128, 128]
000000 eb e1 9d bc 77 1e 2f bc 1c 89 0a bd b5 03 cf 3d
       -0.019272765 -0.010688416 -0.033822164 0.10108129
000010 ce 1b b4 bd a6 9a 85 bd 46 21 a9 bd cb f0 f4 bd
       -0.08794366 -0.065236375 -0.082582995 -0.1195999
000020 9a 5f f5 3c 64 75 53 bd c1 7a 0e be 23 49 40 3d
       0.029952813 -0.051625624 -0.13914014 0.04694475
000030 09 c5 b7 3d f7 17 0c be 20 22 cb 3d e9 1f 60 bc
       0.08973128 -0.13681017 0.09918618 -0.013679483
000040 10 9f 12 3d b9 47 81 3d f0 aa 9d 3d 26 f0 0e 3d
       0.035796225 0.06312508 0.07698619 0.034896992
000050 d5 2c e0 3d df 18 91 bd 32 6d 14 be 39 a1 ac bd
       0.10946051 -0.07084822 -0.1449478 -0.08429188
000060 3d 46 1f bd db 51 84 3c 64 9a 5b bc f8 2d 84 bb
       -0.038885344 0.016152313 -0.013403509 -0.0040338
000070 20 00 7e bc e5 35 df 3d 88 81 d4 3d 8b cf f2 3d
       -0.0155029595 0.108989514 0.103762686 0.11855992
000080 61 91 ca bb d2 05 76 be c3 92 05 3d bd 76 b0 bd
       -0.0061818813 -0.24025658 0.032610666 -0.086163975
000090 a0 41 1c 3e 19 b7 78 3e 8b 75 2b 3c c1 0a e8 3b
       0.15259409 0.24288596 0.010465036 0.00708136
0000a0 a6 54 e5 bd b5 6a 6a 3d 78 c9 9a 3c bd b9 a1 bd
       -0.11197786 0.05723067 0.018894896 -0.07896755
0000b0 68 2d 2a 3c d3 08 de bd b9 96 74 3b 43 d3 a4 3d
       0.010386802 -0.10841527 0.0037321283 0.080481075
0000c0 0f 06 2b bd 53 f6 1a bc 91 92 f5 3b 28 6f c9 3c
       -0.041753825 -0.009458142 0.0074942787 0.024589136
0000d0 63 45 99 bd 69 f9 a3 bc fb a1 05 3e 40 6e 73 3d
       -0.074839376 -0.020016389 0.13050072 0.059431314
0000e0 d0 8b b2 bb 58 e5 10 be 14 27 93 3d bd 0e cc bd
       -0.005448796 -0.14149988 0.07185188 -0.099637486
0000f0 dc 61 e8 3d 6b 2b 1a 3c 11 5a f7 3d 88 ac b2 bd
       0.1134679 0.009409766 0.12077726 -0.08724314
000100 e5 e9 55 3d 43 51 91 3d d9 e6 9e bd 7c 4d e8 3d
       0.052225012 0.070955776 -0.077588744 0.11342904
000110 f6 1c 93 bd 95 ce 98 3d a6 ec 7a be 46 db 2d 3e
       -0.07183258 0.074612774 -0.24504337 0.16978177
000120 76 b1 10 3d f0 96 0d be 20 56 fb bc 77 a0 6f bd
       0.03532549 -0.1382711 -0.030680716 -0.05850264
000130 84 18 b5 bd 29 85 c4 bc 35 cf 8a 3d c8 2a 42 3d
       -0.088425666 -0.023989277 0.06777803 0.04740408
000140 0d 44 df bc 2c 13 e2 bc a4 71 25 bd a2 48 f1 3d
       -0.027254129 -0.027597032 -0.04039158 0.11781432
000150 b8 d6 cd 3d 2a 91 19 be 50 d5 64 3c 85 62 f5 3d
       0.1005072 -0.14996782 0.013966873 0.11981682
000160 02 5c c1 bd 44 2e e0 bc 04 9e 2f bd 2d c8 a6 bd
       -0.09441377 -0.027365811 -0.042875305 -0.08143649
000170 07 d0 01 3e cd 91 40 bd 10 5c c1 3c 11 b6 83 bc
       0.12677012 -0.047014046 0.02360347 -0.016078027
000180 0c c9 b9 bd f2 05 ba bd 37 24 5a bd 53 f2 e7 bc
       -0.0907155 -0.09083165 -0.053257193 -0.028313791
000190 10 68 f6 3d d5 a2 9f bb 63 30 b5 3c bb a9 ed bd
       0.12031567 -0.004871706 0.0221178 -0.11604639
0001a0 14 ed 2f bd 50 ec 6b bb 90 67 85 bc 3a a1 99 bc
       -0.042950705 -0.0035999008 -0.016284734 -0.018753637
0001b0 99 f7 8f 3d c6 82 11 3e a5 ee 05 3c 18 8e 4a bd
       0.070296474 0.14210042 0.008174573 -0.049451917
0001c0 45 f5 e5 bd c3 3d bd bd b3 bb ab 3d 1a 4f d4 3c
       -0.11228422 -0.09240296 0.0838541 0.025916625
0001d0 c3 3f 18 bd 88 bd 16 3e 18 22 2f be 79 9e 3e 3e
       -0.037170183 0.14720738 -0.1710285 0.1861514
0001e0 ea f4 40 3d 11 d2 27 bd 22 9c 1b be b4 23 0e bd
       0.04710857 -0.04097182 -0.15196279 -0.034702018
0001f0 f6 08 08 bc 0b 57 cc 3b dc 72 80 bd 77 d1 2b bd
       -0.008302918 0.0062359623 -0.06271908 -0.041947808
000200 39 9e b3 3d 20 d7 a9 3d 29 97 f9 bb 74 86 71 bc
       0.08770413 0.08292985 -0.0076168966 -0.014741529
000210 db 32 5c 3d cd 60 a5 bc 34 90 e1 3d 76 30 82 bc
       0.053759437 -0.02018776 0.11013833 -0.015892249
000220 3b 69 5c bb 36 a5 ef 3d 89 1b 8d bd 0b f8 aa 3c
       -0.0033632058 0.11701433 -0.068900175 0.02087023
000230 9d 43 64 bc f7 34 d2 3d 96 40 83 bd 30 17 e3 3d
       -0.013932136 0.102640085 -0.06408803 0.11088407
000240 9e ec 18 bd 01 62 0e 3e cd ee fd bc 48 06 1c 3d
       -0.03733503 0.13904573 -0.030997658 0.038091928
000250 44 9d 95 3d 74 87 4a 3c 3e 59 90 3d 46 a6 0a 3d
       0.07305387 0.012361396 0.070482716 0.033849977
000260 bc 02 87 bb 8a dd fb bd 94 69 5a 3c c3 5d 39 be
       -0.004120199 -0.122981146 0.013330836 -0.18102174
000270 8c 4f 40 3c ab c5 c1 3d 57 0e f9 3c 68 d1 ab bc
       0.011737715 0.0946153 0.030402346 -0.020973876
000280 bf e7 02 be 82 e4 5d bd 0e 3a af bc a0 85 33 be
       -0.12783717 -0.054173 -0.021389987 -0.17531443
000290 a3 70 6d bb de 84 2d 3d a9 c1 1a 3e 65 47 e8 3d
       -0.0036230467 0.04236304 0.15112938 0.113417424
0002a0 72 a0 d2 3d ce 4a bb 3c 34 15 ba bc 34 ee 83 bd
       0.10284509 0.022862818 -0.022715189 -0.06441918
0002b0 0d f1 43 3c 1d be 3f 3d 41 8a c4 3d bc 0d 05 3e
       0.011959326 0.046812166 0.09596682 0.1299352
0002c0 5f 61 19 bd e1 b7 63 bd 6a 65 43 bc d2 8d 0d bc
       -0.037446376 -0.055595282 -0.011926034 -0.00863977
0002d0 e0 92 64 3b bf ff 0a bd e0 44 ca bc 10 59 c7 3d
       0.0034877583 -0.033935305 -0.024691045 0.09733784
0002e0 4c 09 40 3d 86 f8 63 bd c8 f0 99 be 07 13 a0 bd
       0.046883866 -0.055656932 -0.30066514 -0.07816129
0002f0 86 2f 06 3e 27 77 53 3d 4c 5e 49 3d 7d 8f 9a be
       0.13104066 0.051627304 0.049162194 -0.30187598
000300 02 4c c7 3d 85 d4 65 3d bd 88 41 3d b4 9e f4 3d
       0.09731294 0.056110878 0.047249544 0.11944333
000310 0c 42 b8 ba 0a 48 c4 3c 9e a5 6d bb c9 34 34 3e
       -0.001405777 0.023960132 -0.0036262046 0.17598261
000320 b1 67 99 bd 9e 68 f4 3c 92 f2 60 bd 19 07 a3 bd
       -0.07490481 0.029835042 -0.054918833 -0.07960338
000330 8e 71 73 bc b2 0a 04 be 90 40 6a bd 71 1d 1f 3c
       -0.0148586165 -0.12894705 -0.057190478 0.009711609
000340 d8 7d 4b 3c 93 4d f9 bd 5e 7c b2 3d 07 33 69 3d
       0.01242014 -0.12172999 0.087151274 0.05693343
000350 16 8d 38 3d 92 98 62 3d d0 6c ea bd 06 9f 75 3c
       0.045056425 0.055321284 -0.114465356 0.014991527
000360 f2 ac 85 bd 56 4b ed 3c c6 0e 2c 3c ee 3e 0e be
       -0.06527127 0.028966587 0.010501569 -0.13891193
000370 ff 22 ae 3d 32 61 ef 3c 2b 0b 60 bb 48 8f 3d bc
       0.08502769 0.029221151 -0.0034186344 -0.011569805
000380 97 97 3a bc f3 fa 6e 3d de 04 cb bd f3 8d 7d 3d
       -0.011388681 0.058344793 -0.09913038 0.06190295
000390 1b 13 92 bc 86 c3 25 3e fd ce 83 3d 6c 90 01 bc
       -0.017831376 0.16187868 0.06435964 -0.007907968
0003a0 50 67 91 3d e3 b0 78 3d 68 14 6d bb a0 88 3e bd
       0.070997834 0.060715567 -0.0036175493 -0.046517015
0003b0 f4 d3 88 3d e9 ae 8d bd d7 fb cf bd 0a c3 32 be
       0.06681052 -0.06918127 -0.101554565 -0.17457214
0003c0 79 f9 4e bd 91 06 a9 3d ab 30 ce bd 7e 69 9c bd
       -0.050530884 0.082532056 -0.100678764 -0.076373085
0003d0 85 04 76 3d 9c a8 46 3e 4d d0 d0 3c ad 25 f7 3d
       0.060062904 0.19400257 0.02548995 0.12067733
0003e0 34 67 41 bd 57 29 37 3c 86 0c 62 bd 95 ef f7 bc
       -0.047217563 0.01117929 -0.055187725 -0.030265609
0003f0 ac f4 64 3b aa 5b 66 3c dd 18 60 be a5 7d 86 bd
       0.0034935875 0.01405994 -0.21884485 -0.065669335

layers.2.bias f4 [128]
000000 cf 95 0d be a1 5e 24 3e c8 6f 89 3e c6 63 ae 3e
       -0.13826679 0.16051723 0.26843095 0.34060496
000010 b1 70 0b 3e fa c9 8b 3e 63 af d6 3e 62 3f 22 be
       0.13617207 0.27302533 0.41930684 -0.15844491
000020 47 e8 d6 3e 53 78 2b 3e 40 c1 34 3e f4 21 f2 3c
       0.4197409 0.16745119 0.17651844 0.029557206
000030 52 d8 e0 bd e0 d8 8a be 74 16 9a 3e 2c 7d 88 3e
       -0.1097876 -0.27118587 0.30095255 0.26658
000040 3b a9 e4 3e f5 dd 31 3e bf 69 b3 3e d0 7c 49 bd
       0.44660363 0.17369826 0.35041615 -0.049191296
000050 94 79 5f bd 18 ac e2 bd cf d4 7b be ab 63 ea bc
       -0.054559305 -0.110679805 -0.24592899 -0.028611979
000060 e7 d6 95 3e 9e e3 b1 3e 1f 9d bc 3e 83 5e ba 3e
       0.2926552 0.3474397 0.36838624 0.36400232
000070 0a ae c0 3e b3 c0 ba 3e 56 f9 5f 3e ac cd dc 3e
       0.3763278 0.36475143 0.21872458 0.43125665
000080 7a 7d cc 3e 18 90 d3 3e d4 54 af bd 1a 31 26 3d
       0.3993948 0.41320872 -0.085611016 0.04057417
000090 12 b0 b5 3e 4c 57 b1 3e a3 5d ee 3c 31 74 b5 3e
       0.35485893 0.34636915 0.029097384 0.3544021
0000a0 8c 68 a6 bd 31 16 b2 3e 9a c5 7f 3e b9 2c 46 be
       -0.081254095 0.34782556 0.24977723 -0.19352998
0000b0 4e fd f4 3e 84 2e 16 be 88 93 65 3e 3f a3 d0 3e
       0.47849506 -0.14666182 0.2241956 0.40749547
0000c0 57 e6 1b 3e 98 bf a0 3e cf 67 95 3d f2 53 81 3e
       0.15224586 0.31396174 0.072951905 0.25259358
0000d0 d2 d0 47 3d 54 fb 79 3e 70 0e e8 3e fa 7d 26 bd
       0.04878313 0.2441228 0.45323515 -0.040647484
0000e0 b7 f2 02 3e 46 b5 64 3e 65 77 42 3e 5f 4e ab be
       0.12787901 0.22334775 0.18990858 -0.3345823
0000f0 32 a1 da 3e c6 ea 7c 3e 32 37 c6 3b 7a 2d 67 3d
       0.42701107 0.24698934 0.0060490603 0.056439854
000100 b7 2b da 3e 0b 3b 3e bc 6f 65 a7 3e 38 d7 3d 3e
       0.42611477 -0.011610757 0.32694575 0.1853913
000110 bc af 2c 3e a3 3d 9a 3e 96 fc b2 3e 2c 44 10 3d
       0.16863912 0.3012515 0.34958333 0.035221264
000120 18 5a 50 bc fd 33 6c 3e f0 45 75 3e 22 4c a6 3e
       -0.0127167925 0.23066707 0.2395246 0.3247996
000130 52 1e c3 3e d9 74 07 3f 96 e4 27 3e 3d 1a 50 3e
       0.3810907 0.5291267 0.16395792 0.20322509
000140 71 b5 a1 3e 07 5f 8f 3e de 63 b2 3e d4 e0 be 3e
       0.3158374 0.28002188 0.34841818 0.37280905
000150 f7 5a 5a bd 2c e4 19 3f 53 fa a8 3e af c2 16 be
       -0.053309407 0.6011379 0.33003482 -0.14722703
000160 54 ae 0b 3f f5 6d 55 3e 9c cb 93 bd 0b d2 98 3e
       0.5456288 0.20842727 -0.0721657 0.2984775
000170 d0 64 5b 3e 18 91 e1 3e fd 3a 83 3e 87 ef a8 3e
       0.21425176 0.4405601 0.25630942 0.32995245
000180 ee 84 40 bd f3 f0 db 3e 7a 56 28 bd 8d 3c 06 bc
       -0.04700177 0.42957267 -0.041098095 -0.008193147
000190 f9 15 f0 3e f3 e6 70 3e c6 b9 c5 3e bf f2 dd 3e
       0.46891764 0.235256 0.38618296 0.43349263
0001a0 f4 eb 3b 3e 0e 33 0f 3f df 23 66 3e 68 cb c6 3e
       0.18351728 0.5593728 0.22474621 0.38827062
0001b0 c2 c2 71 3e 03 74 16 3e d1 85 56 3e 15 d4 86 bd
       0.2360945 0.14692692 0.20949484 -0.0658342
0001c0 cb c4 ce 3e 64 df 87 bd b8 b1 a5 3e 8e 0c 85 3e
       0.40384516 -0.06634405 0.3236215 0.2598614
0001d0 54 4c be 3e 6e 26 d8 bd bc cb d6 3e 4d 81 de 3e
       0.3716761 -0.10554205 0.41952312 0.43458024
0001e0 09 4c 5c 3e 97 be ac 3e 91 bc a9 be 60 64 4a 3e
       0.2151338 0.3373916 -0.33151677 0.19764853
0001f0 06 99 43 3e 05 19 f3 3d 73 29 e3 3e 76 2b 25 be
       0.19101343 0.118700065 0.4436756 -0.1612986

layers.3.weight f4 [1, 128]
000000 60 db b7 be fe 5f 0e 3d a8 b9 b7 3c f3 46 3e 3d
       -0.35909557 0.034759514 0.022427395 0.04645438
000010 64 9c ca 3c 69 1d 24 3c 22 e0 8b bd d9 8d 2a be
       0.024732776 0.010016778 -0.06829859 -0.16655673
000020 d2 74 d4 bd 2e 69 92 3d d7 a4 76 3d 0c 92 3d bc
       -0.10373844 0.07148968 0.060215797 -0.011570465
000030 52 51 d3 bd 0f 79 52 be c8 ce a6 3d 4b d7 99 bb
       -0.10318245 -0.20553993 0.08144909 -0.0046948544
000040 54 d4 c3 3b 74 5b f8 bc 53 55 87 3c 24 13 49 3e
       0.005976239 -0.030317046 0.016520178 0.19636208
000050 25 f6 0c bd 15 8f b3 bd 12 69 2a bf 0e 8f 9f bc
       -0.03441443 -0.08767525 -0.66566575 -0.019477393
000060 fd fa 9b 3d 4c 26 a0 3d 9b 27 60 3b d6 f8 b6 bd
       0.076162316 0.078198045 0.0034203294 -0.089341804
000070 93 cb 59 bc 59 88 9f 3c 2c 75 d7 bc 6b 03 cf bd
       -0.013293165 0.019474195 -0.02630099 -0.10108074
000080 dd bd 7f 3d ac 72 11 bd fa de 33 3d f2 39 8e 3e
       0.062436927 -0.03550975 0.04391382 0.27778584
000090 f4 64 99 bd da 02 4a 3d 05 4f 09 bc ca f4 77 3d
       -0.074899584 0.049319126 -0.008380656 0.060536183
0000a0 3c d0 c5 3c 2f ed 59 bd 21 3e 8e 3d f8 29 81 be
       0.024147145 -0.05320471 0.06945444 -0.25227332
0000b0 a0 64 3f 3b fa bb 05 bc ff 22 5c 3c 3b 4e dc bc
       0.0029204264 -0.008162493 0.013436078 -0.026892772
0000c0 e3 6b 3f 3c 96 03 23 3c 9f ef 35 bd 6f 2c 50 bd
       0.011683437 0.009949585 -0.044417974 -0.050823625
0000d0 d3 80 98 3c b6 eb 00 3b 80 55 9c ba e5 9e 1d bd
       0.018616116 0.0019671745 -0.0011927336 -0.03848161
0000e0 d7 78 f7 bb b6 ef 1d 3d 61 49 d7 bc 2e 6a 31 bf
       -0.007552247 0.038558684 -0.026280107 -0.6930264
0000f0 74 b4 bd bc bb 28 93 3d a4 d1 4a 3e 26 d4 09 3d
       -0.023157336 0.07185503 0.19806534 0.033649586
000100 8a 47 9c bd 84 74 2d bc ae b6 cf bc cc 2a 8d 3d
       -0.076308325 -0.0105868615 -0.025355663 0.068929285
000110 70 74 38 3d c7 6a 96 bd fc 83 96 bd 25 2e 13 3d
       0.04503292 -0.07344585 -0.07349393 0.03593268
000120 f1 4e c2 3d 2d 27 61 3c 2e 70 29 bd 1a 2e 66 bd
       0.09487713 0.01374225 -0.04136675 -0.05619631
000130 53 c0 4c 3c 3f b7 9b bd ba 35 40 3d 06 39 03 3d
       0.012497026 -0.07603311 0.046926238 0.032036804
000140 1c 33 79 3d c6 04 47 3c bf c7 38 bd a9 a7 a8 3c
       0.060839757 0.012147134 -0.045112368 0.02058776
000150 20 66 b0 3b 04 83 90 3b 6a a5 df bc b5 b3 35 be
       0.005383268 0.0044101495 -0.027300555 -0.17744334
000160 b7 b9 61 3d 98 6c 06 3d 85 8c 19 3e 0c 2c 4f 3d
       0.055108752 0.032818407 0.1499501 0.050579116
000170 60 8f a6 3d 4c f4 b3 3b 41 4b 13 3d 77 a7 8a 3d
       0.08132815 0.005491769 0.03596044 0.06770223
000180 39 7c c9 3d 8b e3 68 3c 08 61 14 bd 28 ef b4 bc
       0.09838147 0.014214407 -0.03622535 -0.022086695
000190 76 85 4f bd c1 48 87 3d ea 78 2c bd 8d 39 ab ba
       -0.050664388 0.066056736 -0.0421075 -0.0013063416
0001a0 95 cc 1b 3d a7 76 b9 3b e7 9e e5 3c b9 92 9b 3c
       0.0380369 0.0056598964 0.028029872 0.018990861
0001b0 a1 98 a7 3d f8 8e 0e 3d a2 30 86 3c c4 44 9e 3c
       0.081834085 0.034804314 0.016380612 0.0193199
0001c0 e3 83 2e bd 9c 72 2c 3d db b2 28 3d a8 ce 89 bd
       -0.042606246 0.042101488 0.041186195 -0.0672887
0001d0 0b 7b a0 bb 60 13 88 bd 9f 46 2e 3d a0 8b 4d 3c
       -0.0048974804 -0.066443205 0.04254782 0.012545496
0001e0 de e4 c1 3d fb 31 1f bd ef a3 99 be fe 91 45 bc
       0.09467481 -0.038866024 -0.30007884 -0.012058733
0001f0 19 04 e6 3d cb 82 11 3d a5 b2 15 3b e7 4b 31 bd
       0.1123125 0.035525125 0.0022842076 -0.043285277
