trained_models/C_0_cps.pth (torch_old, 141080 bytes, 7 tensors)

layers.0.weight f4 [128, 13]
00000000: e4a4 bd3c 4f90 f03b e19e 8fbe 4905 a63e
00000010: 6ede 0f3e aad7 1d3e 7323 033e 770d 11be
00000020: 0f26 563d 25ff a7bc 53c6 15bd 39ea 013e
00000030: 94c1 a0bd c8e7 3bbd 3ace 943d 870c 573e
00000040: 1fb0 6b3e 1aee 48be cbbb 8d3c d454 633e
00000050: ff75 5dbe 5860 533d 0e5c 02bd db57 54bc
00000060: 7d41 9e3c 2d65 a33d 091c 9e3d 6434 173d
00000070: 7eaa 0abe d085 0abf d5d0 2ebd 0912 8d3d
00000080: 07e1 043e d759 0ebe 5157 ca3d cee0 08be
00000090: c40a d7bc d5e6 5fbd 7143 c0bc 7468 383c
000000a0: fc0d 27bc 3f1f 8dbe 72e2 acbe dcec 13be
000000b0: cf23 173d aa3c 0ebe a964 e03d 8508 793e
000000c0: a847 57be 2d58 7bbd 755d 85bc 696c e53d
000000d0: 1660 c23d 28c0 8c3d 53b9 be3a d219 cb3d
000000e0: 4739 533e d379 ddbc 9e46 6f3c 1857 cfbd
000000f0: 64ce 2d3e 1d44 2d3e 408b f8bd a2cc 1d3d
00000100: ac8f 61bd 01bd b7be c108 bebc a83c ab3d
00000110: f6a0 073e 571e 9a3e aa3c 1dbe 94e4 7e3e
00000120: 97ec 1dbe 25ce 8cbd dd02 ba3c f4e7 8d3a
00000130: 3216 22be 1d57 65bd b494 db3d f94f 013d
00000140: fee2 763e c7d7 91bd 1202 16bb 29aa 45bd
00000150: 1f85 2ebd 9a6a cebd 3dd8 5abe f0f6 913d
00000160: 37aa f4bd 1719 9cbd e953 173f aa90 17bd
00000170: b90c a13c c160 a5be fa72 53bd 1074 9f3d
00000180: e804 eabb 77c2 e53c b3d5 11be 3443 b7bd
00000190: 2b6c 14bd 1bf2 69bd ea73 a6bd ac95 2ebe
000001a0: 3fe8 543e 4dcf aebd bc6f eabc 5960 20be
000001b0: bd7b 853e d183 1abd 2308 253e 74d5 bd3d
000001c0: 1960 02bd 812c 633e 7e18 b53d 28f2 903d
000001d0: 8438 623d 5c91 87bc a327 78be e6d8 7bbd
000001e0: c1b2 963c aaed 293e 4b9a 51bd 8be6 88bb
000001f0: 7ce1 a93d d4ca 0b3c 786d d6bd 6f42 7dbe
00000200: f99c 843e 7f58 883d f89a 933c f6c6 da3d
00000210: 11f6 293e 4271 edbd 594f 993c add6 903e
00000220: 5ae5 11bb e8e3 3c3d cebf 133e c6dc 173d
00000230: 7fb2 633e ab7e 993e b294 07be 42d8 11bc
00000240: f549 563d 7909 cd3a 8b03 023c 6cce 4a3d
00000250: 803e f0bc bd99 9dbe 22d6 943e ee65 363b
00000260: aba6 e1bc 637d b33d 0169 acbd 2b64 683d
00000270: 1b0d 87b7 8d5f 06bf a2d7 0db6 c08f b236
00000280: dda2 61bd df8f 61bd c32c 4d3e e1fd 3c3e
00000290: 5cd6 473d ffde 473d 1dfa e7be 3fbb 6b3e
000002a0: fb6c 8e37 8d53 b1bd ce58 ae3e cd47 303e
000002b0: 4a27 873d e7b2 953e d0e5 973c a299 b0bb
000002c0: d39b 223e 6e0f 553e ff3c 4f3c cd42 bcbd
000002d0: b9e8 463e 0542 0abe 51a7 163e 1a97 643d
000002e0: 5de6 a53d 3b4d 30bc d3cc b03c 0e98 80bd
000002f0: 69ad 4b3e c9df ad3d be5c a53e 822f 6c3e
00000300: 032a 8c3e 932f 15be b268 fa3d edb8 bcbd
00000310: a7d3 a93d de61 753e fb7c 923e 95e5 dabb
00000320: 35e3 0fbb 6e02 c4bd 12e9 6cbd 5296 6a3d
00000330: 3695 503c b2ad 0cbe 089a c73d c7b9 0dbe
00000340: 973e 463a 7f65 953d a338 ad3e c2d6 653e
00000350: 5346 813d 8bbd 683d 475e d03d 46f9 c6bd
00000360: 0edc 44bd 87a0 dd3d 9583 2e3d 72ea 9c3d
00000370: 427a 8bbe de59 143d 89a8 49be de28 973d
00000380: 00e0 fd3c 0405 09be 2a17 003e e0b1 cc3c
00000390: 66b5 123e 72ae ec3d e473 ddbd 2194 82be
000003a0: 910f 9b3e 15e7 9f3c 1d69 b4b9 b00e 70bd
000003b0: ecf9 173d 2323 28be cb42 8b3e 06b5 3b3c
000003c0: 15b9 febd 9fe3 503e a135 cebd 3f37 833c
000003d0: 2e4f 86bd 5c9a 51be 07a8 58be 3b57 df3e
000003e0: ba98 34bd 8b54 ffbd b9bb 28be 4bb2 0fbd
000003f0: 512e 54bd 6a45 db3d 9016 34be c574 503d
0.023149915 0.0073414217 -0.28050902 0.32425907 0.14049694 0.154143 0.12806492 -0.14165293
0.05228239 -0.020507405 -0.03656609 0.12687005 -0.07849422 -0.04587534 0.07265897 0.21000873
0.23016404 -0.19622079 0.01730146 0.22200328 -0.21627043 0.051605552 -0.03182607 -0.0129603995
0.019318337 0.07978282 0.07720191 0.036915198 -0.135416 -0.5411043 -0.042679626 0.068882056
0.12976466 -0.13901459 0.098799355 -0.13367006 -0.02625025 -0.054663498 -0.023469659 0.011255372
-0.010196205 -0.275629 -0.33766514 -0.14445823 0.036899384 -0.13890329 0.109566994 0.24319656
-0.21023428 -0.061363388 -0.016279915 0.11202318 0.09490983 0.068725884 0.001455108 0.09917034
0.20627318 -0.02703563 0.014604239 -0.10124034 0.16973263 0.16920514 -0.12135935 0.03852523
-0.055068657 -0.35886386 -0.023197534 0.08361179 0.13244995 0.30101272 -0.15355173 0.24891883
-0.15422283 -0.068752564 0.022706443 0.0010826574 -0.1582878 -0.05599128 0.10721722 0.03157041
0.24110028 -0.071212344 -0.0022889418 -0.04825798 -0.042607423 -0.100789264 -0.21371551 0.07127178
-0.119465284 -0.07621973 0.5911241 -0.037003197 0.019659387 -0.3230038 -0.051623322 0.07785809
-0.007141698 0.02804683 -0.14241676 -0.08948365 -0.03623597 -0.057115655 -0.081275776 -0.17049283
0.2079172 -0.08535633 -0.028617732 -0.15661754 0.26070967 -0.037723366 0.16116385 0.092692286
-0.031829927 0.22184946 0.08842562 0.07077438 0.05522968 -0.016548805 -0.2423387 -0.061486147
0.018395783 0.16594568 -0.051172536 -0.0041778735 0.08294961 0.008532245 -0.10470098 -0.24732374
0.2590101 0.06657504 0.01801823 0.1068248 0.16597773 -0.11593868 0.018714594 0.28288785
-0.0022261948 0.046115786 0.14428636 0.03707578 0.2223606 0.29979452 -0.13240317 -0.008901658
0.052316625 0.0015643082 0.007935415 0.049513265 -0.029326677 -0.30781356 0.2906962 0.002783175
-0.027545294 0.0876415 -0.084184654 0.056736153 -1.6099357e-05 -0.5248955 -2.1136152e-06 5.321548e-06
-0.05508696 -0.055068847 0.20036606 0.18456222 0.048788413 0.04879665 -0.4530801 0.23020647
1.6978467e-05 -0.08658514 0.34052128 0.1721489 0.06599291 0.29238054 0.0185422 -0.005389408
0.15879755 0.20806667 0.01264882 -0.09192429 0.19424714 -0.13501747 0.14712264 0.055808164
0.08100579 -0.010760601 0.021582043 -0.06279002 0.1989037 0.08489949 0.3229732 0.23064998
0.27375802 -0.1456893 0.12227 -0.09214959 0.082923226 0.23963115 0.28610978 -0.0066802003
-0.0021955494 -0.09570776 -0.05783946 0.057272263 0.012730887 -0.13738135 0.09746176 -0.138404
0.0007562427 0.072947495 0.33832273 0.22445205 0.063122414 0.056821387 0.10174232 -0.09715514
-0.048061423 0.10821634 0.042605955 0.076619044 -0.27241713 0.036218517 -0.19693197 0.07380842
0.0309906 -0.1338082 0.12508836 0.024987161 0.1432701 0.1155671 -0.1081312 -0.25503638
0.30285314 0.019519368 -0.0003441059 -0.058607757 0.03710358 -0.16419654 0.27199396 0.011456734
-0.12437645 0.2039933 -0.10068823 0.016017554 -0.06558071 -0.2046904 -0.21157847 0.4362124
-0.044090964 -0.12467297 -0.1647786 -0.035082143 -0.051801983 0.10706599 -0.17586732 0.05089261

layers.0.bias f4 [128]
00000000: 23d8 2bbe 3057 013d 541f e1be 7984 f83a
00000010: fee0 b03e da5e c1bd 6328 35be e989 863e
00000020: a1c3 d03d 0b10 5c3d c8f2 7bbc e041 02bf
00000030: cfa0 d83e c89e 4b3e 5508 723e 025a 0e3d
00000040: 4547 cb3e 2bed 78be f0bc ce3e 4a92 4cbd
00000050: 7525 bfbe 4848 f93d 3b04 053e 1a7e 82bd
00000060: 3681 dfbd 0272 4a3e 6479 303e 2a48 193e
00000070: c245 be3e 8003 043e 6d95 273e 5ce3 ab3e
00000080: c96e c13d 4fe7 863e c633 c63e e8e3 a9bd
00000090: b277 843d 5e2b ac3e ddf4 5fbe 93b6 af3e
000000a0: 483b 313c db71 75bd 7fd7 f43d 5b1d 353e
000000b0: 6b69 083e a7d5 a33e 647c 273e cf65 c2bd
000000c0: ab59 d4be 7513 5c3e 0579 ae3d 6444 eb3c
000000d0: 3664 583e 6152 1f3d 78ab bebd 0d53 7cbd
000000e0: a350 cb3d 0577 c9bd ecd3 37bd 8b3f 513e
000000f0: 522d 763e efe3 953e 1543 cd3c 1736 87be
00000100: 12bd e1bd 3e1e 793e d8a5 9e3e a8c3 e43e
00000110: 9c3b 7d3e 38d1 58be 7d79 6bbe e9fd 093d
00000120: 8e31 f13b 4c16 453e d5be 103e 99ef ac3d
00000130: a013 04be 7401 a2be 1371 7cbe 993c b03d
00000140: 4c02 803d 9de2 d2bd 8b71 ef3d 2234 ff3d
00000150: 28e0 363e 8ce7 b93c 4b3c 91bd ed36 c73e
00000160: b081 8c3e 60e1 7c3e fdee 77be 8d87 ae3d
00000170: d36a fc3d 1cb4 273d 0375 803e b7f7 55bb
00000180: 9bc7 0dbd 67e0 18bd 50df a53e 8845 073e
00000190: d4c6 cbbd a3b9 703e 0eae b73e 3c4f b0bd
000001a0: 0bb3 0abe b520 dfbd 9f3e 283e 8467 a4be
000001b0: de59 c83c 669f 553e 8ef5 bdbd b75a 3e3e
000001c0: 4f69 fb3d 15f2 aa3e a29c d43c 03ef 5d3e
000001d0: 50f2 8f3e b50b 2e3e 51fd cc3d 4b57 473e
000001e0: 0ed0 27be 8f03 87be 413b 1e3e b3dd 783e
000001f0: 8960 723e 22ea 84bc 9b84 7a3e 0ca9 943d
-0.16781668 0.03157729 -0.43969214 0.0018960378 0.34546655 -0.094419196 -0.17691188 0.26277092
0.10193563 0.053726237 -0.015377708 -0.5088177 0.42310187 0.19884789 0.23635991 0.034753807
0.39702812 -0.24309222 0.40378523 -0.0499442 -0.37333265 0.1217199 0.12989895 -0.06371708
-0.10913317 0.19770053 0.17233807 0.14968935 0.37162596 0.1289196 0.16365595 0.335719
0.09444959 0.2634835 0.38711375 -0.08295423 0.064681426 0.33626837 -0.21870752 0.3431898
0.010817356 -0.059923034 0.11955165 0.1768698 0.13321464 0.3199894 0.16356045 -0.09492075
-0.4147466 0.21491797 0.085191764 0.028719135 0.21131977 0.038896922 -0.09310049 -0.06160264
0.099274896 -0.09837154 -0.04487984 0.20434396 0.24040726 0.29275462 0.025056401 -0.26408455
-0.110223904 0.24327943 0.30985904 0.44680524 0.2472977 -0.2117356 -0.22995563 0.033689413
0.0073606437 0.19246787 0.14135297 0.08444137 -0.12898111 -0.31641734 -0.2465251 0.08605308
0.06250438 -0.10297129 0.116915785 0.124611154 0.17858946 0.022693418 -0.07091578 0.38909093
0.27442694 0.24695349 -0.2421226 0.08521948 0.123250626 0.04094325 0.25089273 -0.003264887
-0.034614187 -0.03732338 0.32396936 0.13210118 -0.09950033 0.23508315 0.3587498 -0.08608863
-0.13544862 -0.1089491 0.16430138 -0.32110226 0.024456915 0.20861587 -0.092753515 0.18589292
0.122759454 0.3338782 0.025953595 0.21673207 0.28114557 0.16996653 0.10009254 0.19466893
-0.1638796 -0.26369902 0.15452291 0.24303322 0.23669638 -0.016224924 0.24464647 0.07258806

layers.1.weight f4 [128, 128]
00000000: a5a1 cabc 36f8 debc 1fb6 bbbb 7912 33bd
00000010: 0c9e 8abc 94ff d6bc 3481 063e b810 fabd
00000020: 732e 87bd b2ad 4c3d af2e 323d 8e81 333e
00000030: 1347 c03d 6f7b 02bd 8514 eb3c 450c 34be
00000040: f454 063d cdb5 4e3d 5b57 343d 8c97 81bd
00000050: 4ef9 da3d 561d bfbd 2510 ec3c 4989 7abd
00000060: 47ef 323d f8d2 5cbd 7a5a 063b f96f 253e
00000070: a032 7e3d 2274 36bd 4ab7 a93c 7d66 743c
00000080: ab0f d03c 92a1 9cbb 72d7 ca3d fabc 06bd
00000090: 5a71 dfbd 53e5 40bd 7e9f 8c3d b034 0639
000000a0: 547b 1fbe 1ef3 ad3d e063 863d fb5f ab3c
000000b0: 774f 65bd d815 83bd 4235 9bbd 154e ec3d
000000c0: 9fb0 00be 3e9e 903d dfc6 763c 1d5d a33c
000000d0: 241b ecbd c9b1 8c3c 1c5b 8dbc 6f29 2a3c
000000e0: 531d 95bd 3dd7 3e3d 842f 96bd 1206 3d3d
000000f0: db8d 06be 86aa fcbd a2db 8e3d aad6 1cbd
00000100: 80cb 10bd 6639 813d 1473 843d dfb2 ce3d
00000110: db89 9e3b ed53 5a3e f778 a53a e21c 1abc
00000120: 464f a0bc 2035 a23d 7180 a83c ec9a b03c
00000130: d504 66be a3f7 bebd 5d4c 2ebe 2af5 bebb
00000140: b0e8 333d 32e8 9f3c 7cc6 a2bd 9bc1 d53c
00000150: aea5 1abd 1db6 583b 1d63 56be 6ea7 153c
00000160: 304d fcbd 3df7 22bd 2984 1f3b ae8e 553d
00000170: 2c59 073d 8b6a 553d 4ff9 3b3d 7a6d a7bd
00000180: a11d 983d d771 5b3d 61ad 173c 954c 1c3b
00000190: d6a5 adbd f7ab b83d ed55 ed3d 573c 0c3e
000001a0: b828 f9bc d84e 8bbc 5e50 ab3d 7cfe 2cbd
000001b0: 8299 5e3c 1f0b f73d eb94 9fbc a40c 7a3d
000001c0: d758 43bd 7090 9dbd 7b91 05bd 15ab 11bd
000001d0: 7f77 903d 843c 703c 0f23 fcbd 2176 d73a
000001e0: f41e 703d 5ebd 703e 85d4 50bd 390d 97bc
000001f0: c15c 313c fd6e c03b 262a 293d e944 513c
00000200: b661 7b3c 9c75 fe3c 1c0b 53bd accf 843d
00000210: 9be8 76bd 3e6f a2bd 2a51 183d 718e 8dbd
00000220: 4473 b2bd 16e5 383c a25d 233d 66e9 47bc
00000230: 30d7 0fbd 0f09 7e3d 46ca 88bd 5587 b0bc
00000240: 6e51 983d d10d 013d 4d5e a63c d349 53bd
00000250: b8c9 d13c f7e5 9dbc 3166 c83c 810d bbbd
00000260: 12a8 f5bc 181b ce3c 0038 a6bd 9aa3 4c3d
00000270: 14fb 97bd 980a 093d da13 14bd 65e0 143d
00000280: eb83 edbc 842d 24bd 982b 2d3b b87e 633d
00000290: 34e2 b4bd 5a6e 04bc a35d f4bc 9cfe 27bc
000002a0: 9168 083d d0fd 473c bf5c af3d c7b5 4bbd
000002b0: 3fc8 83bd 4091 9aba 7b6b a83c 3291 8cbd
000002c0: 5c43 4c3d dcca 8b3b ebb7 3ebd 004f 43bd
000002d0: 9915 453d 7fec 113b 6803 b0bd 2b3b 31bd
000002e0: 439b 08bd 0d26 853d 6026 2e3c 2840 abbc
000002f0: 6d13 36bd 0705 b6bd a9f5 d539 8315 0b3d
00000300: cb6f a13c eab5 843d 2462 5d3d 1c8d 3dbc
00000310: 4acd 863c 25ce 813d d4e3 c83c dca9 98bc
00000320: 1a82 6ebc 1b83 60bd 2d63 c4bc 1cac 8c3d
00000330: 39fa aa3d d969 81bd ea1e f83c f03c 6b3d
00000340: 62ab ecbc 8d6d 013d 8ad6 a23d e4ae b93c
00000350: bf2a 0a3d 0fa0 e23c 30dd 993d 093b 2cbc
00000360: a77a a8bd b9b7 8dbd e8c4 7fbc f770 42bd
00000370: 5440 e43c 84a0 b1bb 2dd4 9cbd 9b1e 13bd
00000380: 56cc afbd 541e aebd 3a68 a5bc 7373 14bd
00000390: 021b 86bd 6935 15bd cbb5 33bc 12a9 76bd
000003a0: f267 acbd 37ad 9dbd 99da 413d 7892 83bd
000003b0: 9daf 66bc ae0d f83b aa09 11bd 9a84 7bbd
000003c0: b285 3b3d 41b6 10bd e726 3dbc 620c a4bc
000003d0: 8993 debc 6435 3ebc bce6 923d 7d72 b0bc
000003e0: a6f4 693d 68d4 223b 1f5b 4b3d b246 66bd
000003f0: ef63 a2bc 2c17 b1bd dd45 4a3d aa7e adbd
-0.024735281 -0.027217966 -0.0057284976 -0.04371879 -0.016921066 -0.026244916 0.13135225 -0.1221022
-0.06600656 0.049970336 0.043501552 0.1752989 0.09388556 -0.031855997 0.028696308 -0.17582805
0.03279586 0.050466347 0.04402862 -0.063277334 0.10692082 -0.09331767 0.028816292 -0.06116608
0.043685224 -0.053912133 0.0020500706 0.16155995 0.06206 -0.044544347 0.020717282 0.014917013
0.025398096 -0.004780003 0.09904374 -0.032895066 -0.10910292 -0.0470937 0.06866358 0.00012798863
-0.1557439 0.084936365 0.065620184 0.02091979 -0.055983987 -0.06400651 -0.075785175 0.115383305
-0.12567376 0.07061432 0.015062063 0.01994186 -0.11528614 0.017174618 -0.017255358 0.010385855
-0.07280984 0.046591986 -0.07333282 0.046148367 -0.13140051 -0.12337212 0.069754854 -0.038290657
-0.035350323 0.06309776 0.06467262 0.10092711 0.004838211 0.21321078 0.0012624551 -0.0094063
-0.01956905 0.07920289 0.020569058 0.021558248 -0.22462781 -0.09324577 -0.17021318 -0.0058275657
0.04392308 0.019519899 -0.07948014 0.026093295 -0.03775566 0.0033067532 -0.20936246 0.009134157
-0.1231941 -0.039786566 0.0024340248 0.052138023 0.033044025 0.05210356 0.045892056 -0.08175178
0.07427526 0.053575363 0.009257645 0.0023849357 -0.08478896 0.09017175 0.11588655 0.13694893
-0.030414924 -0.017005369 0.08364938 -0.042234883 0.013586404 0.12062668 -0.01948019 0.06104721
-0.047692146 -0.07693565 -0.032609444 -0.035563547 0.07054042 0.014662866 -0.123113744 0.0016438403
0.05862327 0.23509738 -0.050983924 -0.018438922 0.010825337 0.005872606 0.04129996 0.012772777
0.01534312 0.03106194 -0.051524267 0.06484923 -0.060280424 -0.07931374 0.03718678 -0.06911934
-0.087133914 0.011285087 0.039884217 -0.012201643 -0.03511733 0.062020358 -0.066792056 -0.021548906
0.074374065 0.031507317 0.020308638 -0.051584076 0.025608882 -0.019274695 0.024462791 -0.09133435
-0.029987369 0.025159404 -0.0811615 0.04996071 -0.07420936 0.03345737 -0.036151744 0.03634681
-0.028993567 -0.04008247 0.002642369 0.05554077 -0.08832207 -0.0080829505 -0.029829806 -0.010253575
0.033302847 0.01220651 0.08562612 -0.049733903 -0.06434678 -0.0011792555 0.020559063 -0.06863631
0.049868926 0.004266126 -0.046562117 -0.047682762 0.0481163 0.0022266207 -0.085944 -0.043269318
-0.033351194 0.06501398 0.0106292665 -0.020904616 -0.04445212 -0.08887678 0.00040809557 0.033956062
0.019706627 0.0648001 0.054048672 -0.011569288 0.016455311 0.06338147 0.0245227 -0.018635683
-0.014557386 -0.054812532 -0.023973072 0.06868765 0.083485074 -0.06319017 0.030288178 0.05743116
-0.028890315 0.031598616 0.07951076 0.022666402 0.033732172 0.027664213 0.07512891 -0.010512122
-0.08226519 -0.06919808 -0.015610911 -0.047471013 0.027862705 -0.0054207463 -0.07657657 -0.03591786
-0.08583896 -0.085018784 -0.0201913 -0.036242913 -0.0654812 -0.03642789 -0.010968636 -0.06021983
-0.084182635 -0.07699054 0.04732761 -0.06424421 -0.014079955 0.00756999 -0.035409607 -0.061405756
0.0457818 -0.03533006 -0.01154492 -0.020025436 -0.02716996 -0.011609409 0.07172915 -0.021538967
0.05711808 0.0024845842 0.049647447 -0.056219764 -0.019823043 -0.08646998 0.049383033 -0.08471425

layers.1.bias f4 [128]
00000000: 9678 1f3d 490f b4bd 7688 b4bc efdc d03a
00000010: a70a 633e 255c 853c 3a8c e73d 6f7c 3cbd
00000020: faf7 2d3e af0b 68bd 039f 953d a9de 87bd
00000030: bff9 1d3e c397 3abd 8283 1ebe 85a5 a9bd
00000040: 80a0 643e f8cb 7a3d 617d 3e3c 8022 2abe
00000050: 4dea 4cbd e693 f1bd ffc1 57bd bf13 323b
00000060: d6bc ab3d 2512 80bc cd59 063e fa3f 88bc
00000070: 8472 8cbd 6ee6 003e 13a1 0d3e ac7f 02bd
00000080: b2b2 6e3d 2f09 95bd 3f7b 81bb 36d5 113c
00000090: 7553 8ebd ecc2 91bd 9667 89bc fbf0 78bd
000000a0: 2f2e 093d 83d2 b8bb 9018 acbd f2ab 65bd
000000b0: deaf e3bd dea2 0ebe 8475 ad3b 18dc 363c
000000c0: 60dd 1bbd a2f2 bbbd 269f 503d 12be 08be
000000d0: a626 93bc 0d67 dd3d 59c3 8f3d 1f65 a93d
000000e0: 152c b8bc 779c cb3c 6636 bc3d c6f9 7eba
000000f0: 17da 66bd 1948 febd ee6e fabd 9ccf cdbc
00000100: d101 34bc e06d 0dbd cd0c 623d a018 063e
00000110: 25f3 18bd a382 a93d 165c a13d 3400 18be
00000120: f1d0 b1bc a826 79bd cdb6 babd 3379 babd
00000130: 87ea ad3d ed72 c33a 6104 d63d 4986 6abe
00000140: 4019 8cbd 1b9d 873d 9f13 96bd 86ab 8abd
00000150: 5717 34bd 4ad0 71bd 6290 8fbd 1687 1a3d
00000160: 7610 5f3e fac7 bd3d 40ba 363c f875 e53d
00000170: 204d 203d b8a3 683d 768c 08be 002d 87bd
00000180: bbc6 ef3d 301f d0bd c924 1e3e 8ff6 83bd
00000190: 997d c6bc fbac a7bd 4d76 293e 41c6 ea3b
000001a0: 1ae0 253d 45ec a8bd 2bcc dabc 84a0 8a3b
000001b0: 853a 87bd d9d9 e43d 0a9c 69bd 493a afbc
000001c0: 0f05 f8bd 61f2 f33d d47e febd 4b73 b13d
000001d0: ad66 9a3d bb18 6b3d 2864 13bc 744c b73c
000001e0: 3add 20be 7113 963d c692 02be 10bf 74bb
000001f0: 4c6c 09be fe24 8b3b 6152 763d 976b ce3d
0.03893336 -0.08791978 -0.022037726 0.0015934984 0.22172032 0.01627929 0.11306043 -0.046017107
0.16989127 -0.056651767 0.0730572 -0.06634266 0.15427302 -0.045554888 -0.15479854 -0.082835235
0.22326851 0.061229676 0.011626572 -0.16614723 -0.050028134 -0.117957875 -0.052675243 0.0027172414
0.08385627 -0.015633652 0.13120194 -0.016632069 -0.068577796 0.12587902 0.13830976 -0.03186004
0.058275886 -0.07277142 -0.0039514597 0.008900931 -0.06949512 -0.071172565 -0.016773026 -0.060776692
0.03349131 -0.0056403293 -0.084031224 -0.056072183 -0.111175284 -0.13929316 0.00529355 0.011160873
-0.038052917 -0.09177138 0.050933026 -0.13353756 -0.017962765 0.10810671 0.070196815 0.082712404
-0.022481957 0.024854882 0.09190063 -0.000972655 -0.05636033 -0.12416095 -0.122281894 -0.02512341
-0.010986761 -0.034528613 0.05518799 0.13095331 -0.037341256 0.0827687 0.07878892 -0.14843827
-0.021706076 -0.06082788 -0.09116898 -0.09105148 0.08491998 0.001491157 0.10450054 -0.22902788
-0.068407536 0.06621762 -0.07327961 -0.06770997 -0.04396757 -0.05903653 -0.07009961 0.037726484
0.21783623 0.09266658 0.011152804 0.112041414 0.039136052 0.05679676 -0.13334832 -0.0660038
0.11707827 -0.101621985 0.1544372 -0.06443512 -0.024229812 -0.0818729 0.16549034 0.007164747
0.040496923 -0.0824819 -0.026708683 0.0042305607 -0.066029586 0.11174364 -0.057033576 -0.021390097
-0.1211034 0.119114645 -0.12426534 0.086645685 0.07539115 0.05739663 -0.008996047 0.022375323
-0.15709391 0.07327927 -0.12751302 -0.0037345327 -0.13420218 0.004246353 0.060137156 0.10079115

layers.2.weight f4 [128, 128]
00000000: 4a9e d33c 2a72 0d3c 9415 49bd 0816 4abd
00000010: ab7c 1b3d 8c18 15bd f1fd 7c3c 73c8 a63d
00000020: 7eb6 833d 98c7 b0bc e751 46bd 1328 123d
00000030: ce1b 82bd 9504 88bd 8649 88bd 78f6 de3c
00000040: d08d 413c 0ce2 90bd f244 bfbc 7083 0d3d
00000050: c1a9 1d3e 01dc cfbd 31fa e7bc 8066 5bbd
00000060: 1e49 23bd 51a5 3f3b 0a0c eabc d290 9d3c
00000070: 53ed 533c a01f 3d3c c791 443d d966 b93d
00000080: d42c c8bd 3532 c0bb 953a 8a3d 56f3 623c
00000090: 23d3 943d 950f 66bd dc6e e83d 55d4 bcbd
000000a0: a7e0 853d 9bd2 38ba 2ea5 ea38 2a9e 92bd
000000b0: db71 c23c b781 913c 9a49 7539 bd80 913d
000000c0: ed27 673d f547 873d a5bd 883d afee fc3d
000000d0: 97aa 2f3e 6b48 04bd f1f1 94bc c82b bebd
000000e0: e6d9 f1bc d55e 043e 885b 2d3e a77a a0bd
000000f0: e470 babd 5c73 653a dc68 df3c 76d5 813b
00000100: 1201 b43d f41f 3abd f943 57bd 801d bd3d
00000110: f740 5e3c f30d 16bb 27e6 a03d 88b6 cfbd
00000120: 6b1d bebd 4c4a 9ebd 865e bf3d 648a f83c
00000130: bc1a 393d 76fa 8ebc 28af 64bd 74c1 94bd
00000140: 71d0 053d 2270 ff3d db3d 4f3d 072c 333c
00000150: 0914 4dbd 9e79 fa3d a6ba 95bd 36fb 08bd
00000160: 199e 9e3d 7fd0 363d 4215 05bd 7b16 8b3d
00000170: 7dd7 9e3d e8a8 d43d 9595 1cbe b24b 81bd
00000180: 3e0a 1abc 5b7a ccbd 5b65 993d 0ffc 993d
00000190: 4163 0f3d 99a6 dbbd dec8 1dbd 95ef 303d
000001a0: 43a7 833d cbe0 2c3d 47ec 813d 6e47 44bd
000001b0: 9153 3fbd 7c70 1f3d da83 273d ebea 773d
000001c0: 9eea 6d3c 6fa3 8e3d a0fc 8fbb 8d69 00ba
000001d0: ceae bbbd d16b 7fbc 611b d33c 7343 dabd
000001e0: 7c42 f7bd a36a 56bd 2717 3a3d f983 893d
000001f0: 5063 65bd 9421 d03d e38b cebb 8aec cf3c
00000200: deaf 073e af78 443d 0520 5fbd 9414 b9bd
00000210: 7aac 8e3c 0cfd d73a 6761 60bc 83b2 28bc
00000220: 98a6 d63d 3d7f 963c 34d5 af3d 98fc 09bd
00000230: d7e3 1a3e deaf 7b3d c667 f93c a5c2 1cbd
00000240: 4586 80bd 8e7a 6e3d 344b 833d 5894 e3bb
00000250: 2c6c 10be d750 9a3b 6282 23bc 9ef2 f53d
00000260: 9244 933c f825 b5bc c1df fcbc 856e be3d
00000270: 41d5 733d c223 b739 a61a 653d 1274 e9bd
00000280: d6b1 a9bc 4f0f 273d 98f7 8dbd 3483 1c3d
00000290: 2c11 343d 174a a93b e8e5 e6bb 034d ac3d
000002a0: e7ce debc 37c8 443b bb0c efbd 4eb2 b03d
000002b0: 3fff c23c 16c4 1b3d 2548 163d 8fb9 aabd
000002c0: 64a2 0c3c 83f9 90bd ab25 b8bd 1bf1 353d
000002d0: b4eb e8bd e812 743d ca7a 3a3d 29f4 8b3b
000002e0: 5e88 943d afc7 74ba 775c c7bd 1f40 883d
000002f0: 15ec fe3d 282f fa3d a875 78bd 0bbb 3ebb
00000300: 54fc 8fbd 85ca 773d 9e69 a03d 530b 3ebd
00000310: 3f77 f3ba 2b0b bebc bc96 a2bc c6a4 163e
00000320: 6f36 803a 9dd6 063e b791 46be 3aa0 d5bd
00000330: 55e8 723d a980 5abd 04b0 863d 1e5b 593d
00000340: 5544 76bd 6810 18be f57a 5d3d 493e a4bd
00000350: a736 4dbd 6d8f 80bd 8808 e9bc 7c99 163c
00000360: 883b 90bb c8fe e0bc 76f4 efbd f632 b73c
00000370: f1fa 603d 6a84 c03d ea70 2d3e 8569 81bd
00000380: ea9f 403d 67a7 3c3c 5c00 113d 1d3b 25bc
00000390: aaf3 a33d c15a 18bc 443f 863c 9e20 b4bd
000003a0: 2adb 60bd ccf1 6b3d a302 053d 773e 653d
000003b0: 827c d93d 7330 983d 9d3a 89bd 8d33 83bd
000003c0: 4137 ecba ff2b 1e3d 9018 f4bc c41b 92bc
000003d0: 2c67 1f3d e522 1abd 11d2 12be ee6e b93d
000003e0: 95bc 5b3e 283f 433d cefe b33d 98d4 383d
000003f0: 1353 aebc 6e62 ecbd 91b1 533c dd10 db3b
0.025832314 0.008633176 -0.049092844 -0.049337417 0.03796069 -0.036400363 0.015441404 0.081437014
0.06431292 -0.021579549 -0.048417952 0.03568275 -0.063529596 -0.06641499 -0.066546485 0.027217135
0.011813596 -0.07074365 -0.023348305 0.034549177 0.15396787 -0.10149384 -0.028317543 -0.05356455
-0.03986465 0.0029242823 -0.028570194 0.019234095 0.0129350005 0.0115431845 0.047990587 0.0905282
-0.09774175 -0.00586536 0.06749455 0.013851961 0.07266834 -0.056167204 0.1134927 -0.092201866
0.0653699 -0.00070504256 0.000111887566 -0.07159074 0.023735931 0.017762048 0.0002339244 0.07104633
0.05643456 0.066055216 0.06676797 0.12350213 0.17154919 -0.032295626 -0.018181773 -0.09285694
-0.029522847 0.129268 0.16929448 -0.07835894 -0.091035634 0.00087528466 0.02727168 0.003962214
0.08789267 -0.04544063 -0.05255506 0.09234142 0.0135652935 -0.0022896498 0.07856398 -0.10142237
-0.09282955 -0.07729015 0.09344201 0.030339427 0.04519151 -0.017453413 -0.055831105 -0.07263461
0.03266949 0.124725595 0.0505961 0.01093579 -0.050067935 0.12230228 -0.07310991 -0.0334427
0.077449985 0.04463243 -0.032490976 0.06791397 0.07755945 0.10383779 -0.15291436 -0.06313266
-0.009401856 -0.09984275 0.07490035 0.075187795 0.035006765 -0.10725135 -0.03852164 0.043197233
0.06428387 0.042206567 0.063438945 -0.047919683 -0.046710555 0.038925633 0.040897228 0.06052677
0.014521269 0.06964766 -0.004394129 -0.0004898541 -0.09164201 -0.01558967 0.025769891 -0.10657396
-0.12073228 -0.05234779 0.045432236 0.06714625 -0.056002915 0.101626545 -0.006303297 0.025381345
0.13250682 0.047966655 -0.054473896 -0.09037128 0.017416228 0.0016478612 -0.0136950975 -0.010296467
0.10480994 0.018371219 0.08585587 -0.033688158 0.15125977 0.061447017 0.03044499 -0.038271565
-0.0627561 0.058222346 0.06410828 -0.006945174 -0.14103764 0.004709344 -0.009979816 0.12009166
0.017977033 -0.022112831 -0.030868413 0.09298424 0.059529547 0.00034931122 0.055933617 -0.11399092
-0.020714682 0.040786084 -0.069319904 0.038211063 0.04396169 0.005166303 -0.00704645 0.08413126
-0.027198268 0.0030026564 -0.1167235 0.08627759 0.023803351 0.0380288 0.036689896 -0.08336174
0.008583639 -0.070788406 -0.089915596 0.04441939 -0.11373082 0.059588343 0.045527257 0.0042710495
0.072525725 -0.00093376165 -0.09734433 0.06652855 0.12447373 0.122160256 -0.06065908 -0.0029103186
-0.0703055 0.060495872 0.07832645 -0.04639752 -0.0018574967 -0.023198685 -0.019847266 0.14711294
0.0009781847 0.13167806 -0.19391523 -0.104309514 0.0593036 -0.053345356 0.06576541 0.05306541
-0.06012376 -0.14850008 0.05407234 -0.080196925 -0.05010095 -0.06277356 -0.02844645 0.009191867
-0.004401628 -0.02746524 -0.11716549 0.022363167 0.054926816 0.09400256 0.16937605 -0.063189544
0.047027506 0.011514521 0.035400733 -0.0100848945 0.080054596 -0.009298981 0.01638759 -0.08795284
-0.05489651 0.057603642 0.032473218 0.055967774 0.10619451 0.07431116 -0.06700633 -0.06406317
-0.0018021838 0.038616177 -0.029796869 -0.017835505 0.03891675 -0.037630934 -0.14337946 0.09054361
0.21458657 0.047667652 0.087888345 0.04512462 -0.021279847 -0.115422115 0.012920753 0.00668536

layers.2.bias f4 [128]
00000000: cd60 c53e 300b 863c c158 8e3d b833 9b3d
00000010: 4cba d83c eb1e d5bb 2f70 203e 4999 1e3e
00000020: 64c6 173e ea41 85bd 1aa9 f83d e733 3b3d
00000030: 40bd 66bd 0b91 d13d c094 8c3d c474 1b3e
00000040: c400 463e 7c0a 1ebc 5f2a 943e 0182 6c3e
00000050: 7997 06be f459 ecbc 0e34 003d b4ec 733d
00000060: d833 b93d ae35 673d 9475 a5bc a690 09bd
00000070: 25a5 373d d4b9 e83d fa92 853d b381 643e
00000080: 32fd aabd a18a 1cbe adce b3bd 0d4b 053e
00000090: 31f8 b73d 8aba 0ebc 79a6 06be eace a73e
000000a0: 0445 0abe 9f49 953e ebca 9ebe 7330 9dbd
000000b0: 6b92 8e3b f93e 0ebd 61cd 843e e3b6 af3d
000000c0: c05b 973e 2963 d6bb 2887 993d d48c e63d
000000d0: 8eaf a1bd 091d a43d 00e8 163d ab55 0b3e
000000e0: 469f 28bd bf93 f73d b589 3c3e 66b8 70bc
000000f0: 053b af3e 76c4 ecbd 0430 d23d e77f 0c3e
00000100: 5676 2e3d 15e0 513e 2f85 943e 27fe 22be
00000110: 5876 e53d 9689 613e 9c21 683e f4b8 85bb
00000120: 7d09 d53c b637 473e 6aa5 2a3d dbbd e73c
00000130: 0f10 0c3e 2551 193e 7e98 1f3c 390c 6a3e
00000140: a711 d33d b6dd df3d f8b9 f33d 972f b7bd
00000150: da42 833d b936 2b3d 9b92 353e bd7d ac3d
00000160: a9b2 ae3d ae36 d93c 715c fe3d 7f31 833d
00000170: a544 5d3e 4106 f2bd 2f7e 0c3e 2299 c53c
00000180: 5aa9 df3d caf1 933a 06dc ce3d 2a9a 523d
00000190: 5c1a 203e aa2e 463d 5b03 013e 1807 2d3d
000001a0: 6f00 ccbc 65fd bd3c c9aa 9abc bd5d 253d
000001b0: 471b bcbc 8120 d33d 6f26 0a3e 8b56 c43d
000001c0: 5377 6a3d d421 2d3e fbd4 3339 44cb ee3d
000001d0: 479b 863d b644 e13b 0b0d 8a3e 1de3 a93d
000001e0: 5e0f 0c3e 168e 733d 2d06 11be ff1b ac3c
000001f0: ded1 803e aae7 c33d 7fb2 00bb 3adc 873e
0.38550416 0.016362756 0.06950522 0.07578224 0.02645602 -0.00650393 0.15667795 0.15488161
0.14821774 -0.06506713 0.121416286 0.045703795 -0.056332827 0.10232743 0.06864309 0.15181261
0.1933623 -0.009646054 0.28938577 0.23096468 -0.1314372 -0.028851487 0.031299643 0.05955191
0.090430915 0.056447677 -0.020197667 -0.033585213 0.04483523 0.11363569 0.06522174 0.22315101
-0.083490744 -0.15287258 -0.08779655 0.13016911 0.08982886 -0.008711467 -0.13149442 0.3277505
-0.1350289 0.2915773 -0.3101419 -0.076752566 0.0043509505 -0.034728024 0.25937942 0.08579805
0.29562187 -0.0065425825 0.07496482 0.112573296 -0.078948125 0.080133505 0.036842346 0.13606898
-0.04116752 0.12088727 0.18411906 -0.0146924015 0.34224716 -0.115609095 0.102630645 0.13720666
0.042593323 0.20495637 0.2900786 -0.15917264 0.11204213 0.22025141 0.22669071 -0.004080886
0.0260055 0.19454846 0.041661657 0.028288772 0.13678001 0.1497236 0.009740947 0.22856225
0.10306101 0.1093096 0.11900705 -0.08944624 0.06409235 0.041800234 0.17731707 0.0842242
0.085301705 0.026515331 0.124199755 0.06405925 0.21608217 -0.11817599 0.1372001 0.024120871
0.10920973 0.0011287269 0.1010056 0.051416554 0.15635055 0.048384346 0.12598936 0.042243093
-0.02490255 0.023192117 -0.018880265 0.0403726 -0.022962226 0.10308934 0.13491224 0.09586819
0.057242703 0.16907436 0.00017150112 0.116598636 0.065725856 0.006874646 0.26963076 0.082952715
0.13677737 0.059461676 -0.14162512 0.021009443 0.25160116 0.09565671 -0.0019637642 0.26535207

layers.3.weight f4 [1, 128]
00000000: f890 b33d 5f45 00be be12 0cbe 5999 01be
00000010: 12c8 c73d 8eba b03d 7055 e43d efaa a63d
00000020: 0f50 443d 8ae1 08be 3df1 e03d 5071 f8bd
00000030: 7c1f b1bc 8373 ed3d 9c45 793d 9630 cc3c
00000040: 74e7 853d c59c fdbd c450 7d3d 65bc df3d
00000050: 3a19 90bf f672 8ebc e801 38be 1836 c43d
00000060: 6c5b debd c12c abbd d67e 173d f090 b3bc
00000070: 2bdb 0ebe 4d91 3bbe a7d8 00be 4fb2 763d
00000080: 5984 54bd 5b76 bdbe 5609 05be fc72 9b3d
00000090: 1451 8e3d 4796 23be 714b e0bd b2bc e43d
000000a0: 7b5b bfbd 301b 093e 63ec de3e e5d6 20be
000000b0: 9c5c bf3d f5d0 f0bc b088 fd3d 4a5a 523d
000000c0: 993c fd3d 1d3e 073e b565 13be 839b 763d
000000d0: ca40 d93e 1157 19be 978e d0bd 9331 963d
000000e0: 603e 15be 50ba cfbd 38cf 7a3d 60b1 cabc
000000f0: a84c e63d e9d4 0bbe d4c6 df3d beef 933d
00000100: 0e4f 00be 96fa f73d 5e5b 383d 44b8 afbe
00000110: b453 20be a69a a43d 9ecf 063e 8110 5dbc
00000120: d5bd cd3d b7f1 ef3d 24d6 0d3e 6d0d f6bd
00000130: ad87 b43d cc0c 033e c759 f6bd fc07 b93d
00000140: 040a 933d cbf4 b23d e17e bfbd 8bdb 72be
00000150: b41e 04be c03e 4fbe 5d82 123e e7b9 7e3d
00000160: 5beb 1ebe 6193 043e 65f6 c4bd a542 033f
00000170: 535e a13d fccd cbbd cf48 b53d 8026 eabd
00000180: 03eb 1dbe 95d9 1bbe 27ce b8bd ab71 d53d
00000190: 8582 033e 3fb6 26be 212f f6bd 2ee5 1dbe
000001a0: 27fc 2dbd a1a6 ad3d aaad e1bd 9bd1 bebd
000001b0: deb2 44bc 743a d0bd 7d2c 8f3d e0bd 583d
000001c0: 8324 c93d ca82 d73d b88f ac3d 5066 c4bd
000001d0: 6cc7 9e3d 79e0 abbc ee83 0a3e 27f0 163d
000001e0: 7558 683e 2272 093e 42c7 05be a57a 003e
000001f0: 8340 f43d 052e 2ebd 84d6 82bd dd3b ab3d
0.08767885 -0.12526463 -0.13679025 -0.12656154 0.09754957 0.086293325 0.111491084 0.08138072
0.047927912 -0.13367286 0.109835126 -0.12130988 -0.021621458 0.11594298 0.0608574 0.024925511
0.06538287 -0.12383417 0.061844602 0.10924605 -1.1257699 -0.017388802 -0.17969477 0.0958063
-0.10857281 -0.083581455 0.036986195 -0.021919698 -0.13950793 -0.18317147 -0.12582646 0.060228642
-0.05188403 -0.3700436 -0.12991843 0.07590291 0.06949058 -0.15975295 -0.10951889 0.11168803
-0.093436204 0.13389277 0.43539724 -0.15706976 0.09343836 -0.029396513 0.12379587 0.051355638
0.12365074 0.13207288 -0.14394267 0.0602069 0.42432243 -0.1497462 -0.10183447 0.07333674
-0.14574575 -0.10142958 0.061232775 -0.024742782 0.1124509 -0.13655438 0.10926595 0.072234616
-0.12530157 0.12108342 0.04500901 -0.3432027 -0.1565693 0.08037309 0.13165137 -0.013492704
0.10045973 0.11716025 0.1385122 -0.120142795 0.088149406 0.1279785 -0.120288424 0.09034726
0.07179645 0.08738097 -0.09350372 -0.23716561 -0.12902337 -0.20238781 0.14307542 0.06218901
-0.15519468 0.12946846 -0.096173085 0.51273566 0.07879319 -0.09951398 0.08851778 -0.114331245
-0.15421681 -0.1521972 -0.090236954 0.10422071 0.12842758 -0.16280459 -0.12020708 -0.15419456
-0.0424768 0.084790476 -0.11019452 -0.09317323 -0.012005536 -0.10167399 0.06990907 0.052915454
0.09821417 0.10522993 0.0842585 -0.09589827 0.077528805 -0.02098106 0.1352689 0.03685012
0.22689994 0.13422444 -0.13064292 0.12546785 0.11926367 -0.042524356 -0.06388572 0.083610274
