trained_models/C_0_psid.pth (torch_old, 141084 bytes, 7 tensors)

layers.0.weight f4 [128, 13]
000000 54 b2 73 3e c8 aa 88 3e 65 2b 8d be 5e 2e d3 be
       0.23798496 0.26692796 -0.2757217 -0.41246313
000010 7c 84 86 be 28 71 22 3e df b8 7c 3d e1 37 6b 3d
       -0.26272953 0.15863478 0.061699744 0.057426337
000020 b3 3c cc 3c 02 a1 ca 3d 21 ea e9 bc ad 28 d5 3d
       0.024931287 0.09893991 -0.028554024 0.10408149
000030 5b 12 3f 3e 1e 26 55 be a1 dd 24 bd 80 cd 7f 3c
       0.18659346 -0.20815322 -0.040250424 0.01561296
000040 48 55 e6 bc 2d 59 0f bd 1a f9 6f 3d eb 5b f9 bc
       -0.028116837 -0.034997154 0.05858717 -0.030439338
000050 6c 9e 20 3e e3 54 2d be 56 f5 79 3e 8d ff 80 3e
       0.15685433 -0.16926913 0.24409994 0.2519497
000060 dc 9f 74 3e 3c c3 a9 be 8f c7 f0 bd bb aa 0e 3e
       0.23889107 -0.33156765 -0.11756813 0.13932316
000070 21 86 2a be df 78 f8 bd 43 02 14 3d 9f 91 33 bd
       -0.16652729 -0.12132429 0.03613497 -0.043840047
000080 29 98 82 3e ea 78 69 be d9 bb 6d be b7 bd d1 bc
       0.25506714 -0.22800031 -0.2321619 -0.025603158
000090 83 19 f4 3d 8a 79 42 be df b1 e9 bd 10 45 79 ba
       0.119189285 -0.18991676 -0.11410879 -0.00095088873
0000a0 6a 8b 01 bc 72 ee 02 bb da 49 f3 bb 3c 2c 99 be
       -0.007906774 -0.001997855 -0.0074245753 -0.2991656
0000b0 9c ae 8d 3e 8c a0 0e be 85 8d 31 3e 0a b7 1a 3e
       0.2767228 -0.13928431 0.17339142 0.15108886
0000c0 41 57 ca bd 8b 9b e3 bd 28 da 08 3e da f3 f7 be
       -0.098799236 -0.11113652 0.1336447 -0.4842823
0000d0 2b ee 37 3e df 10 ea 3c fa 0f 52 3e be bc 3e 3e
       0.17961948 0.028572498 0.20513907 0.18626687
0000e0 f9 1b 84 3e e6 c4 d0 bd e4 3d 06 3e 45 bd 06 3d
       0.2580259 -0.101938054 0.13109547 0.032895345
0000f0 92 8e a6 bd 48 31 63 3e a5 a5 a3 3e f4 f8 28 be
       -0.08132662 0.22186768 0.31962314 -0.16501218
000100 a0 d5 14 bd 0f 57 1b 37 7e 73 bf bb 45 ee 3e bd
       -0.03633654 9.25899e-06 -0.005842625 -0.04661395
000110 58 48 2d bc 34 6f e9 bd 5c 7d d6 3d f1 22 39 be
       -0.01057633 -0.113981634 0.10473129 -0.18079735
000120 2a e0 18 bd 74 87 a7 3d b2 5e 2c bd 72 f1 ad bd
       -0.037323155 0.081801325 -0.042082496 -0.08493318
000130 cf f4 93 3d e2 6f fa be 0f c8 a3 bc 30 4c 5a 3d
       0.07224428 -0.48913485 -0.019992856 0.053295314
000140 02 1b ea 3d 8a 92 0c be da b8 8e bc 23 5f 01 be
       0.114309326 -0.13727775 -0.017422128 -0.12633948
000150 ba 00 7a 3e 60 c9 48 be 30 7d 3b be 65 f4 7f 3e
       0.2441434 -0.19608068 -0.18309474 0.24995573
000160 86 6d 6d 3c b1 c7 46 be f0 82 df be 72 e8 eb be
       0.014491444 -0.19412114 -0.43654585 -0.4607578
000170 7d ad bf bd 63 1e b6 3d e8 43 1f 3c 91 cd de 3d
       -0.09359262 0.088925146 0.00972078 0.108790524
000180 74 4a 37 be b9 bd 2f be 1d 3f 3e bd 56 d8 f0 3c
       -0.17899495 -0.17162217 -0.04644691 0.029400032
000190 b4 e8 2b bd 62 21 22 be 19 be 12 3d 20 f6 95 3e
       -0.04196997 -0.15833047 0.035825823 0.2928934
0001a0 47 17 aa 3b d1 cf 05 bd 76 2c 06 3d 07 44 a0 bd
       0.005190763 -0.032668892 0.032757245 -0.07825475
0001b0 e0 0c fd bd ad ea 61 3e 38 a5 0c 3e 00 fa ed bd
       -0.12355971 0.22062178 0.13734901 -0.11619949
0001c0 52 71 86 3e d1 01 8a bb da 5b 7c bd c3 69 90 bd
       0.26258332 -0.0042116423 -0.061611034 -0.070514224
0001d0 80 a7 d5 be c7 c6 f7 bc 26 03 aa bd 10 22 f1 3d
       -0.41729355 -0.030246152 -0.08301382 0.11774075
0001e0 95 23 4c bd b1 79 82 bd 14 31 53 3e 59 82 b6 3c
       -0.04983862 -0.06370867 0.2062419 0.022278951
0001f0 d1 1e 5c 3e 87 af 4d 3e 7d 1d a5 3e b9 24 9e bd
       0.2149613 0.2008649 0.3224906 -0.07721848
000200 ff e9 8a be e4 12 2f 3e 65 06 ac bc 87 f2 2f 3d
       -0.2713165 0.1709705 -0.020999143 0.0429559
000210 58 d1 84 be e4 eb 87 be d8 de 08 3e d3 a3 ac bc
       -0.25940967 -0.26547158 0.13366258 -0.021074211
000220 54 98 7d 3c f5 33 6e 3d fd 20 00 3e 0c 73 bd 3d
       0.015478212 0.05815502 0.12512584 0.09250459
000230 cc b4 c8 3d 1c 44 d9 bc 04 fc ba bc d2 b3 ec bc
       0.09800109 -0.026521735 -0.022825249 -0.028894339
000240 bf 17 3a 3c 2b 63 41 3e 10 db f2 3d ac a0 dd 3c
       0.011358201 0.18885486 0.11858189 0.027054153
000250 d9 c2 75 3d 79 8e 4d 3e 11 30 d8 bd 94 f2 e3 3d
       0.060000274 0.2007388 -0.10556043 0.111302525
000260 9c 5e 48 be 37 c6 92 3e e1 ce 83 bd 95 c6 7c be
       -0.1956734 0.2866685 -0.064359434 -0.24685128
000270 78 7e 07 be 0d 3a 08 be 6e ee 34 bc 12 6a 49 3d
       -0.13231838 -0.13303395 -0.011043174 0.049173422
000280 d5 33 a2 3e 77 d3 94 3d e1 a1 d7 ba a6 85 04 3e
       0.3168017 0.07266896 -0.0016451442 0.12941608
000290 33 21 41 3d 64 e0 75 3a f4 64 e3 3d 61 b5 a2 3e
       0.047150802 0.0009379445 0.1110324 0.31779006
0002a0 a2 3b 92 be 57 50 d0 bc de 95 c2 3e 15 59 37 3e
       -0.2856112 -0.025428934 0.38004965 0.17905076
0002b0 07 3c 00 3e db 27 f5 bd 3b b0 8c 3e 97 44 a4 3e
       0.12522899 -0.119704925 0.27478203 0.3208358
0002c0 65 ca f4 bd 02 60 a5 39 8c 61 ff 3b 55 1c 56 bd
       -0.11952666 0.00031542784 0.007793611 -0.052273113
0002d0 73 d0 1e 3e a2 71 57 3c d1 fc 71 3c 89 90 0e be
       0.15509205 0.013149651 0.014769749 -0.13922323
0002e0 eb aa 62 bc c1 1a 35 3e 2d 3f e2 3d f8 e9 16 be
       -0.013834695 0.17685987 0.11047206 -0.1473769
0002f0 49 a3 3a 3e b2 a7 1b 3e 32 8a b8 be 9a 1d 28 3e
       0.18226351 0.1520069 -0.36042935 0.16417542
000300 b8 29 08 3e a2 08 82 3e 4c 6d ac bd 27 6d 31 bd
       0.13297164 0.2539721 -0.08419284 -0.043316986
000310 f2 4d ae 3c 9d 6f 08 3d 23 a0 c3 bd 34 54 04 bd
       0.021277402 0.033309568 -0.09552028 -0.032306865
000320 c2 5d 67 3d 75 56 98 be 92 b6 85 3e 08 3a 07 3c
       0.0564859 -0.2975346 0.26115853 0.008253582
000330 06 ee 9b 3c 11 46 7e 3d 1e f4 c9 3d c0 00 f8 bb
       0.019034397 0.06207854 0.09861015 -0.007568449
000340 99 ce eb bd 2c 7d 2d bc f3 d5 2c 3c ec 80 e1 3d
       -0.11514015 -0.010588925 0.010549056 0.11010918
000350 d6 46 42 3e ea ca 94 3e 80 9d fb 3d 5a 12 8e 3e
       0.18972334 0.2906106 0.122859 0.27748376
000360 cf a0 b3 bc ee e0 f2 3d e5 69 37 bd 93 70 60 3e
       -0.021927265 0.11859308 -0.044778723 0.21917944
000370 75 0d 59 3c 6f 83 f3 38 b4 2e a3 3e 45 09 ca 38
       0.013247837 0.00011611624 0.3187157 9.633837e-05
000380 66 6d 41 b9 d0 60 d7 bb bd 27 d9 bb a5 b2 28 bd
       -0.00018446668 -0.0065728202 -0.0066270516 -0.041185994
000390 11 12 2a bd 09 a0 90 bb 8b 6c 84 bb da 8f 7c 3c
       -0.041521136 -0.004413609 -0.0040412596 0.015415156
0003a0 fa a0 ab bd ba 84 97 3e 31 71 7f 3e fe fc 17 3d
       -0.08380313 0.2959345 0.24945523 0.037106507
0003b0 2d 2c cf bd 5c b7 3b 3d 27 b3 ec be be 0a 0a 3d
       -0.10115848 0.045829162 -0.46230432 0.03370165
0003c0 a6 6a 33 3e 77 2e be be 04 e2 53 ba da 1a 47 be
       0.17521152 -0.37144825 -0.000808269 -0.19443837
0003d0 81 a7 1c bd 9a b3 6e bd 28 d6 7b bc ab 8b 1b 3e
       -0.03824568 -0.05827675 -0.015370883 0.15189998
0003e0 0d 4e 6c 3e eb 33 34 be b1 fd 60 be 3f e3 07 3e
       0.23076649 -0.1759793 -0.21971776 0.13270281
0003f0 08 3d 84 3d be af 9f 3d c8 a3 bd 3d 2a fb 14 bd
       0.06456953 0.07797192 0.092597544 -0.03637234

layers.0.bias f4 [128]
000000 4d 7a d1 bd 0a 02 72 3e 21 99 1d 3e f2 bd 96 3e
       -0.10228405 0.2363359 0.15390445 0.29441792
000010 72 59 01 3c 22 9e b5 3e 2b 9e f2 3d ab 31 16 3e
       0.007894861 0.35472208 0.118465744 0.14667384
000020 67 17 e1 3d bf 64 cf 3e 32 19 84 3e 6d 6a a1 3e
       0.10990792 0.4050655 0.25800472 0.3152651
000030 4a ac 3f 3e 10 43 3f 3d 7a db 50 3e a0 d6 e1 be
       0.18718067 0.046694815 0.20396224 -0.44109058
000040 92 e0 cf 3d bc 84 b4 be 9f a2 03 3e f7 8e 82 3e
       0.10150255 -0.35257518 0.12855004 0.254997
000050 81 62 85 3e dc cb 05 bf b4 65 9d bc 77 fb 5b 3e
       0.26051715 -0.5226419 -0.019213535 0.21482645
000060 bd 26 af 3e c4 60 a0 3e f6 92 c6 3e be 3a 9c 3d
       0.34209242 0.31323826 0.38783997 0.07628392
000070 d0 b5 bb bc 04 f9 78 be c7 9e fc 3d d4 16 c1 3e
       -0.022913843 -0.24313742 0.12334972 0.3771273
000080 86 76 14 3e f2 e1 0d 3e 1a 90 d9 bd 53 a2 8b 3e
       0.14498338 0.13855723 -0.10623188 0.2727228
000090 85 0d eb 3d ef aa a1 3e e3 66 de be 3a 57 99 bd
       0.11477188 0.31575724 -0.4343787 -0.0748734
0000a0 da 16 04 3a 6c 2d 48 be f8 a4 98 bd 62 e0 b0 be
       0.00050388055 -0.19548577 -0.0745334 -0.3454619
0000b0 2b 5b c9 3e e3 f5 5e 3e 4c 05 8e 3d c8 d9 d1 be
       0.39327368 0.21773486 0.06934604 -0.40986466
0000c0 83 fa 13 be 5d 99 fe 3d 0f e5 2f be 76 54 af 3e
       -0.14451031 0.124315955 -0.17177223 0.34244126
0000d0 82 b2 99 3e e6 49 cc bd 27 69 59 3d a2 3a 04 3e
       0.30019003 -0.099750325 0.053078797 0.12912992
0000e0 df 7c e7 bd 4d 4a 26 3d 13 9a 9f 3b 2f b1 a0 3e
       -0.11303114 0.040598202 0.004870662 0.3138518
0000f0 60 93 f0 3d 65 99 6b be f1 0f 64 3e be 82 ae 3d
       0.117468596 -0.23007734 0.22271706 0.08521031
000100 e9 cb 8c 3e 9b 74 b5 bc 62 67 d5 3d c7 fe c9 3e
       0.2749932 -0.022150328 0.10420109 0.39452192
000110 a1 78 8e 3d f9 07 b6 3d 78 2a 3d 3d a5 7c c1 3e
       0.06956602 0.088882394 0.04618308 0.3779041
000120 9a c3 28 be f8 b1 d1 3d 57 55 59 be ab 6a 0d 3e
       -0.16480866 0.10239023 -0.21223961 0.13810222
000130 2b f4 bd bc 06 9b a2 3e ae cc 9b 3d 9e 53 a0 3e
       -0.023187717 0.31758898 0.07607399 0.31313795
000140 5f e6 03 be 3d 11 0a 3d e7 50 d5 3d 65 dc fa bd
       -0.12880848 0.033707846 0.104158215 -0.12249068
000150 cb b6 54 3e c7 4d cd be 51 a4 57 be 15 c4 94 3e
       0.20772855 -0.40098402 -0.21058775 0.2905585
000160 8c 19 d8 3d 6d 2e 8f 3c 72 54 98 3e de f1 a1 bc
       0.10551748 0.017478192 0.29751927 -0.019768652
000170 36 81 95 3e 81 7f 83 3b cb 35 0e be 1d aa 06 be
       0.29200143 0.0040130024 -0.13887708 -0.1315083
000180 52 d2 ea bc 30 6b b8 bd 80 eb 2b 3e 88 fc 35 3e
       -0.028664742 -0.090048194 0.16789055 0.17772114
000190 79 04 ea bc 48 fc 60 be dc 48 63 3e 0a 1c 9e 3e
       -0.028566586 -0.21971238 0.22195762 0.30880767
0001a0 22 9c ce 3d d5 a4 16 be ac 1e db 3e 9c 53 9d 3e
       0.10088374 -0.14711316 0.42796838 0.3072785
0001b0 f8 75 0b bc a3 25 1b be e8 93 83 3c 3a 11 78 3e
       -0.008512013 -0.15151076 0.016061738 0.24225321
0001c0 ad a9 29 bf 3b 6c 14 3e cb de 90 3e 18 a1 62 3c
       -0.6627453 0.14494412 0.28294978 0.013832353
0001d0 d4 4b 27 3e a6 e7 ce 3d 2a 46 f3 3e 31 5e 9f 3d
       0.1633752 0.10102777 0.47514468 0.077816375
0001e0 a2 7f dc be 49 8c 52 3d 14 ed 7c bd d0 ed 09 bd
       -0.43066126 0.051403318 -0.061749533 -0.03367406
0001f0 58 90 05 bd 89 c1 b9 3e 51 d9 60 3e 48 77 8b 3d
       -0.03260836 0.36280468 0.219579 0.068098605

layers.1.weight f4 [128, 128]
000000 3a 09 67 3c 5e c1 ed 3c 3c 91 cc bd bb c9 d1 bc
       0.014101321 0.029022869 -0.09988639 -0.025608888
000010 a6 12 b8 bc 66 57 16 3e a0 04 15 3e 96 83 e1 3d
       -0.02246983 0.14681777 0.14552546 0.11011426
000020 66 64 b9 bd 9d 48 a7 3b b9 a8 ba bd 2c 3b d7 3d
       -0.090523526 0.0051050917 -0.091142125 0.10509333
000030 c1 f6 f1 3c 33 f4 b0 bd 2b f4 d9 3c fa 43 18 bc
       0.029536607 -0.08640327 0.026605686 -0.009293551
000040 c8 bb 36 3d e8 06 13 bc 14 24 dc bd 62 57 22 bc
       0.044612676 -0.008973815 -0.10749069 -0.009908529
000050 db ea 6f 3d 6d 79 7b 3b 90 e6 93 b9 95 34 8b bd
       0.058573585 0.0038371936 -0.00028209807 -0.067971386
000060 90 4b 14 3b 2f a3 4d 3c 52 8f 9e bc 2c 05 8c bd
       0.0022628047 0.012551113 -0.01935545 -0.06836924
000070 fe 13 92 3d d8 7f 1b 3d 73 41 9b 3a 2a 42 9b 3d
       0.071327195 0.03796372 0.0011845067 0.07580979
000080 65 7b 9e 3c 97 83 20 bc 74 37 61 bd dd 07 64 3d
       0.019345948 -0.009796998 -0.054984525 0.05567156
000090 d2 ab 03 3d 7e f9 4e bd 1a 16 40 3c ac 9d ed 3d
       0.032146282 -0.050530903 0.011724019 0.11602339
0000a0 67 27 d4 3c ac 61 5a bd 4b 63 5e bd 42 80 c4 bc
       0.025897695 -0.053315803 -0.054293912 -0.02398694
0000b0 c3 d9 78 3c cd 31 77 bd f4 ef f6 bc 9e b7 49 39
       0.015188637 -0.060350228 -0.030143715 0.00019237256
0000c0 ff e8 5f 3d f8 e6 f1 bc 0e 58 93 bc af bb b5 bc
       0.05466556 -0.02952908 -0.017986324 -0.022184221
0000d0 22 eb 5e 3d 9b d0 13 bd 29 af ab bd 83 e6 07 bc
       0.05442346 -0.036087614 -0.083830185 -0.008294704
0000e0 45 ab 49 bc 85 67 01 3b ea d4 56 bd 65 9c 89 bd
       -0.0123089 0.001974554 -0.052449144 -0.06719283
0000f0 69 fc d5 3b 0f 62 ae 3b ea c0 b3 bd 29 d6 90 3d
       0.006530334 0.005321748 -0.0877703 0.07072098
000100 a7 6c 94 bd 0e 64 81 3d 13 f3 b6 bd 62 54 27 3d
       -0.07247286 0.06317912 -0.089330815 0.040851958
000110 48 36 be 3d 39 c3 70 bd 96 a6 b1 3d 25 6a 91 3c
       0.09287697 -0.05877993 0.08674352 0.017750809
000120 78 df 80 3c 70 4c 78 3d be ea ac 3c 1a 5e 84 bd
       0.015731558 0.06061977 0.021108028 -0.06463261
000130 bf 8f df bd a9 e0 2b 3d 52 f6 49 3d 5b 47 ea 3c
       -0.10916089 0.0419623 0.049307175 0.028598478
000140 9f 9f 85 3c ef ef d6 bc 6a 94 62 3c 07 8f 8e 3c
       0.016311465 -0.026237456 0.01382933 0.017402185
000150 0c a9 6e 3d d6 ea 15 3e 7e 8e 63 bd 2d cb a5 3d
       0.058266684 0.14640364 -0.055555813 0.08095393
000160 9e 56 7e bc 6b c6 04 3d 10 e3 f0 bb a6 db 88 3d
       -0.015523581 0.03241579 -0.0073512867 0.066825196
000170 4c 51 ab bc ac 79 e9 3b 32 56 9d bc 6e 2f 9b 3c
       -0.020912789 0.0071251 -0.01920614 0.018943515
000180 1f 99 d7 bc 49 35 e7 bd 85 e5 58 bb 20 4d 95 3d
       -0.026318131 -0.1128946 -0.0033095789 0.07290101
000190 26 ae 80 3c 86 0d ad 3d 1b 9c d6 3c ca 53 52 3c
       0.01570804 0.08449845 0.026197484 0.01283736
0001a0 05 f2 30 bd ed c3 8f 3d c8 90 d5 3d ad f6 79 3d
       -0.043199558 0.07019792 0.104280055 0.061026264
0001b0 8d 94 4a bd 20 f8 0e be e7 58 0e 3e 3c 79 98 bd
       -0.049458075 -0.1396184 0.13901101 -0.074449986
0001c0 5d 9d fa 3d 22 2a 82 3d 5e 83 83 bd 28 fe af 3d
       0.12237046 0.063556924 -0.06421541 0.08593398
0001d0 09 29 8c bc ea e7 45 bd f3 e8 c4 3d c6 65 61 bd
       -0.01710941 -0.048316874 0.09614744 -0.0550287
0001e0 60 f3 ca 3d e9 a4 16 bd f9 fc 79 3d 47 08 9e 3d
       0.09909701 -0.036778364 0.06103227 0.077164225
0001f0 1b 7d 62 bd 16 b0 7b bd 3e 7e b1 3d 36 bc b0 bc
       -0.05529509 -0.061447226 0.08666657 -0.021574121
000200 3c 36 6f 3c d8 7f ad 3d 92 81 f4 3c 67 f4 92 3d
       0.014600333 0.0847165 0.02984694 0.07175522
000210 b2 ad f0 bd 83 6f c2 3c 14 d2 ce bd 5a 8d 3e bd
       -0.1175188 0.023734814 -0.10098663 -0.046521522
000220 f2 0b 0d bd 92 51 48 bb e2 45 3d bd 6b 9a d1 bd
       -0.03443522 -0.0030566198 -0.046209224 -0.10234531
000230 3b 72 58 3d 05 74 f7 bc f5 48 34 bd ac d4 f5 3c
       0.052843314 -0.03020669 -0.04401489 0.030008636
000240 fd 55 93 bc 53 a4 c1 bc 3a fb bd bd d4 74 b5 bd
       -0.017985338 -0.023637926 -0.09276433 -0.08860174
000250 24 bf 21 3d e2 1b eb bc ce d0 8f bd 7e e6 21 3c
       0.039488927 -0.028699819 -0.07022248 0.009881614
000260 bf 2f fd 3c 2f 89 30 3c 75 82 b9 bd b4 88 5b bd
       0.030906556 0.010774895 -0.09058086 -0.053597167
000270 3d 37 75 bd c3 f7 ba bd a0 50 9f 3c d6 b7 8e 3d
       -0.059867132 -0.09129288 0.019447625 0.06968658
000280 fb ff ee 3c e7 02 3f 3d e3 cd 0d 3d 3b b4 98 bc
       0.029174795 0.046633627 0.034620177 -0.018640628
000290 f8 84 b4 3d f7 c5 95 3c 28 6d 94 bd d9 80 24 bd
       0.08814424 0.018282874 -0.072473824 -0.04016194
0002a0 f7 82 ed 3a c1 8c c7 bd 24 fc c9 3c 85 2d 07 3c
       0.0018120696 -0.097436436 0.024656363 0.008250599
0002b0 fd 97 40 3d cf f8 0b bd 72 dd c2 3d 7b e4 6f 3c
       0.047019947 -0.03417283 0.095148936 0.014641876
0002c0 24 8d 93 bd 9a 54 2d bc 3f 5b d8 bc 7a 94 f6 bc
       -0.07204655 -0.010579253 -0.026410697 -0.030100096
0002d0 94 e1 47 3d e5 c0 9c 3c 61 dd 9c 3c cb 94 ba bc
       0.048799112 0.019134948 0.01914853 -0.022776028
0002e0 03 c6 cc bc 7d 49 a3 bd 3a ca 2c bd 66 f6 c2 bd
       -0.024996763 -0.07973001 -0.042185046 -0.09519653
0002f0 82 0a 1b 3d 03 20 91 bd 26 4b d7 3c 97 f8 e0 bd
       0.037851818 -0.07086184 0.02628095 -0.10984915
000300 c0 bc b6 bd 2f cd c3 bd 08 18 b5 bd 73 11 6a 3d
       -0.0892272 -0.0956062 -0.08842474 0.057145547
000310 f6 ae b4 bb 82 01 11 bd 8e 15 cf bc 3c af 39 bd
       -0.005514021 -0.03540183 -0.025278833 -0.045333132
000320 10 93 83 bd b0 5e 5b bc 31 90 19 3c 32 6a 4f bd
       -0.06424534 -0.0133892745 0.009372757 -0.050638385
000330 f3 80 46 3b fc 3c d9 bd 87 0e 1f bd 6f c4 a7 bd
       0.0030289262 -0.10607335 -0.038832214 -0.081917636
000340 06 0a 7d bd 2f 49 f3 3c 5a 3c 15 3d 7a f2 ae bc
       -0.061777137 0.029697983 0.03643451 -0.021355856
000350 f1 39 91 3d 72 5b fc 3c 13 16 29 3d 4a db ae 3d
       0.070911296 0.030805323 0.041280817 0.0853792
000360 97 8b df bc ed f2 82 bd be 2b a5 bd ca 4e dc bd
       -0.027288241 -0.06393991 -0.08064984 -0.10757215
000370 d0 1d c3 bd 01 e5 5f bc e6 cc da bd 0f e6 9a bc
       -0.09527171 -0.013665439 -0.106836125 -0.018908529
000380 5b 93 55 3d dc b5 a3 bc 29 0a b6 3d c1 27 0a 3d
       0.052142482 -0.019984178 0.08888657 0.03372932
000390 e3 97 25 bc a8 d9 a8 bd 84 dc 37 3d b6 01 8b bb
       -0.010107013 -0.0824464 0.044888034 -0.0042421473
0003a0 84 e1 5d bd 31 6a 7e bc fd 6b 05 3c d7 68 5d bd
       -0.054170147 -0.015528248 0.008143422 -0.05405506
0003b0 6b ac a9 bc e3 c0 ae bb 9c 65 9e bb 78 9d 0d 3d
       -0.020712098 -0.0053330525 -0.00483389 0.034574002
0003c0 8f 67 ac bd 87 d9 3a bd 3f 24 0e ba 8c 70 79 bc
       -0.0841819 -0.045617606 -0.0005422271 -0.015224587
0003d0 58 6f a0 bd 92 f2 da bd d2 3e 0b bd 9f 26 f9 bc
       -0.07833737 -0.10690798 -0.033995457 -0.030413924
0003e0 df 25 be bd 14 de 62 3c 14 7e c0 bc d9 62 fe 3c
       -0.09284567 0.013846893 -0.023497619 0.031052994
0003f0 54 df 0a 3c 19 db e2 bc 57 e3 7b 3d 56 ac b5 bd
       0.008476097 -0.027692365 0.061496105 -0.08870761

layers.1.bias f4 [128]
000000 54 47 7a 3d 09 26 81 bc 98 12 51 bd 9c 71 3d 3d
       0.06110318 -0.015765207 -0.051043123 0.046250924
000010 bf 33 c6 bd e4 54 77 bc 3f c2 f6 3d 49 ff e8 3c
       -0.096778385 -0.015095923 0.12048768 0.028442042
000020 d6 e7 f8 3d b6 0e 99 bd 0a 9c 51 3d d0 3a 26 be
       0.12153594 -0.07473509 0.0511742 -0.16233373
000030 57 53 d2 bd fb 8f 31 be 60 90 9d ba 0b df 82 bc
       -0.10269802 -0.1734008 -0.0012021177 -0.015975496
000040 f9 9e 30 bd 98 d1 31 3c 5d 4a 0b 3d bb ac 12 3d
       -0.04312036 0.010853194 0.034006465 0.03580926
000050 8d bd e9 bd 16 e6 6c 3d a7 16 96 3d 1f d7 06 bd
       -0.11413107 0.057836615 0.07328539 -0.03292
000060 f9 bc 56 3d 69 5a ba 3d 53 60 8d 3c 89 15 0c be
       0.052426312 0.090992756 0.017257845 -0.1368009
000070 df 3e 0c 3d fd e1 2a 3b 06 c6 13 3e d4 e1 59 3d
       0.034239646 0.002607464 0.14431009 0.053193882
000080 28 60 e8 3c 6c 82 e6 3b e2 e0 fe bd 1b 43 30 bc
       0.028366163 0.0070345905 -0.12445237 -0.010758187
000090 83 7c 58 bd 86 58 a4 3c c7 16 9d bc 7d 98 7f bd
       -0.05285312 0.020061743 -0.0191759 -0.062401284
0000a0 30 2d 67 3d d5 db db bd 06 1e 1e 3e 3d 83 18 be
       0.05643958 -0.10735289 0.1544114 -0.14893813
0000b0 4a d4 d1 3d 25 b2 2a 3d 03 6b d8 bc 4f ad b5 bc
       0.10245569 0.041673798 -0.026418215 -0.022177367
0000c0 0a db b6 3b c9 6c cc bd 0b b8 8f 3d 8a 24 87 3d
       0.0055803107 -0.099816866 0.07017525 0.06598766
0000d0 10 b6 9a 3d 3b 92 3f 3b 62 53 33 3d d3 cf 00 3c
       0.07554257 0.0029231447 0.043780692 0.007862049
0000e0 83 2d b0 3d eb 41 06 3d 5f 6b a0 3d b9 3e 20 bc
       0.08602431 0.032777708 0.078329794 -0.009780579
0000f0 51 71 db bd b0 1f c5 bd cd 4c 21 3d 1a 7e 9b 3a
       -0.10714973 -0.096251845 0.039379884 0.0011863143
000100 04 66 68 bd 4c a0 1e 3d 25 d3 f7 bd 7b 99 62 bd
       -0.056737915 0.03872709 -0.121008195 -0.05532215
000110 6a 72 e2 bd f7 c6 66 3c 61 7b dc bc f1 3a f4 3d
       -0.11056979 0.014085523 -0.0269143 0.11925305
000120 f0 18 d7 3d 13 7b 0b be 1c 93 23 3d 5d 5e 6b bd
       0.10502803 -0.13621168 0.039935216 -0.05746304
000130 57 1e 33 bd 55 4c 63 bd aa be a1 3d 8d d8 53 3d
       -0.043730106 -0.055492718 0.078976944 0.05172019
000140 02 70 6d 3b 5d 3d ae bd d2 5a a9 bc 3e 92 52 bd
       0.0036230092 -0.08507798 -0.02067319 -0.051409
000150 75 81 ce bc fa f8 9a bd ff 0b 16 bc be 95 5a bd
       -0.025208214 -0.0756702 -0.0091581335 -0.05336546
000160 d9 63 ae bd 91 77 2a bd 43 60 0f 3d 99 83 cc bc
       -0.08515138 -0.041617934 0.03500391 -0.024965094
000170 02 13 a8 bb 82 80 8b 3a 45 91 f4 3d d2 77 cb bd
       -0.005129219 0.0010643157 0.119417705 -0.09934963
000180 bd 1d 75 3c 27 79 df bb 4d b8 2c 3d 0f ff 76 bd
       0.014960703 -0.0068198624 0.04216795 -0.060301837
000190 ef 37 14 3c 03 ef 0a 3e b9 82 d9 bd 9c d3 1a 3d
       0.009046539 0.13567738 -0.106206365 0.037799463
0001a0 2a 45 60 3d 27 48 38 3c 48 39 df bd e6 c1 b3 bd
       0.05475346 0.011247671 -0.108995974 -0.087772176
0001b0 24 b7 a5 bd ae 97 b2 bd 83 11 ca 3d 9e dd 23 3d
       -0.08091572 -0.08720337 0.09866621 0.040006272
0001c0 70 3c e5 bd a9 67 88 3d 0f 3f 17 3d 57 b6 22 3d
       -0.11193168 0.066603966 0.03692537 0.039724674
0001d0 3b 5b fc bd de b1 bc bc b0 b2 5d bd 14 40 f5 bb
       -0.12322088 -0.023034032 -0.054125488 -0.0074844453
0001e0 f9 25 98 bd a0 ba e7 3c b9 10 59 bd 23 73 07 bd
       -0.07429118 0.028287232 -0.052994464 -0.033068787
0001f0 7e 79 82 3d d3 82 e3 bc b3 63 4e bd 9d b3 dc 3d
       0.06370829 -0.027772343 -0.05038805 0.10776446

layers.2.weight f4 [128, 128]
000000 5f a7 5e bd ea 45 f3 3d cd f8 c6 bd d0 6c a9 bb
       -0.054358836 0.118785694 -0.09715424 -0.005170442
000010 29 36 07 bd 2e c8 49 bc 82 b2 fe 3c 18 d2 8f bc
       -0.033010636 -0.012315793 0.031090979 -0.017556235
000020 6f be 06 bd a9 4b fe 3d 3f 2d b6 3d f9 97 92 3d
       -0.032896455 0.12416775 0.08895349 0.07157893
000030 ee 34 99 bd 6e b6 a2 bd a5 cb b7 bb e7 58 96 3c
       -0.07480799 -0.07944952 -0.005608993 0.018352939
000040 97 62 61 3e 57 51 8a 3c 9c ba a6 bc 96 c9 35 bd
       0.22010265 0.016884489 -0.020352654 -0.0443817
000050 aa 68 8d bc eb ee 86 bd 47 c2 b5 3d d9 47 c0 3d
       -0.017261822 -0.06588539 0.08874946 0.09388704
000060 13 92 fc bd 62 40 92 bd f5 f3 de 3b a5 06 74 b9
       -0.12332549 -0.07141186 0.0068039843 -0.00023272129
000070 de f0 8a 3d 7c e5 1e 3d 37 79 77 3d b7 2f 7c bd
       0.06784223 0.038793072 0.060418334 -0.061568942
000080 38 a1 ee 3b ee 6a 27 3d 7c 04 c6 3c d1 c7 e4 3a
       0.0072824024 0.04087346 0.02417206 0.001745457
000090 7e b8 e6 3c ca 4e 72 bd 24 cc 83 3d b9 45 c3 3d
       0.028164145 -0.05915717 0.06435421 0.09534783
0000a0 ae 94 64 3d 40 e0 2f 3d a1 e9 05 bd 03 d9 11 be
       0.055805854 0.04293847 -0.03269351 -0.1424294
0000b0 68 bb d0 3c 8c bd a2 3d 48 98 57 bd 6f 0c 8e 3c
       0.025479987 0.079463094 -0.05263546 0.017339913
0000c0 3e 6d 4d 3d f4 8f 6e 3d c8 db 33 bd 66 de 5b bd
       0.05015301 0.058242753 -0.04391077 -0.053678893
0000d0 9b b8 56 bd ef 15 58 3d 32 66 7e bd af b5 c1 bc
       -0.052422147 0.052755293 -0.06210918 -0.023646204
0000e0 01 15 15 3d 76 9e 0d 3c 4c df 91 bd c4 85 ba bc
       0.036396984 0.008643737 -0.071226686 -0.022768863
0000f0 b0 ce 81 bd 37 2f 34 3d 68 8d f8 bc d2 7e 6f 3c
       -0.06338251 0.04399034 -0.030340865 0.014617639
000100 2b 80 09 3d 2b 69 94 3d e0 1c cd 3c 9e 9f b1 3d
       0.033569496 0.07246622 0.025038183 0.08673023
000110 2e b8 9d 3d f1 7b 0c bd e7 00 b2 bd 6f 07 15 3c
       0.07701145 -0.034297887 -0.08691578 0.009096011
000120 6e 9a 56 bc 67 89 86 bd cf e9 1c 3d 0d 21 4a 3c
       -0.013098342 -0.06569176 0.038308915 0.0123369815
000130 7c 30 fc bb 6a ff 95 3d 42 f4 e7 3c f9 fa e0 3d
       -0.0076962095 0.07324107 0.028314713 0.10985369
000140 e7 da 68 3d fd ab 8e bd c4 c8 8c bc e8 2e 87 3d
       0.056849387 -0.06966398 -0.017185576 0.066007435
000150 4a 0d 71 3c 39 88 1d bd b5 cd 67 3b 95 b7 b0 bc
       0.014712641 -0.03845999 0.0035370414 -0.021571914
000160 e3 4a ed bd e1 f7 27 3e 88 9e 82 3c 7c 87 ae 3d
       -0.11586549 0.16403152 0.015944734 0.08521935
000170 6c ac 1c 3e f6 f2 eb bc f1 e3 d3 3d c2 ea cc bd
       0.15300149 -0.028802376 0.10346211 -0.10005714
000180 8c c7 97 ba ff 18 8d bd 34 11 af bc e7 c1 10 bd
       -0.0011579855 -0.06889533 -0.021370508 -0.03534117
000190 8b 07 42 bd 9d aa 82 bd 5f c8 1f be 4c 3d 1c 3d
       -0.047370475 -0.06380198 -0.1560378 0.038144395
0001a0 a0 8b 9f 3d 8f d6 8e 3a 2f 8e bb bd 89 47 9d 3c
       0.07790303 0.0010897684 -0.09157979 0.01919915
0001b0 47 f3 ab 3c 51 de 65 bd 70 98 10 3e 5e 57 60 bd
       0.020990027 -0.05612022 0.1412065 -0.05477082
0001c0 97 50 f0 3d 31 b3 53 3d db fe 89 3c c5 0e b5 3d
       0.11734121 0.051684562 0.016845157 0.08840708
0001d0 88 c1 0d bd 80 d0 4d 3d fa 2b 35 be 15 90 1a 3e
       -0.034608394 0.05024767 -0.17692557 0.15094025
0001e0 03 48 90 3d 1e 8b 68 3d a8 b5 66 3d 4a 14 be 3c
       0.07044985 0.056773297 0.056325585 0.023203034
0001f0 c6 ee 0d 3d 44 af 92 3d 8c d6 34 bd d2 c2 a3 bd
       0.03465154 0.071623355 -0.04414992 -0.079961434
000200 25 a4 2f 3d 23 b1 11 bd 9c 15 6c bd 9d c1 a4 bd
       0.04288115 -0.03556932 -0.057637796 -0.08044741
000210 6d 66 d6 3d 3b da 84 bd f0 e5 64 bc 4f c2 e5 bd
       0.10468755 -0.06486937 -0.013970837 -0.11218702
000220 90 79 ee 3c 33 7f 05 3e b8 94 25 bc b5 f1 06 3d
       0.0291107 0.13036804 -0.010106258 0.032945354
000230 0e 66 90 bd cb c8 1c bc e2 e4 c8 3c 01 d8 9b 3d
       -0.070507154 -0.009569357 0.024523202 0.07609559
000240 7d bc fb 3d b1 fc 36 3c 79 74 81 3d ff 9a f0 bb
       0.12291811 0.011168645 0.063210435 -0.0073426957
000250 6c 37 91 3c 95 7f 10 bd d7 37 13 3e 59 81 b7 3d
       0.017726623 -0.03527792 0.1437677 0.08960218
000260 ba 3f ec bc 79 6b 1c 3d a5 f7 1d 3c 17 30 d4 3d
       -0.028838981 0.03818843 0.009641563 0.10360735
000270 1e 84 c2 3d 27 08 1a 3e 6d 51 d2 bc c8 21 ac bd
       0.094978556 0.15042172 -0.025673592 -0.08404881
000280 74 b0 10 3e ff a3 2e 3e 04 96 a9 3d 86 7c b2 3d
       0.14129812 0.17054747 0.08280566 0.08715157
000290 76 88 70 3d a1 72 c4 3c 24 eb 99 bd e5 35 a6 3d
       0.05872389 0.02398044 -0.07515553 0.08115748
0002a0 1c 2a f0 3c c7 62 02 3d cb 90 b0 bd 70 11 62 3c
       0.029316954 0.031832483 -0.08621367 0.013798103
0002b0 e4 86 39 3e bc a3 8b 3d 8f 2a 23 be fd 02 ac bc
       0.18117863 0.06818339 -0.15934204 -0.020997519
0002c0 a1 2b 47 3c 90 22 39 3c b0 22 0b bc 3f 03 2c bd
       0.012156398 0.011299744 -0.008492157 -0.041995283
0002d0 fe 85 b9 3d 26 3f b4 bc bc 43 a1 3d 90 2e 80 3c
       0.0905876 -0.022002768 0.078742474 0.015647203
0002e0 45 ad 2b bd 5a ad 83 bd 55 af f3 bc aa c9 b9 3c
       -0.04191329 -0.064295486 -0.02974669 0.022679169
0002f0 9f 18 78 bb 8a cb 19 3d 5e b1 b7 bb ff e3 b0 bc
       -0.0037856472 0.037547626 -0.0056058606 -0.021593092
000300 8c 1f 07 3d a9 88 3d 3b be 03 9e 3d 78 34 37 bd
       0.03298907 0.0028920567 0.077155575 -0.044727772
000310 4a 64 6c 3c 64 01 44 bc f1 33 ae bd ee 0e 8f bc
       0.014428208 -0.011963222 -0.08506001 -0.017463174
000320 3d 5e 7a bd 21 b0 97 bd c0 35 6f 3d 8e 3a 1f bd
       -0.06112503 -0.07406641 0.05840087 -0.0388742
000330 05 95 5f 3c 03 b3 88 3d f5 fc 26 3c ac 75 4f 3e
       0.013646369 0.06674769 0.010192146 0.20259732
000340 23 de 0d 3d ab c6 e3 bd c9 9e 7a 3d b5 ab a4 3c
       0.034635674 -0.11121877 0.061186586 0.020101408
000350 b7 b4 8c 3c 8c f4 2f 3c 7e da 4b 3c 13 c6 84 bd
       0.017176015 0.010739457 0.012442229 -0.06483092
000360 21 fe ec bd 06 df c0 3d f5 13 81 3d 55 59 3d 3d
       -0.11571909 0.09417538 0.063026346 0.04622777
000370 b2 cc 3d 3c 2c 8d 78 3c 16 39 96 3d 2a d5 c4 bd
       0.011584448 0.015170377 0.07335107 -0.0961097
000380 cb 1b 3f 3d e2 6c 5b 3c 44 dd 79 3d f4 16 6a 3d
       0.046657365 0.013392659 0.06100203 0.057150796
000390 06 1f 35 bd 57 72 9b bd f8 79 15 bd 44 dd 81 3c
       -0.04421904 -0.07590168 -0.03649327 0.015852578
0003a0 75 07 49 3d ac ff 1d bc c9 69 b3 bd 6f dd 84 3d
       0.049079377 -0.009643476 -0.08760411 0.064875476
0003b0 24 a3 6f 3d d7 33 31 bd f3 30 2c 3e a5 4a 13 bb
       0.058505192 -0.04326233 0.16815548 -0.0022474912
0003c0 b1 2f f5 3d 7c 76 b0 3d b4 63 6d 3d 4c 45 84 3d
       0.11971987 0.08616349 0.057956412 0.0645853
0003d0 bc 50 49 bd 66 08 4f 3c 91 98 2e be b1 2c 15 3d
       -0.04914926 0.01263628 -0.17050387 0.036419574
0003e0 ec 71 93 bd 4e 66 8a bc 14 df 96 3d e1 a9 d2 3d
       -0.07199463 -0.016894486 0.073667675 0.10286308
0003f0 94 f6 8f 3d c5 d7 0e 3d d8 5d 9d 3d da 4b 49 3d
       0.07029453 0.034873743 0.07683915 0.049144603

layers.2.bias f4 [128]
000000 d3 76 5b 3e 85 82 4d 3e 84 fa 98 3d c3 f4 9f 3c
       0.21432047 0.2006932 0.07469657 0.019525891
000010 41 58 22 3e 15 26 81 3e 0e d5 0e bd f3 1a 8d bd
       0.15853979 0.25224367 -0.034871154 -0.06889906
000020 af 02 93 bd 86 04 61 3d 5c 49 94 3d f6 2a 0f 3e
       -0.07178246 0.054935955 0.07240555 0.13981232
000030 4d 81 ad 3d 70 32 ab bd 50 32 ec 3d 77 bf 0f 3e
       0.08471928 -0.083592296 0.11533034 0.14037882
000040 a6 a7 37 3c d6 86 1d 3d e7 da 7b bd fd bd 54 3e
       0.011209404 0.038458668 -0.06148806 0.207756
000050 bb 07 b2 3d da b5 9a 3d 74 d9 a1 3d b5 11 7b 3d
       0.08692881 0.07554217 0.07902804 0.061296184
000060 88 90 58 3e 79 d8 af bc 40 fc ad 3c 68 82 3d bd
       0.21148884 -0.021465527 0.021238446 -0.046266943
000070 c1 6c b0 3d 80 1c 13 3e 3b 52 9f bb 7b 87 c0 3c
       0.08614493 0.1436634 -0.0048620976 0.023502102
000080 97 66 b8 3d ac 9e 6b 3d 3c d8 20 3e ff 51 96 bc
       0.090039425 0.05752437 0.15707487 -0.018349646
000090 82 c9 df 3d fd 89 da 3d 59 d7 be 3d 83 77 c1 3c
       0.109271064 0.106708504 0.09318418 0.023616558
0000a0 f6 8c 42 bd 41 56 cd 3d 3e f0 10 3c 8c 5f 76 ba
       -0.047497712 0.10026217 0.008846341 -0.0009398393
0000b0 17 65 ba 3d c8 b3 c1 3d 92 74 06 bc ef 0a 86 bd
       0.091013126 0.09458119 -0.0082065035 -0.06545054
0000c0 04 9e f2 3d cb 10 c5 3d 33 d5 ad 3d 0a 46 f2 3d
       0.11846545 0.09622344 0.0848793 0.11829765
0000d0 ac 56 4d 3d 5e e1 a9 3d 58 7b 62 bc c6 95 84 3b
       0.050131485 0.082949385 -0.013823353 0.0040461747
0000e0 cc 36 33 be 2e 42 e4 3d 7b 01 10 3d fe d0 d0 3d
       -0.17501372 0.11145435 0.035157662 0.10196112
0000f0 e1 f5 23 3e 8e fb 84 3d 38 89 c0 3d ed 47 de bd
       0.16011764 0.06493293 0.094011724 -0.108535625
000100 42 08 ca 3d 30 0f 87 3d 50 37 75 be 74 94 12 3e
       0.09864856 0.06594694 -0.23946881 0.14314443
000110 a6 20 22 3d ae a8 96 3d c0 7d c0 3c 4a 9c 93 3d
       0.039581917 0.07356392 0.023497462 0.07207544
000120 cb 5f 94 3d c3 1b dd 3b 29 14 8f 3b 67 8c 19 3e
       0.072448336 0.006747694 0.004366417 0.14994965
000130 43 8b 10 3e d6 ac 64 3c b6 e5 ac 3d 8c ac ed bc
       0.14115624 0.013957223 0.084422514 -0.02901294
000140 95 2e c6 bd d8 00 0a 3b 89 40 c1 3d 13 fc 62 3b
       -0.096768536 0.0021057632 0.09436137 0.0034635111
000150 e1 91 19 bc 19 8b 97 bd a9 01 87 3e e1 14 e4 3d
       -0.009373159 -0.07399578 0.26368454 0.11136795
000160 4d be 9d 3d 3a 8a a3 bd 06 75 30 3d 9f d4 88 bd
       0.077023126 -0.07985349 0.043080352 -0.06681179
000170 e2 fa 43 3e 11 a3 90 3d 05 0d 52 3d 05 a8 9c 3d
       0.19138673 0.070623524 0.051281948 0.07649235
000180 32 13 a1 bd 12 df 46 bd d9 ba b4 3c 4b 04 28 3e
       -0.07864989 -0.04855258 0.022061752 0.16407888
000190 f0 6f 83 3d 67 01 55 bc 48 bb c1 3d 71 3f ec bc
       0.06417835 -0.013000823 0.09459549 -0.028838845
0001a0 97 bd 8b 3c da c4 de 3d 60 7c d7 3d 56 c3 45 3d
       0.017058177 0.1087739 0.105217695 0.04828199
0001b0 a3 9d d8 3d 3d a0 2b 3d 9b 74 73 bd 5c 79 49 3d
       0.10576942 0.041900862 -0.059437376 0.049188003
0001c0 e9 ad 03 3d 1e f6 ed 3d 20 b4 13 bd bd 5d 1e 3e
       0.032148276 0.11619209 -0.036060452 0.15465446
0001d0 92 dc 3b 3d f3 df 20 3e 3f 57 57 3c e9 cd ac 3c
       0.04586465 0.1571043 0.01314336 0.02109428
0001e0 6a c3 9c 3d 72 ee 14 3d f0 a4 07 3d 57 33 a3 bd
       0.0765446 0.03636021 0.03311628 -0.07968777
0001f0 e6 30 4b bd 73 ab 93 3d 05 ea 28 be 55 7f bd 3d
       -0.04960718 0.07210436 -0.16495521 0.09252802

layers.3.weight f4 [1, 128]
000000 c6 30 55 3d 4e c8 c0 3d 82 2c 88 3d c5 0e 1d 3e
       0.052048467 0.09413205 0.06649114 0.15337665
000010 64 a7 86 bd a0 60 9b 3d ea 89 33 bd 13 9f 92 bd
       -0.06574896 0.07586789 -0.043832697 -0.07159247
000020 83 43 a5 bd 0e ff 98 bd 10 06 a6 bd a8 96 90 3d
       -0.080695175 -0.07470523 -0.08106625 0.070599854
000030 da 9c ce bd e7 d7 e3 bd d8 e1 c0 3e 84 02 8d 3c
       -0.10088511 -0.111251645 0.37672305 0.017213114
000040 9d 58 86 3d 07 d1 c4 bd 3b 96 1b bd 34 f7 6c 3d
       0.065598704 -0.09610181 -0.037985068 0.05785294
000050 2b ab aa 3d 58 27 e9 3c 20 83 92 3d 57 ce b7 39
       0.08333429 0.028461143 0.07153916 0.00035058215
000060 36 9c 25 bd 8e 24 41 3d 1e 37 b8 bd 78 bd c5 3d
       -0.040432177 0.047154002 -0.08994888 0.09655279
000070 59 fb ab 3d 9c 0a 84 3d 88 6e b8 3d d9 3f d2 3d
       0.0839755 0.06447336 0.09005457 0.10266084
000080 4f 46 bd bd 40 33 a6 bd 26 d1 d0 3c 2f 76 7a bc
       -0.09241926 -0.08115244 0.025490355 -0.015286966
000090 11 2c 12 3c 82 97 99 bd fc 2b 4b 3c d4 cc 4d 3e
       0.008921639 -0.07499601 0.012400623 0.20097667
0000a0 e5 fb 2d 3d fe 58 96 bd fd 8f 95 bd af 5c 69 bd
       0.042476553 -0.07341193 -0.07302854 -0.056973156
0000b0 46 b2 97 3d bb 91 7c 3d f3 91 fd bc aa 68 a3 bd
       0.0740705 0.061662417 -0.030953383 -0.079789475
0000c0 66 e7 72 3d 80 54 69 3d 18 12 a2 3c 4d ea 72 3c
       0.05930271 0.05696535 0.019784018 0.0148263695
0000d0 7d 0d 27 bd 1d 7c 56 3d a9 b0 02 bd 96 d4 27 3d
       -0.040784348 0.052364457 -0.031906758 0.040974222
0000e0 c2 06 21 bf 1b af be bd 85 10 d5 3d de ea af bd
       -0.62900937 -0.093107425 0.104035415 -0.08589719
0000f0 7d 54 a5 bd 41 ba 53 3d a1 d6 21 3d 6f 9d 40 3f
       -0.080727555 0.051691297 0.039511327 0.75240225
000100 c3 10 5f 3d 15 52 aa 3d 39 db 8c be 64 49 3d 3d
       0.054459345 0.08316437 -0.27511004 0.04621257
000110 0f 13 a4 3d 78 a8 29 bd eb aa a2 3d c3 a8 8b bd
       0.08011448 -0.04142043 0.07942756 -0.06819298
000120 cf 6d 81 bd c5 57 6d 3d ad 2f 6d bd d9 ce 8e bd
       -0.063197725 0.05794503 -0.057906795 -0.06973047
000130 ff 1c c6 3d 58 f9 95 3d e1 28 ed 3c aa a9 f4 bb
       0.09673499 0.07322949 0.028950157 -0.0074665146
000140 a0 c4 61 be ad c7 3e bd 5f 2a d5 3c d5 77 bb bd
       -0.22047663 -0.046577144 0.02602118 -0.091537155
000150 46 8a 0c 3f 25 26 b2 3d 7c 7c a5 bd 75 83 af bd
       0.5489849 0.08698682 -0.08080384 -0.08569995
000160 29 5f 0d bf 85 a2 5a 3d 80 5a d9 3c 7f 51 bf bd
       -0.5522333 0.053377647 0.026532412 -0.09341716
000170 be 49 24 3d 1a 57 47 3d 2f b7 9d bc cd d9 a2 bd
       0.04010939 0.04866705 -0.019252388 -0.079516985
000180 0e c1 2e bd 5b d3 2a bf da 6a a8 3d dd 37 d2 3d
       -0.04266458 -0.6672875 0.08223505 0.10264561
000190 64 c2 6d 3b d3 2a 9b 3d 86 01 d3 bd c9 9e e7 bd
       0.0036279196 0.075765274 -0.10303025 -0.11309583
0001a0 6e 4e 1b 3c 56 d5 67 bd 6b ca 92 3d 8f 23 ff bd
       0.009479148 -0.056599937 0.071675144 -0.12457954
0001b0 6a 4a 16 3d 75 53 89 3d 6d d5 b5 bc 21 4f b2 bd
       0.03669206 0.06705371 -0.022196496 -0.08706499
0001c0 e3 c9 a8 3d 0f 10 8a 3d 99 3f 81 3d f7 58 3f 3d
       0.08241632 0.06741344 0.063109584 0.046715703
0001d0 b5 37 ca bd e6 43 54 3d cd c2 e1 bd 9d 95 41 3c
       -0.098739065 0.051822565 -0.110234834 0.011815456
0001e0 9a 46 24 3d 0f 49 c7 bd c4 60 87 bd d0 af 39 bf
       0.040106393 -0.09730732 -0.066102535 -0.72533894
0001f0 ef 83 10 bf 7a 83 8e bd ff 56 0c be af 5b 86 bd
       -0.56451315 -0.06958671 -0.13705061 -0.06560456
