trained_models/C_1_cps.pth (torch_old, 139548 bytes, 7 tensors)

layers.0.weight f4 [128, 10]
-0.17957245 -0.33994216 -0.35295415 -0.099705026 -0.20046097 -0.1757311 -0.0861628 0.19163065
0.14479846 -0.02240744 -0.22589858 0.15250912 0.019265559 0.013114756 -0.17769338 0.34540322
-0.04105541 -0.001034925 -0.049252678 -0.017361682 0.20684224 -0.10709031 -0.23184152 0.058797292
0.17796254 0.2061821 0.15629676 0.11414227 0.113931365 0.106060684 0.013189294 -0.32947925
0.06295752 -0.537797 -0.026355127 -0.3106337 0.08740262 -0.178162 0.13394591 -0.21142937
-0.018355194 0.10513474 -0.30037388 -0.107470796 -0.20657119 0.13017054 0.38518742 0.011560567
0.095900714 0.27655262 0.16147178 -0.0434002 -0.017206106 0.3436863 0.22554809 0.35242712
0.16410583 -0.008091289 -0.18118629 0.086046256 0.101490945 -0.29683253 0.1630475 0.2171598
-0.28116044 0.19804583 -0.22097601 0.26402962 0.18031444 -0.10206068 -0.07151979 0.090549424
-0.3285001 -0.4288825 0.061140407 -0.104854345 0.05411313 -0.11513748 0.033548824 -0.025076246
-0.13047664 0.19887295 0.23769498 -0.09862133 0.18048343 -0.21638002 -0.16921498 -0.11556441
-0.073234245 -0.123912975 -0.10112856 -0.08579919 -0.1807384 0.0691374 -0.22910817 0.5208573
-0.16296573 -0.088048026 -0.1001405 0.1921957 0.058691185 -0.06337509 0.3572654 -0.086822085
0.6182329 -0.2792602 -0.087266766 0.07061515 0.21244153 -0.14301638 -0.022221394 0.26136953
-0.09601154 0.05397384 -0.09656236 0.41385937 -0.13593842 -0.16095679 -0.20660017 0.2026309
0.009544397 -0.40966865 -0.057927895 0.2631705 0.22755949 0.45208567 -0.24968682 -0.16635165
0.25538066 -0.16199724 0.0403758 0.1225052 0.078167774 0.28259832 -0.027387403 -0.053421814
-0.118947804 -0.07961339 -0.046541158 0.13623892 -0.030487968 -0.015664082 0.28423998 0.18023667
-0.19544084 -0.33218864 -0.1778919 0.056737818 -0.083273366 -0.017457204 0.08105504 -0.052863136
0.025177961 0.43456897 0.22232659 0.19627246 0.0708619 0.028758999 -0.12138905 0.29109484
0.084035404 0.31597474 0.07054645 0.32886365 0.26665828 0.042244975 -0.28454652 0.052989606
-0.03321776 -0.22485696 -0.08566868 0.2536579 -0.03641348 0.15450384 0.2718308 0.0044639
-0.10169989 -0.1269205 -0.2851749 0.04527796 0.039320704 -0.046393644 -0.30913156 -0.58143985
-0.11982662 -0.11341636 0.14208642 0.096950755 -0.082932875 -0.38691583 -0.03741428 -0.22796692
-0.15895595 -0.03168884 -0.07853967 0.037448775 -0.45404324 0.06395448 0.30713663 -0.05121195
-0.16743457 -0.011956362 0.16482313 -0.09294269 0.3410714 -0.15431187 -0.13006148 0.11766117
-0.06307577 0.045903333 -0.11918931 0.035332475 -0.0049116565 0.24368814 0.2095369 0.13536689
-0.23646793 0.21450026 0.5022487 -0.09044243 0.05463254 0.14514764 0.016968142 -0.13607198
0.09667203 -0.3388469 -0.326193 -0.4569562 0.43181127 0.15914811 0.054112487 0.21255796
-0.04095513 0.17976396 0.0760905 -0.16835846 -0.29572013 -0.49748415 0.065285236 -0.006327625
0.20595644 0.14497072 -0.14085191 -0.21764141 -0.0012592556 0.02443088 -0.040410563 -0.32322955
-0.15866043 -0.06449115 0.26479906 -0.03211009 0.019666625 0.0010110019 -0.07624468 -0.1632178
00000000: d7e1 37be e60c aebe 68b6 b4be 2632 ccbd
00000010: a445 4dbe daf2 33be 1f76 b0bd d33a 443e
00000020: 0c46 143e cf8f b7bc f551 67be 5a2b 1c3e
00000030: ced2 9d3c 46df 563c 41f5 35be b1d8 b03e
00000040: b829 28bd 52a6 87ba 2dbd 49bd 163a 8ebc
00000050: 74ce 533e 2a52 dbbd dd67 6dbe 6ed5 703d
00000060: d03b 363e 6721 533e 420c 203e 6cc3 e93d
00000070: d954 e93d 5836 d93d e917 583c 81b1 a8be
00000080: dfef 803d 10ad 09bf b5e6 d7bc 610b 9fbe
00000090: 2500 b33d 1970 36be 1e29 093e f180 58be
000000a0: a25d 96bc e250 d73d 9bca 99be a619 dcbd
000000b0: 6687 53be 6d4b 053e 4937 c53e 8868 3d3c
000000c0: 9867 c43d 4e98 8d3e dc58 253e 68c4 31bd
000000d0: d2f3 8cbc a7f7 af3e 14f6 663e 5471 b43e
000000e0: 5c0b 283e 5391 04bc e688 39be 0539 b03d
000000f0: 7cda cf3d 6ffa 97be edf5 263e 235f 5e3e
00000100: 43f4 8fbe 87cc 4a3e 8947 62be e42e 873e
00000110: 59a4 383e 3105 d1bd f878 92bd fa71 b93d
00000120: 2a31 a8be 7d96 dbbe 5d6e 7a3d e0bd d6bd
00000130: bba5 5d3d 33cd ebbd 7e6a 093d b36c cdbc
00000140: ab9b 05be 5aa5 4b3e 5066 733e fbf9 c9bd
00000150: a6d0 383e b992 5dbe b146 2dbe 09ad ecbd
00000160: d6fb 95bd 16c6 fdbd 7e1c cfbd 7cb7 afbd
00000170: 7d13 39be e997 8d3d 559b 6abe e756 053f
00000180: 7de0 26be 8652 b4bd 7616 cdbd f3ce 443e
00000190: 2b66 703d cdca 81bd 7eeb b63e c7cf b1bd
000001a0: 8344 1e3f 31fb 8ebe ebb8 b2bd ad9e 903d
000001b0: 468a 593e e372 12be a409 b6bc 3ad2 853e
000001c0: b3a1 c4bd ac13 5d3d 7dc2 c5bd 60e5 d33e
000001d0: 7133 0bbe dbd1 24be ff8e 53be 7a7e 4f3e
000001e0: 1a60 1c3c 17c0 d1be cd45 6dbd 49be 863e
000001f0: 5b05 693e c677 e73e e7ad 7fbe 1658 2abe
00000200: 41c1 823e 9be2 25be 1861 253d 02e4 fa3d
00000210: 6d16 a03d bab0 903e 8c5b e0bc d5d0 5abd
00000220: e89a f3bd 580c a3bd f1a1 3ebd 3782 0b3e
00000230: e7c1 f9bc f651 80bc e787 913e f68f 383e
00000240: a521 48be a114 aabe 4b29 36be ea65 683d
00000250: 3a8b aabd 6902 8fbc 2f00 a63d 0487 58bd
00000260: 0342 ce3c d37f de3e 95a9 633e a6fb 483e
00000270: 0b20 913d fe97 eb3c d29a f8bd 620a 953e
00000280: c11a ac3d 71c7 a13e a87a 903d d160 a83e
00000290: 6f87 883e 1109 2d3d 15b0 91be a10b 593d
000002a0: 590f 08bd e740 66be 1073 afbd 73df 813e
000002b0: 4d26 15bd 4136 1e3e 682d 8b3e e845 923b
000002c0: 0848 d0bd 73f7 01be 7202 92be 6275 393d
000002d0: bf0e 213d 4307 3ebd 7e46 9ebe 3ed9 14bf
000002e0: a967 f5bd d646 e8bd 1a7f 113e 1e8e c63d
000002f0: b6d8 a9bd d519 c6be b73f 19bd 2970 69be
00000300: 59c5 22be 28cc 01bd 68d9 a0bd e363 193d
00000310: 5b78 e8be 91fa 823d 0341 9d3e 9fc3 51bd
00000320: f873 2bbe 9ee4 43bc 65c7 283e bd58 bebd
00000330: e9a0 ae3e ee03 1ebe d62e 05be 57f8 f03d
00000340: df2d 81bd 2205 3c3d 8619 f4bd c9b8 103d
00000350: f6f1 a0bb 6289 793e d790 563e 9e9d 0a3e
00000360: a624 72be f5a5 5b3e 5f93 003f e139 b9bd
00000370: 5fc6 5f3d 95a1 143e c600 8b3c 7456 0bbe
00000380: fcfb c53d 577d adbe c502 a7be 2af6 e9be
00000390: 5e16 dd3e b9f7 223e 0ea5 5d3d cba8 593e
000003a0: 91c0 27bd 0b14 383e 56d5 9b3d 2966 2cbe
000003b0: a168 97be 3eb6 febe 44b4 853d f757 cfbb
000003c0: 3fe6 523e 3473 143e 7c3b 10be 64dd 5ebe
000003d0: 9b0d a5ba 4523 c83c 8c85 25bd 587e a5be
000003e0: e177 22be f013 84bd be93 873e df85 03bd
000003f0: e71b a13c 9883 843a 2c26 9cbd 9122 27be

layers.0.bias f4 [128]
-0.29685766 0.30616143 0.060515437 -0.07748787 0.017394328 0.055618927 0.10931587 0.27273774
0.2180194 0.26080805 0.100277446 0.20281316 -0.09505668 0.3887771 0.2501319 0.0427825
0.058564745 -0.42838636 0.21960695 -0.064670995 0.25187784 0.31251654 -0.1281761 0.33767256
0.22010829 0.33984056 -0.0101300385 0.22603728 0.15053418 0.45857108 0.1251437 0.27921703
0.069016345 0.08421567 0.2711788 0.09873167 -0.0638982 0.035548672 0.33729854 0.3120295
-0.20446654 0.36207962 -0.14699963 0.026097437 0.39463577 0.19015804 0.27732453 -0.06638142
0.1203684 -0.039117355 0.34596297 -0.06664439 -0.1861808 -0.20157717 0.50228006 0.09424799
0.20477043 0.41933084 -0.17050439 0.11485468 -0.21128942 0.07518062 0.24546702 0.35820615
0.26673687 0.38483933 0.099089704 0.12623945 -0.22481777 -0.017198987 0.3519384 -0.05461086
0.40529838 0.27244112 -0.10595603 0.25348958 0.27859217 0.36925504 0.18405925 0.4366861
0.17778419 0.07334479 -0.1973132 0.23933497 0.6001537 0.27306783 0.22741129 0.33546552
-0.22531822 0.051790617 0.057918366 -0.047117297 -0.09301562 0.10784708 0.28910977 0.0861788
0.20214704 -0.15664506 0.064453624 0.40290496 0.3060957 0.22922906 0.3965465 0.13953647
0.36434898 0.2575164 -0.20596746 0.32388654 0.09270312 0.2595501 -0.031861622 0.27613991
0.20633264 0.37341636 -0.08789427 0.2909735 -0.09414686 0.30621818 0.121866 0.28418934
-0.019861277 0.44806924 0.39272022 0.3525534 0.0059149596 -0.077910006 0.4666418 0.29384533
00000000: bafd 97be 31c1 9c3e 09df 773d f6b1 9ebd
00000010: 8d7e 8e3c acd0 633d 00e1 df3d 48a4 8b3e
00000020: 7a40 5f3e a288 853e 435e cd3d 41ae 4f3e
00000030: 14ad c2bd cb0d c73e 4a11 803e b43c 2f3d
00000040: 96e1 6f3d 7555 dbbe a5e0 603e 3a72 84bd
00000050: 22f6 803e 2b02 a03e 9840 03be 6be3 ac3e
00000060: 1164 613e 95ff ad3e 76f8 25bc 5176 673e
00000070: a225 1a3e d4c9 ea3e ac25 003e 89f5 8e3e
00000080: 7158 8d3d 4479 ac3d f3d7 8a3e d433 ca3d
00000090: 0fdd 82bd 7c9b 113d 65b2 ac3e 55c2 9f3e
000000a0: ad5f 51be 8062 b93e 1287 16be 4bca d53c
000000b0: b30d ca3e cab8 423e 7bfd 8d3e fbf2 87bd
000000c0: b583 f63d 8539 20bd 0f22 b13e db7c 88bd
000000d0: 2ea6 3ebe 3f6a 4ebe 6d95 003f 1705 c13d
000000e0: 57af 513e 88b2 d63e b498 2ebe ee38 eb3d
000000f0: 415c 58be 4cf8 993d b55b 7b3e cc66 b73e
00000100: bc91 883e a909 c53e 8bef ca3d ea44 013e
00000110: a136 66be e4e4 8cbc 4531 b43e a3af 5fbd
00000120: 4583 cf3e 677d 8b3e 7aff d8bd 63c9 813e
00000130: a2a3 8e3e ff0e bd3e 077a 3c3e 5295 df3e
00000140: 0f0d 363e cb35 963d 790c 4abe 3a14 753e
00000150: aca3 193f 8ccf 8b3e 81de 683e 23c2 ab3e
00000160: d2b9 66be 6622 543d cf3b 6d3d 11fe 40bd
00000170: f97e bebd eede dc3d 3206 943e 837e b03d
00000180: a2ff 4e3e 9067 20be 4300 843d 8f49 ce3e
00000190: 93b8 9c3e 06bb 6a3e 2508 cb3e a6e2 0e3e
000001a0: f38b ba3e 31d9 833e 22e9 52be 75d4 a53e
000001b0: 22db bd3d c0e3 843e 5581 02bd 3662 8d3e
000001c0: dd48 533e 6e30 bf3e e901 b4bd 7bfa 943e
000001d0: 12d0 c0bd a1c8 9c3e e294 f93d 4481 913e
000001e0: 1eb4 a2bc 5569 e53e a012 c93e e181 b43e
000001f0: 47d2 c13b 488f 9fbd adeb ee3e e572 963e

layers.1.weight f4 [128, 128]
-0.04410593 0.08357182 0.06458675 0.092740275 -0.060609665 -0.061415598 0.05658605 -0.11448057
0.017571276 -0.08769981 -0.084514774 0.084273785 -0.16087776 0.045890693 0.23137607 -0.028566804
0.021700941 0.17203279 -0.04235338 -0.116068535 -0.019741304 0.07350873 0.030664727 -0.03945454
0.022511192 0.050133426 -0.09714086 0.04793278 -0.06079255 0.056172434 -0.12757094 -0.056059483
-0.010696635 0.067197904 0.099140905 -0.02227757 0.034455597 0.091326475 0.008579458 0.07227704
0.1888377 0.14547324 -0.14026064 0.0011962788 -0.0027368267 -0.04793562 0.033561584 0.01817395
-0.0045009437 -0.0033515804 0.010808278 -0.08345992 -0.057759803 -0.08930601 -0.056748036 0.012364335
-0.039236967 0.09743446 0.018975588 0.069864444 -0.03488163 0.011251561 -0.033152223 -0.037136193
0.0164502 -0.0634703 0.045885548 -0.01121399 -0.11727356 0.03079695 0.11769379 -0.0014425353
-0.021684809 0.002465349 -0.042304303 -0.06575034 0.0018741767 -0.022684267 0.03587157 0.03297269
0.11049531 0.048100155 0.032336697 -0.06034769 -0.08397983 -0.024356417 0.06525487 0.015437336
0.10934832 0.087348774 -0.05976498 0.025213083 0.104053296 0.06543434 -0.074731216 0.03421296
-0.035913877 -0.013393155 -0.028906161 0.02414851 0.0050324444 -0.06100229 -0.026037173 -0.029922184
-0.110963106 -0.040372025 0.025339281 0.06390951 -0.20381288 -0.029591922 0.04766797 0.06319027
-0.02071315 -0.0014553599 0.015660057 0.0055191712 0.05325137 -0.03304165 -0.0031084276 0.13525142
-0.09677184 0.055425804 -0.114586696 0.030288853 -0.058098923 0.03418431 -0.019086355 0.05068738
-0.026765645 -0.009417728 0.024846982 -0.30672324 0.17918967 0.13093774 0.14685036 -0.05896068
0.041761592 0.08260138 0.05453617 -0.11973378 0.0936241 -0.085302606 -0.10789317 0.024655156
0.02480948 0.115366265 0.12677853 -0.03179449 -0.06722121 0.0001267199 -0.047491428 0.029084822
0.0041099153 -0.085217364 -0.0321216 -0.0034814207 0.014086608 0.046534084 -0.14540763 0.004645447
-0.017376272 0.06450827 -0.044836137 -0.06683565 -0.0718869 -0.12564293 -0.06997843 0.026168177
-0.08541903 -0.034836605 0.5400863 0.17521149 -0.027673356 0.004007631 -0.047073707 0.040037747
0.06534665 -0.042467214 -0.005113142 -0.07043429 0.20135482 -0.015181765 0.010386622 0.122598045
0.028000355 -0.04820936 -0.022983316 0.105510294 -0.06827024 0.017950146 0.016199775 -0.019561367
-0.014666136 -0.07701543 -0.005129218 -0.029335506 0.03180371 -0.0040106727 0.030241068 -0.05715797
-0.039278455 0.20912136 -0.035679 0.08765664 -0.073766045 -0.06652097 0.01546559 0.04684964
0.039372582 0.10829273 0.1379737 0.055458296 0.0064425673 0.086449966 -0.0036038542 -0.035465047
-0.07484258 0.10917879 -0.024445025 0.07598948 -0.06331707 0.12843572 0.04196054 -0.026013039
0.09666276 0.09106249 -0.008403218 0.05854437 -0.15101095 0.014242659 -0.02133773 0.007947787
0.059372555 0.02556738 -0.012414943 -0.050975498 -0.08510583 -0.014013511 0.040718287 0.09822007
0.03171159 -0.110556215 0.09160689 -0.098479606 0.075952746 -0.00068544154 -0.18209402 0.024395684
-0.02527525 0.008039939 0.015820676 -0.010506727 -0.051760998 0.012963399 -0.022219473 -0.0217409
00000000: 6ba8 34bd b427 ab3d 0f46 843d 9dee bd3d
00000010: d741 78bd ec8e 7bbd c6c6 673d ca74 eabd
00000020: a3f1 8f3c f59b b3bd 1516 adbd bc97 ac3d
00000030: 24bd 24be e1f7 3b3d d9ed 6c3e ee04 eabc
00000040: 2cc6 b13c 5d29 303e bd7a 2dbd 57b5 edbd
00000050: 84b8 a1bc bf8b 963d 9834 fb3c 159b 21bd
00000060: 6469 b83c b558 4d3d caf1 c6bd 2a55 443d
00000070: 9c01 79bd 1115 663d f5a1 02be a19e 65bd
00000080: f040 2fbc 0e9f 893d 630a cb3d 737f b6bc
00000090: 5021 0d3d 6009 bb3d db90 0c3c fc05 943d
000000a0: ac5e 413e f0f6 143e 7ca0 0fbe 75cc 9c3a
000000b0: 555c 33bb 2458 44bd df77 093d 89e1 943c
000000c0: a77c 93bb 30a6 5bbb 3415 313c 09ed aabd
000000d0: 8b95 6cbd 12e6 b6bd a170 68bd c893 4a3c
000000e0: f1b6 20bd b88b c73d b172 9b3c 1715 8f3d
000000f0: 0ae0 0ebd 7858 383c a0ca 07bd 1f1c 18bd
00000100: 92c2 863c b7fc 81bd 7cf2 3b3d e2ba 37bc
00000110: 1f2d f0bd e349 fc3c 7109 f13d 7413 bdba
00000120: 57a4 b1bc b191 213b 4747 2dbd 1da8 86bd
00000130: efa6 f53a 5bd4 b9bc 11ee 123d 5f0e 073d
00000140: 5d4b e23d ab04 453d 7c73 043d 242f 77bd
00000150: 9efd abbd 1c87 c7bc 58a4 853d e1ec 7c3c
00000160: 03f2 df3d eae3 b23d 20cc 74bd ab8b ce3c
00000170: e519 d53d 7002 863d ae0c 99bd e422 0c3d
00000180: 6e1a 13bd f76e 5bbc 9dcc ecbc 19d3 c53c
00000190: 34e7 a43b 8add 79bd e94b d5bc 5e1f f5bc
000001a0: a040 e3bd 235d 25bd 5394 cf3c fde2 823d
000001b0: 53b4 50be c26a f2bc 7d3f 433d e669 813d
000001c0: a0ae a9bc c6c1 beba 8549 803c 2ada b43b
000001d0: 1c1e 5a3d ae56 07bd c3b6 4bbb 597f 0a3e
000001e0: 5030 c6bd 2b06 633d 6eac eabd 5420 f83c
000001f0: 23f9 6dbd d904 0c3d fd5a 9cbc 929d 4f3d
00000200: a043 dbbc d04c 1abc e68b cb3c d40a 9dbe
00000210: 7f7d 373e 8b14 063e f15f 163e c180 71bd
00000220: 340e 2b3d ea2a a93d 5261 5f3d fc36 f5bd
00000230: febd bf3d 22b3 aebd 18f7 dcbd 9cf9 c93c
00000240: 403d cb3c 2645 ec3d 3bd2 013e f03a 02bd
00000250: 46ab 89bd 1de0 0439 5f86 42bd 4b43 ee3c
00000260: 78ac 863b 7186 aebd f091 03bd 8c28 64bb
00000270: 84cb 663c 869a 3e3d bde5 14be d538 983b
00000280: af58 8ebc e91c 843d 19a6 37bd 21e1 88bd
00000290: 7039 93bd 8aa8 00be da50 8fbd a55e d63c
000002a0: 2cf0 aebd d4b0 0ebd 1943 0a3f a46a 333e
000002b0: 3cb3 e2bc 7252 833b 5cd0 40bd 9ffe 233d
000002c0: 77d4 853d 1af2 2dbd 258c a7bb da3f 90bd
000002d0: f52f 4e3e f0bc 78bc a62c 2a3c af14 fb3d
000002e0: 0061 e53c 2e77 45bd 8247 bcbc c815 d83d
000002f0: 45d1 8bbd 2f0c 933c 64b5 843c 293f a0bc
00000300: 3c4a 70bc 44ba 9dbd 0013 a8bb 0451 f0bc
00000310: 9b44 023d f66b 83bb 1ebc f73c 7a1e 6abd
00000320: 72e2 20bd e923 563e 2524 12bd 5385 b33d
00000330: a712 97bd 253c 88bd 6363 7d3c 68e5 3f3d
00000340: 2545 213d 94c8 dd3d fa48 0d3e 3d28 633d
00000350: 2c1c d33b ae0c b13d a42e 6cbb cc43 11bd
00000360: 1147 99bd 2199 df3d ef40 c8bc 5fa0 9b3d
00000370: 61ac 81bd a784 033e d1de 2b3d 4c19 d5bc
00000380: 20f7 c53d f97e ba3d a7ad 09bc 39cc 6f3d
00000390: 9da2 1abe 0b5a 693c 77cc aebc 6f37 023c
000003a0: a330 733d af72 d13c 0c68 4bbc afcb 50bd
000003b0: f74b aebd ed98 65bc 38c8 263d 9b27 c93d
000003c0: 03e4 013d 4c6b e2bd 659c bb3d adaf c9bd
000003d0: 1d8d 9b3d 34af 33ba db76 3abe 75d9 c73c
000003e0: 0b0e cfbc f3b9 033c 5d9a 813c 6824 2cbc
000003f0: 5703 54bd 7064 543c 9d05 b6bc f919 b2bc

layers.1.bias f4 [128]
-0.02092959 -0.05004231 -0.019459242 0.043235548 -0.034222357 -0.017487912 0.07085923 -0.0888827
0.010227011 -0.022932233 0.031842362 0.066188216 -0.03032665 0.05225028 0.04033678 0.047430556
0.016714204 0.093430966 0.05280786 0.030379867 -0.029311037 0.020089973 -0.025207154 0.09149988
-0.0028325778 0.043733325 0.021590406 0.0011891435 0.09750553 0.078501865 0.066135384 -0.03469779
-0.095677234 -0.019770695 0.09751657 -0.04548569 0.0456971 0.09291392 0.03658231 0.1215993
0.06921121 -0.009354717 -0.013970894 0.08477075 -0.028360827 -0.063539505 0.07317732 0.056088332
-0.04404504 0.00793566 0.027745131 0.119786695 -0.006968123 0.12901057 -0.0706612 0.062149987
0.040119182 -0.11481667 -0.032246158 -0.04280197 -0.08867161 0.029863713 -0.02160328 -0.0054519153
-0.022215672 0.040297735 0.12719963 -0.07297482 0.107556395 -0.055275854 -0.029672664 -0.029267069
-0.042172894 0.0948037 0.030237343 -0.0362004 -0.010846416 -0.038234383 0.038516484 -0.081940964
0.05074471 0.019026078 -0.006869697 0.03386984 0.03701504 -0.010286005 0.06744644 -0.01593722
0.05591615 -0.034580503 0.06528143 0.0019684832 -0.030532673 -0.087693855 0.097395964 -0.05469179
-0.0377125 0.042026732 0.010714855 -0.021440461 0.08599353 -0.07760834 -0.054413337 0.004494727
-0.07969073 -0.006096712 -0.029380457 -0.019357793 -0.029141923 0.00563385 0.041057017 0.03534799
0.057799708 -0.08590694 -0.029359832 -0.06493715 0.05613312 -0.05270401 -0.018508058 0.08849553
-0.03238351 -0.07244139 -0.05269095 0.08622121 -0.08381848 0.10608644 -0.016726978 -0.049495373
00000000: 8874 abbc 2af9 4cbd fd68 9fbc c217 313d
00000010: be2c 0cbd cf42 8fbc a51e 913d 2208 b6bd
00000020: 318f 273c 61dc bbbc 236d 023d b08d 873d
00000030: 986f f8bc 6404 563d 2e38 253d 8b46 423d
00000040: 3aec 883c bc58 bf3d 0e4d 583d 33df f83c
00000050: b31d f0bc ba93 a43c 3c7f cebc 4a64 bb3d
00000060: c5a2 39bb b721 333d 5dde b03c 09dd 9b3a
00000070: fbb0 c73d 96c5 a03d fd71 873d 451f 0ebd
00000080: 6df2 c3bd 27f6 a1bc c4b6 c73d 344f 3abd
00000090: e22c 3b3d a749 be3d 55d7 153d 0e09 f93d
000000a0: 9bbe 8d3d 8744 19bc 2de6 64bc 499c ad3d
000000b0: f754 e8bc 0021 82bd fedd 953d e1bc 653d
000000c0: 9268 34bd 9204 023c c249 e33c ba52 f53d
000000d0: da54 e4bb 591b 043e d2b6 90bd fc90 7e3d
000000e0: 0354 243d 0125 ebbd 8c14 04bd 1e51 2fbd
000000f0: 7699 b5bd bfa4 f43c 5df9 b0bc fba5 b2bb
00000100: a4fd b5bc 3d0f 253d 9f40 023e d373 95bd
00000110: 8746 dc3d ef68 62bd 1614 f3bc 7ec1 efbc
00000120: 7cbd 2cbd 7128 c23d 4eb4 f73c df46 14bd
00000130: 2ab5 31bc a89b 1cbd 76c3 1d3d aad0 a7bd
00000140: afd9 4f3d 94dc 9b3c 321b e1bb 1abb 0a3d
00000150: 159d 173d a286 28bc 5c21 8a3d c68e 82bc
00000160: 5508 653d 49a4 0dbd 45b2 853d ab01 013b
00000170: a81f fabc d698 b3bd 8977 c73d 8004 60bd
00000180: 6c78 1abd 3924 2c3d 5c8d 2f3c e8a3 afbc
00000190: 601d b03d 1ff1 9ebd 85e0 5ebd 8148 933b
000001a0: e534 a3bd edc6 c7bb 49af f0bc 3c94 9ebc
000001b0: 0bbb eebc 299c b83b 672b 283d 0ec9 103d
000001c0: 63bf 6c3d faef afbd 0884 f0bc c5fd 84bd
000001d0: d8eb 653d 29e0 57bd 369e 97bc 253d b53d
000001e0: 92a4 04bd 275c 94bd 77d2 57bd bf94 b03d
000001f0: 06a9 abbd d943 d93d 0407 89bc a9bb 4abd

layers.2.weight f4 [128, 128]
0.02443173 -0.060148608 -0.1531476 -0.08403131 -0.013669589 0.25686434 -0.017754816 0.13933672
-0.13246524 -0.09462033 0.013881684 0.27453393 0.0324561 0.118297614 0.0354276 0.0842291
-0.38538152 -0.05945288 0.0033954708 0.111162856 -0.010944674 0.06739134 -0.06376548 -0.051401515
-0.17038181 -0.06290934 -0.16718903 0.025374012 0.049429316 0.0741138 -0.03022166 0.03798731
-0.0064596604 0.047303915 0.083767086 -0.014464325 -0.1647365 0.031164378 -0.015604505 0.18025495
-0.018667823 -0.060905375 -0.005756971 0.008468268 0.115965664 0.032616235 -0.06834548 0.012599808
0.11031126 0.12669435 -0.03250272 -0.02931729 -0.25817856 -0.074606754 -0.014592148 0.00064009055
0.0603272 -0.048636064 -0.03940569 -0.07731693 0.03894385 -0.029918272 0.065614544 0.0432211
-0.078704596 0.0063031013 -0.014822424 -0.062363658 0.00023210808 -0.09193767 -0.06624947 -0.020064238
0.10705463 0.056242727 0.0984566 0.006676453 -0.10473598 0.014276547 -0.018652912 -0.15199736
-0.015246822 -0.07685212 0.037296697 -0.0040490017 -0.12758504 -0.13941923 -0.00031016817 0.009479183
0.07885494 -0.18218833 0.04522937 0.05367991 0.075035565 0.13166483 0.15400653 0.11422019
0.018642692 0.11373524 0.068640955 0.023439554 0.042195395 -0.028617691 -0.09947196 -0.09399621
0.1171299 0.097391546 0.27855322 -0.14234881 -0.04200205 0.083681665 -0.0472851 -0.090761736
-0.057274587 -0.023419838 0.08086107 -0.14480186 0.17765847 0.23558405 0.019745583 0.1014593
0.10033418 0.0037279918 0.06319962 -0.0043054847 -0.15507706 -0.07498391 -0.11080074 0.10974071
0.021695709 -0.10320414 -0.051911153 -0.010527937 -0.11557663 0.10115888 -0.030762704 -0.08406364
0.024714632 0.089453846 -0.05519109 -0.010445032 -0.06260439 0.09527235 -0.109746926 -0.020779984
-0.048165005 -0.02874711 0.009651506 0.07035554 0.04577034 -0.05351372 -0.0036260507 0.097016685
-0.008237951 -0.15800442 -0.0051336405 -0.013788018 0.10472774 0.059683703 -0.09215567 0.029620897
0.073195025 0.05383426 0.027612664 0.033815883 -0.039006796 -0.012489907 0.058160402 -0.0070693363
0.010941969 0.07849253 -0.08859773 0.0043865405 -0.0059850845 -0.019062553 0.035687957 -0.07552715
0.073871665 0.0009334048 -0.13299116 0.009577286 0.05674874 0.055532254 -0.0040878877 -0.112063065
0.11372319 0.013047196 -0.03991119 -0.028419733 0.030556107 -0.11410381 0.05974941 0.062402423
-0.046460908 -0.017555146 -0.017156107 -0.050037477 0.052944947 -0.01611073 -0.03131135 -0.0660676
0.08655048 -0.00079427037 0.17363937 0.0060750972 -0.0915729 0.08231849 0.056708533 -0.031149542
0.011467009 0.04494693 0.11627196 -0.060604658 0.03338761 0.040777676 -0.046406724 0.081275955
0.037599687 0.0008523445 -0.0019159156 0.12903076 0.099726975 0.19444576 -0.13016073 0.06418457
-0.07651272 0.10245869 0.12308563 0.041291885 0.08746293 0.09091269 0.12433116 0.05797835
-0.07780293 0.043002285 0.1523784 0.11165168 -0.029792896 0.14820258 -0.0005829039 -0.061633132
-0.039505202 0.016012702 0.021118788 -0.19576904 -0.07558057 -0.000568864 0.026061997 0.015873548
0.04538023 0.07367706 -0.05813745 -0.10063074 -0.05098944 -0.013331567 -0.0059376117 -0.16128252
00000000: 0d25 c83c 635e 76bd b9d2 1cbe 9c18 acbd
00000010: 69f6 5fbc b983 833e 8c72 91bc 49ae 0e3e
00000020: f8a4 07be 4ec8 c1bd 0170 633c b68f 8c3e
00000030: b0f0 043d 0546 f23d 881c 113d 4e80 ac3d
00000040: ba50 c5be dd84 73bd 8c86 5e3b 5aa9 e33d
00000050: 4a51 33bc 7904 8a3d 7a97 82bd 658a 52bd
00000060: 9278 2ebe 9dd6 80bd 9a33 2bbe 29dd cf3c
00000070: 6576 4a3d fac8 973d 6a93 f7bc 9598 1b3d
00000080: 8fab d3bb c0c1 413d 148e ab3d c7fb 6cbc
00000090: afb0 28be 704c ff3c 0aaa 7fbc c194 383e
000000a0: 43ed 98bc ea77 79bd f9a4 bcbb 7ebe 0a3c
000000b0: 687f ed3d 9a98 053d b7f8 8bbd 6d6f 4e3c
000000c0: dfea e13d 2abc 013e 9221 05bd d02a f0bc
000000d0: fb2f 84be 6dcb 98bd e813 6fbc c0cb 273a
000000e0: a719 773d 9c36 47bd dc67 21bd 5758 9ebd
000000f0: 9683 1f3d 2a17 f5bc eb60 863d 9c08 313d
00000100: e02f a1bd 3f8a ce3b c1d9 72bc 0971 7fbd
00000110: 0a62 7339 d149 bcbd cdad 87bd c25d a4bc
00000120: 753f db3d c65e 663d 9da3 c93d 26c6 da3b
00000130: d17f d6bd 2ee8 693c fecd 98bc 32a5 1bbe
00000140: cecd 79bc a564 9dbd 6cc4 183d 7dad 84bb
00000150: a7a5 02be eac3 0ebe 119e a2b9 934e 1b3c
00000160: b37e a13d 948f 3abe 6f42 393d 77df 5b3d
00000170: 3fac 993d 25d3 063e e3b3 1d3e 46ec e93d
00000180: 8fb8 983c 06ee e83d a193 8c3d 4f04 c03c
00000190: 14d5 2c3d a66f eabc f4b7 cbbd 1681 c0bd
000001a0: cde1 ef3d 3875 c73d 879e 8e3e e3c3 11be
000001b0: 570a 2cbd 4b61 ab3d 05ae 41bd 4ae1 b9bd
000001c0: c298 6abd f6da bfbc 7d9a a53d f046 14be
000001d0: 1aec 353e f23c 713e 7dc1 a13c e5c9 cf3d
000001e0: 027c cd3d 5351 743b cd6e 813d 0615 8dbb
000001f0: 85cc 1ebe 2a91 99bd 80eb e2bd bdbf e03d
00000200: 33bb b13c b15c d3bd caa0 54bd 5e7d 2cbc
00000210: 71b3 ecbd 632c cf3d 1102 fcbc 8f29 acbd
00000220: 5776 ca3c 9433 b73d 0d10 62bd a421 2bbc
00000230: bb36 80bd 261e c33d ffc2 e0bd c93a aabc
00000240: ab48 45bd 0f7f ebbc 5a21 1e3c 9116 903d
00000250: ae79 3b3d 3431 5bbd 09a3 6dbb afb0 c63d
00000260: 79f8 06bc e9cb 21be 1938 a8bb 24e7 61bc
00000270: 7f7b d63d e676 743d 1dbc bcbd 86a7 f23c
00000280: 46e7 953d 5081 5c3d f433 e23c 8682 0a3d
00000290: 97c5 1fbd 78a2 4cbc 9a39 6e3d e4a5 e7bb
000002a0: f245 333c b1c0 a03d ba72 b5bd f8bc 8f3b
000002b0: 871e c4bb 1229 9cbc 892d 123d faad 9abd
000002c0: 074a 973d bcaf 743a d62e 08be 0dea 1c3c
000002d0: 5e71 683d ca75 633d b0f3 85bb 5281 e5bd
000002e0: b4e7 e83d e8c3 553c ea79 23bd 80d0 e8bc
000002f0: cd50 fa3c 42af e9bd ccbb 743d af99 7f3d
00000300: cb4d 3ebd cfcf 8fbc f78a 8cbc 19f4 4cbd
00000310: cddc 583d a6fa 83bc 5540 00bd 734e 87bd
00000320: 6141 b13d 9536 50ba 85ce 313e 9c11 c73b
00000330: 938a bbbd 9996 a83d 3547 683d 532d ffbc
00000340: 1fe0 3b3c 461a 383d fe1f ee3d 973c 78bd
00000350: 72c1 083d 7e06 273d fa14 3ebd 0274 a63d
00000360: 2102 1a3d df6f 5f3a 761f fbba a420 043e
00000370: a83d cc3d ca1c 473e db48 05be 3373 833d
00000380: b3b2 9cbd ddd5 d13d 5214 fc3d ae21 293d
00000390: c41f b33d 6f30 ba3d 56a1 fe3d b57a 6d3d
000003a0: 2457 9fbd 2a23 303d 1509 1c3e a3a9 e43d
000003b0: 3b10 f4bc 6bc2 173e 05ce 18ba 0673 7cbd
000003c0: 35d0 21bd 122d 833c 4f01 ad3c ae77 48be
000003d0: fcc9 9abd d11f 15ba f87f d53c 3e09 823c
000003e0: 9fe0 393d 00e4 963d 8921 6ebd 7d17 cebd
000003f0: 4eda 50bd a56c 5abc 4c90 c2bb 3f27 25be

layers.2.bias f4 [128]
-0.085909456 0.36640105 -0.03063627 0.07408578 0.077590615 -0.023781434 0.027163405 0.067200504
0.020645041 0.025320455 0.023800002 0.07607647 -0.051092077 -0.021523504 0.07476137 -0.009443663
0.019120283 -0.056458954 0.015330925 0.07708331 0.059081256 -0.024022317 -0.008192705 0.024079088
-0.0004054788 -0.06392437 -0.0009977604 -0.00979972 0.06334472 0.054555394 0.02018978 -0.047512114
-0.07618939 0.06784081 0.093711026 0.21838215 0.072661236 0.0007889678 -0.016978735 0.045936644
0.114587575 -0.066296734 -0.042971432 -0.0015637653 0.011575968 0.116675965 0.25144446 0.1443951
0.090942316 0.05503987 -0.104831226 0.15767674 0.07929865 0.053933658 -0.04415413 -0.08550318
-0.0019495795 -0.007436924 0.104779124 -0.0053275945 0.04711135 -0.0305238 0.07164881 0.031534225
0.07771461 0.012538549 0.07547556 -0.052702017 -0.06656171 0.06836811 0.21005955 0.00014308392
0.024694039 -0.0093308715 0.010038525 -0.08931518 0.018043607 -0.016779466 0.09657322 -0.022537582
0.040956322 0.101070784 0.0015779203 0.10950196 0.0916317 -0.061213035 0.041741174 0.06894249
0.10563568 -0.056991283 -0.055614233 0.109344825 0.04729056 0.024259362 0.0063918135 -0.052336928
-0.025300832 0.11375636 0.011773714 0.07275955 0.23465385 -0.007884762 0.018130125 0.10064418
-0.00983772 0.112521514 0.13377725 -0.027461302 0.07825395 0.16618232 -0.0149400635 0.09136742
0.0058147125 0.07069818 -0.0029562775 -0.0026352184 0.1898106 0.06217104 0.054249357 -0.05289599
-0.07597382 -0.04029837 -0.037388954 -0.08382382 -0.08051888 0.06847569 0.0616677 -0.01049161
00000000: 4cf1 afbd eb98 bb3e eaf8 fabc 49ba 973d
00000010: d4e7 9e3d 48d1 c2bc ca85 de3c 6ba0 893d
00000020: ca1f a93c d86c cf3c 39f8 c23c fbcd 9b3d
00000030: ed45 51bd 0f52 b0bc 7d1c 993d 98b9 1abc
00000040: 24a2 9c3c 8141 67bd 8f2e 7b3c dbdd 9d3d
00000050: 30ff 713d 73ca c4bc b23a 06bc 8241 c53c
00000060: 7196 d4b9 c8ea 82bd 49c7 82ba 018f 20bc
00000070: e0ba 813d 7a75 5f3d 0a65 a53c 109c 42bd
00000080: 2f09 9cbd 1ff0 8a3d 91eb bf3d 929f 5f3e
00000090: 6acf 943d bcd2 4e3a fd16 8bbc 1028 3c3d
000000a0: e4ac ea3d 95c6 87bd d002 30bd 42f7 ccba
000000b0: 21a9 3d3c cff3 ee3d 54bd 803e 4fdc 133e
000000c0: f73f ba3d 7d71 613d c1b1 d6bd 0376 213e
000000d0: 5567 a23d 8ae9 5c3d f6da 34bd 4b1c afbd
000000e0: 0889 ffba 71b1 f3bb 7096 d63d 1a93 aebb
000000f0: d5f7 403d 0c0d fabc 9cbc 923d 082a 013d
00000100: d628 9f3d 7c6e 4d3c ee92 9a3d 12de 57bd
00000110: 8151 88bd 9404 8c3d da19 573e cc08 1639
00000120: 274b ca3c 83e0 18bc a078 243c e1ea b6bd
00000130: 30d0 933c 1775 89bc 2ec8 c53d bca0 b8bc
00000140: d1c1 273d 33fe ce3d 38d2 ce3a 9042 e03d
00000150: 67a9 bb3d 85ba 7abd cbf8 2a3d b831 8d3d
00000160: 8557 d83d b16f 69bd c0cb 63bd 2ef0 df3d
00000170: bfb3 413d 92bb c63c 6b72 d13b 3f5f 56bd
00000180: b143 cfbc 18f9 e83d 89e6 403c f502 953d
00000190: 1949 703e 172f 01bc a185 943c 891e ce3d
000001a0: 632e 21bc ae71 e63d e7fc 083e 86f6 e0bc
000001b0: 9b43 a03d b32b 2a3e 2bc7 74bc d81e bb3d
000001c0: 5889 be3b 35ca 903d 1bbe 41bb a1b3 2cbb
000001d0: b65d 423e 0fa7 7e3d 9334 5e3d 77a9 58bd
000001e0: 2a98 9bbd e70f 25bd 2925 19bd d3ab abbd
000001f0: 15e7 a4bd fc3c 8c3d 4597 7c3d 00e5 2bbc

layers.3.weight f4 [1, 128]
0.15806817 0.11474122 -0.04748719 -0.21959661 0.12056291 0.21464552 -0.17377017 -0.1965429
-0.19912149 0.20881966 0.12767781 -0.2489748 -0.20538823 -0.18852203 0.152466 -0.15863916
0.18857825 0.07950933 -0.1455266 -0.31148022 0.18999724 -0.27879453 -0.23567432 -0.3284985
-0.16621687 -0.2715716 0.24944091 0.22217795 -0.20890728 -0.16779576 0.19604678 0.15693231
-0.0017460836 -0.21471065 -0.20320062 0.15568338 0.23166248 -0.19997682 0.13499169 0.117851235
-0.19331895 -0.019644344 -0.2415521 -0.20702527 0.17069969 -0.19035007 0.17814545 0.1680543
-0.27511582 0.11117402 0.1556656 0.12837406 0.045036152 0.127032 -0.2586219 -0.08414063
0.16824102 0.12982564 0.20888968 -0.2180555 -0.18939798 -0.27372524 -0.20864144 -0.09577264
0.1511846 -0.2193816 -0.28974715 -0.2187881 0.17277595 -0.19446981 0.15995309 -0.3074169
-0.16103153 0.018064918 0.12286448 0.14509855 -0.09356972 -0.38432238 -0.18152297 -0.29656324
-0.27897072 -0.20207064 -0.2051389 -0.20541823 -0.20491162 -0.19262755 -0.009589925 0.1612921
-0.13723949 -0.06793414 -0.04687133 0.16141762 -0.19360988 -0.15880679 0.23194546 -0.4096182
0.15644793 0.13166198 0.15200974 0.12990327 0.16229099 -0.2275581 0.115337655 0.20318149
0.16350573 0.12482887 -0.19064103 -0.2802763 0.1541215 0.122965515 0.10887851 -0.25795993
-0.22836691 -0.2311651 -0.25094983 0.17245974 0.0948295 -0.1919469 -0.17727037 0.17617983
-0.25298905 0.112198986 -0.015541816 0.15999366 0.16578804 0.24732322 0.2221014 0.20149267
00000000: 9fdc 213e 72fd ea3d ee81 42bd efdd 60be
00000010: b0e9 f63d 09cc 5b3e cff0 31be 8b42 49be
00000020: 81e6 4bbe d2d4 553e f9bd 023e 40f3 7ebe
00000030: 4b51 52be eb0b 41be 0c20 1c3e 4e72 22be
00000040: a81a 413e cad5 a23d ed04 15be 567a 9fbe
00000050: a38e 423e 28be 8ebe 9c54 71be f530 a8be
00000060: c134 2abe 6f0b 8bbe 706d 7f3e 9e82 633e
00000070: caeb 55be a7d2 2bbe 7dc0 483e ddb2 203e
00000080: d8dc e4ba 1cdd 5bbe d313 50be 776b 1f3e
00000090: ee38 6d3e b9c6 4cbe 433b 0a3e fd5b f13d
000000a0: 67f5 45be 2ded a0bc 6f59 77be 6ffe 53be
000000b0: e6cb 2e3e 21eb 42be c36b 363e 6d16 2c3e
000000c0: fbdb 8cbe 34af e33d ce66 1f3e 7d74 033e
000000d0: d477 383d ad14 023e 176a 84be ec51 acbd
000000e0: 6047 2c3e 03f1 043e 2de7 553e f149 5fbe
000000f0: 8bf1 41be b725 8cbe 1aa6 55be 7224 c4bd
00000100: 23d0 1a3e 92a5 60be bd59 94be fd09 60be
00000110: 2eec 303e 1823 47be beca 233e bf65 9dbe
00000120: 73e5 24be e1fc 933c 5fa0 fb3d b794 143e
00000130: 7ba1 bfbd e7c5 c4be 28e1 39be 23d7 97be
00000140: 40d5 8ebe 9beb 4ebe ef0f 52be 2859 52be
00000150: 5ad4 51be 2840 45be 101f 1dbc c229 253e
00000160: 8288 0cbe 0e21 8bbd 27fc 3fbd a94a 253e
00000170: ab41 46be 3f9e 22be 1c83 6d3e 7ab9 d1be
00000180: e333 203e 66d2 063e 71a8 1b3e 5d05 053e
00000190: 9c2f 263e fe04 69be 2636 ec3d cf0e 503e
000001a0: 0c6e 273e 47a6 ff3d 6737 43be 6080 8fbe
000001b0: 07d2 1d3e 58d5 fb3d b2fb de3d 5313 84be
000001c0: 04d9 69be 8bb6 6cbe 7f7c 80be 4999 303e
000001d0: f835 c23d ba8d 44be 5d86 35be 7c68 343e
000001e0: c887 81be 95c8 e53d 1aa3 7ebc 61d5 233e
000001f0: 57c4 293e 4c42 7d3e 8d6e 633e 1854 4e3e
