trained_models/C_1_exp.pth (torch_old, 139548 bytes, 7 tensors)

layers.0.weight f4 [128, 10]
00000000: e8a2 b8bd aea3 9e3e 8ab2 c03c bc96 79be
00000010: a828 773e 2b6b 5fbe 0e6b 74be 0c25 813c
00000020: 304c 023d b549 92be 2884 303d b97d 743d
00000030: 7114 933e 49bf 763e f7f2 3b3d 66b5 efbd
00000040: 3c2c 083d 7bc0 77be e784 9bbd b8a3 8b3e
00000050: 9c77 a33d 6ab0 45be 173d ab3e 23f1 c23e
00000060: 01c4 07be 43db f43d 42f4 673c 2c49 84be
00000070: f56d 9b3e bb6e e53d 0409 0c3e 1f49 fdbd
00000080: ba9e b5be 4ac2 503e e864 b7bc 3394 2bbd
00000090: bc7d f23c de27 8f3d 9018 e03d c74a 26bd
000000a0: 9950 923d fafd 1bbe f9ba d8be 40d5 663e
000000b0: 58b0 a5bd 6121 1b3d d3d9 a63e a47c f03c
000000c0: 2d02 55be 3eca 603e 42e6 8dbd 75c3 93be
000000d0: 612d 5d3e 039e e5bd 50eb 5cbe 62c1 223d
000000e0: 30b3 11be 3635 9d3a dfa8 6cbe 329d 81be
000000f0: f7cd b03d 55b6 81be 594c f93d 098d 72be
00000100: b9c3 3dbe c6e2 b2be eee0 8f3e 2108 97be
00000110: 180b edbe 1f5a 1abe b55b f53d ec41 21be
00000120: e11e 63be 59d8 b7bc 98c0 363e bd8b c7be
00000130: ed67 b63e a68a 26be 3c69 afbe a60d 54be
00000140: 44d4 60bd 1cb8 ba3d 5266 63be f9f2 093d
00000150: 1652 7a3e a4f6 31be 0d4d 6cbe 7416 d3bd
00000160: f99e 743e dfe9 873d 34b5 9f3d b528 9dbe
00000170: 575c 943e 754d b9bd 3a3b 2e3e 20ea e63c
00000180: ac85 e9bd 48da 4e3e 3483 8abe 31a9 51be
00000190: 80d0 2e3e 2a52 8a3e 1310 1dbe 37ff d5bd
000001a0: dc82 4e3d bc63 4d3e 37e4 4ebe 1d5d f83d
000001b0: 0a45 653d d019 5cbe 2c41 dc3d 767d 653e
000001c0: 555c 42bd a4d5 223e 9ce1 e23d 4abb 9e3d
000001d0: d65c 473e cf53 343e 9372 3bbe 34bc d13d
000001e0: 0d38 713d 202b 98bd d98e 513e 78c1 39be
000001f0: e8b8 403e 5222 70be b6cd 173d abe3 2dbe
00000200: 8d95 093e 1df0 503d 3444 863e 6dea a1bd
00000210: 9083 113d 74a1 ffbd 930c 823e 2697 243e
00000220: 958a ac3d c590 6bbe 5694 433d 09a0 d63e
00000230: a794 29be 5483 3f3e 3aac 2b3e 4d25 5e3e
00000240: 09a8 84be 9a14 58be 6d11 793e 5885 243e
00000250: aa60 fdbe 911e 703d d8aa 0c3e 3bcc 16be
00000260: 70e5 bf3e 9c98 193e 5c83 9c3d 10ff 44bd
00000270: 3200 59bc f9f1 863e 839f 06be 82cb 6e3c
00000280: 0e28 85bd 8644 853e bf9e 8dbc 868b be3d
00000290: ce44 3dbd 88c8 433e 1966 8b3d 7494 cbbe
000002a0: 4f1d 0ebe 396a c63e c8dc 64be ae8c 933d
000002b0: fe6b 483e 2b4d b63e fbf7 6dbe e353 d23c
000002c0: d8d4 323e f629 b7be e35e ffbc e001 9dbd
000002d0: fdc3 e5bc 527a 3a3b 97db 05be 2807 073e
000002e0: 036e 883e 39c2 433e 5d0c 0e3e d975 74be
000002f0: e975 533e 9efb bebc 5239 5fbe c5fc 4cb9
00000300: c32e 1fbe 073f 48be a36d 2bbd 0262 983c
00000310: 8466 9f3d 0d42 abbe fcab b23d 8999 d0bd
00000320: d89a 583e 4ed0 0f3e f8cd 8ebe 19a1 fe3d
00000330: 7998 3ebe 5196 8a3d 4e9e 94bd 21d9 cabd
00000340: 50d4 3cbe 9d02 aebe ac56 173d 945a 013e
00000350: fcff 8b3d bc2e 593e 27ba b53e f6ad 783e
00000360: c309 3f3d ae0e 823d 1302 863e 1d47 a3be
00000370: 425f 52be 5906 223e 48dd 8fbe f0ae f63d
00000380: bc74 bcbe 5cba 3e3e 71b8 07be 4216 1fbe
00000390: 13a7 273d e3c2 34bd 0015 f9bd 6ded 49be
000003a0: 1296 30bc b42a 52be 148c fc3d b71f 1abd
000003b0: 7815 ae3e 68de b73d c814 193d bd01 81bd
000003c0: e694 703d e638 b33e eb17 303e 96f0 c53e
000003d0: 7c18 cc3d 19ef 20be 239d 0e3e 9fad 08ba
000003e0: e27c 773d 90fa 7bbe 03fb bebd 96c3 39be
000003f0: 71a5 813e e855 a73d d234 87be f95a ef3d
-0.09015447 0.30984253 0.023522634 -0.24373907 0.24136603 -0.21818225 -0.23868963 0.015764736
0.03181094 -0.2857186 0.043094784 0.05969021 0.28726533 0.24096407 0.045886006 -0.11704521
0.03324531 -0.24194519 -0.075937085 0.27273345 0.07981798 -0.19305578 0.33445045 0.38074598
-0.13258363 0.11955883 0.014157357 -0.25837076 0.30357328 0.11202761 0.13675314 -0.12367462
-0.3547266 0.20386615 -0.022386983 -0.04188938 0.02960097 0.06990026 0.10942185 -0.040598657
0.07144279 -0.15233603 -0.4233015 0.22542286 -0.080902755 0.03787363 0.32588062 0.029356308
-0.20801611 0.2195215 -0.06928684 -0.2886006 0.21599342 -0.11211779 -0.2157414 0.039735205
-0.14228511 0.0011994008 -0.23111294 -0.25315243 0.08633035 -0.2533442 0.12172765 -0.23686613
-0.18531694 -0.3493864 0.28101295 -0.2949839 -0.46297526 -0.15073441 0.11980382 -0.15747803
-0.22179748 -0.02244203 0.17846906 -0.389738 0.35626164 -0.16263828 -0.34259975 -0.20708331
-0.054889932 0.09117147 -0.22207001 0.033678982 0.24445376 -0.17379242 -0.23076268 -0.10307017
0.23888768 0.06636404 0.07798234 -0.3069512 0.289767 -0.09047977 0.1701478 0.028187811
-0.11402449 0.20200455 -0.27053225 -0.20474698 0.17071724 0.2701581 -0.15338163 -0.10449069
0.050417766 0.20057577 -0.20204245 0.12127135 0.055974044 -0.21494222 0.10754618 0.22411141
-0.047451336 0.1590181 0.11078188 0.07750566 0.19469008 0.17610095 -0.18305425 0.10240975
0.058891345 -0.074301004 0.20464648 -0.18140209 0.18820536 -0.23450592 0.037061416 -0.1698138
0.13435955 0.05101024 0.2622391 -0.07906041 0.03552586 -0.124819666 0.25400218 0.16073284
0.0842487 -0.23004444 0.047748886 0.41918972 -0.16560613 0.18702441 0.16764918 0.21693917
-0.2590945 -0.21101609 0.24323054 0.16066492 -0.4948781 0.0586229 0.13737047 -0.14726345
0.37479734 0.14999622 0.07642242 -0.04809481 -0.0132446755 0.26356485 -0.13146786 0.014574887
-0.065017805 0.26028842 -0.01728761 0.09303956 -0.046208195 0.19119465 0.06806583 -0.39761698
-0.13878368 0.38752916 -0.22349846 0.07204567 0.19572446 0.3560575 -0.23239128 0.025674766
0.17464006 -0.357742 -0.031173175 -0.07666373 -0.028047556 0.0028454256 -0.13072048 0.13186324
0.26646432 0.19117059 0.13871904 -0.2387308 0.20650448 -0.02331334 -0.2179921 -0.0001954912
-0.15545182 -0.19555293 -0.041852605 0.018601421 0.07783225 -0.3344883 0.0872421 -0.101855345
0.21152818 0.14044306 -0.27891517 0.12433071 -0.18612851 0.06766952 -0.07256757 -0.09904695
-0.18440366 -0.3398637 0.03694789 0.12632209 0.068359345 0.21209234 0.35493585 0.24285111
0.04664017 0.06350456 0.26173458 -0.31890193 -0.2054415 0.15822734 -0.28098512 0.120450854
-0.3680781 0.18625778 -0.13253953 -0.15535834 0.04093082 -0.04413117 -0.121622086 -0.19719477
-0.010777967 -0.20524102 0.12331405 -0.037627902 0.34000754 0.089779675 0.037373334 -0.0629916
0.05873575 0.35004348 0.17196624 0.38660115 0.099656075 -0.15716209 0.1392713 -0.000521386
0.060421832 -0.24607301 -0.093252204 -0.18141016 0.25321534 0.08170682 -0.26407486 0.116872735

layers.0.bias f4 [128]
00000000: 619b 293e a1f4 973e b645 a23c cda8 543e
00000010: aa4d 8b3d e5d8 403e 76f2 653c 1275 30be
00000020: 6618 4b3e 20e9 ba3e c5ba aa3e a211 ad3e
00000030: 330d 6a3e f743 433d 6b0e 7dbd 12fe bb3e
00000040: 87d8 86bd ea74 233e b941 0a3e b1a6 8c3e
00000050: 3145 d23e 5867 7abe bfa9 463e 2cf0 e33e
00000060: 6dc8 57be bdd0 d33e fe66 8e3e f1cc babd
00000070: aff8 363e 2c00 26be 0b09 80be 26d3 75bc
00000080: 7bfd ce3e 777b 6b3e 03cf 863e 4527 21bd
00000090: e845 3cbe 1bcd aa3d 0bd9 863e 9d10 a43e
000000a0: b5f8 2dbe 9f72 c3bd dcce fd3d 2067 223e
000000b0: 5be2 233e cb17 19bd 5503 7b3e aa4f 51bd
000000c0: a292 6a3e 6e4c 5dbc 27ff bb3e 85cd 183d
000000d0: 2865 cc3e 4a37 e4bd 1bd0 b8b9 476d 18bd
000000e0: 5542 8e3e 0e37 0d3e 5b53 a83e 805e 143e
000000f0: f706 1abe a61d b23e 3062 4a3e 227f f23c
00000100: b7a9 133e 84af 303e d8fe b63e 012b 153f
00000110: 8535 ea3c 797e edbd ce48 e7bd d10a 873d
00000120: 9964 6e3e 90bb 823e 2e4f 7a3e 0665 e03e
00000130: 1fc6 823e 8737 923e 4b37 823e 8ee5 643e
00000140: 60e4 8a3e 3391 143e 4535 463e dc82 dfbd
00000150: 9bff c43e 92bf 6e3e 8145 673e e601 c1bd
00000160: 1bd4 993e dc67 0c3e e2d0 853e fa1b f53d
00000170: 0bf5 f23e df52 a6be 929c 33be 9262 f83d
00000180: 2bcf 1c3e 0c14 163e 7347 443e b7d1 a53e
00000190: e7fb fabd d976 9fbd 05e9 3c3e 7c2e 963e
000001a0: 4018 513d 84d1 4cbe 1a92 d83d bd43 d23e
000001b0: 7e67 61bc e7ad 773d 6be6 b93d 11ac 983e
000001c0: ba2d 153e 7293 0cbe 47a5 ba3e 7273 823e
000001d0: d4e6 26be 463a 4b3e d5f3 983e ff83 9dbc
000001e0: 7512 6e3e da50 a63d cffb bf3e 4906 14be
000001f0: 6e4a 9a3e c6a3 b13e 5732 77be 2afc 8dbc
0.16563179 0.29678825 0.019808631 0.20767517 0.068019226 0.18832739 0.014034858 -0.17232159
0.19833526 0.36505985 0.3334562 0.33802515 0.22856598 0.04767224 -0.06178133 0.36717278
-0.06584268 0.15962568 0.13501634 0.27470925 0.41068414 -0.24453485 0.1940069 0.44519174
-0.2107255 0.41370192 0.27812952 -0.09121121 0.17868303 -0.16211003 -0.250069 -0.015003955
0.40427765 0.22996317 0.26329812 -0.03934409 -0.18386042 0.08339902 0.26337466 0.32043925
-0.16989405 -0.095433466 0.12392971 0.15859652 0.16004317 -0.037376206 0.2451299 -0.051101364
0.22907498 -0.013506992 0.36718103 0.037305374 0.39920926 -0.11143358 -0.00035250266 -0.03721359
0.27784982 0.13790533 0.32876095 0.14489174 -0.1504172 0.34788245 0.19764018 0.029601637
0.1442021 0.17254454 0.35741305 0.58268744 0.028589973 -0.11596388 -0.11293183 0.0659386
0.23280562 0.25533724 0.24444267 0.43827075 0.2554178 0.2855799 0.2543281 0.22353193
0.2712736 0.14508514 0.19356258 -0.10913631 0.38476261 0.23315266 0.22585107 -0.0942419
0.30044636 0.13711494 0.26135927 0.11968227 0.47452578 -0.324851 -0.17540196 0.12128176
0.15313403 0.14656085 0.1916788 0.32386562 -0.12255078 -0.0778634 0.18448265 0.2933234
0.051048517 -0.20001799 0.10574742 0.41067305 -0.013757585 0.06046858 0.09077152 0.29818776
0.14568225 -0.13728121 0.36454222 0.25478703 -0.16298991 0.19846448 0.2987353 -0.01922798
0.23249228 0.0812089 0.37496802 -0.14455523 0.3013491 0.34695262 -0.24140297 -0.017332155

layers.1.weight f4 [128, 128]
00000000: f13c 6dbd a962 393d 3eff be3c 7aa8 a3bc
00000010: c13d 273d 1507 8dbd bb33 c33d e2b0 46bd
00000020: bb42 91bd 892f 023e 6604 323d 641d 7c3d
00000030: 04a9 ef3c e3c5 f83d c9ca 393d 3c22 c53d
00000040: 7a0f c3bc f086 babc dcb2 cb3c 92f1 2fbc
00000050: 9fb6 76bd 4313 713b ff96 c63d c752 a83d
00000060: e9ff 84bc 5f0d 17bd 6f0c a0bd 7192 bbbd
00000070: d8df dbbd 66f9 243d 46b4 dcbd 7d5d 5bbd
00000080: ea42 b6bc 3203 82bd 8f44 983d 9c48 a93d
00000090: 11f2 40bc aaa3 113b b0a1 633d 8cf6 d5bc
000000a0: 2131 353d bd80 9d3a 8523 963d f47d 763d
000000b0: 3e63 66bd c2a1 633d c9ce 043d bb88 413d
000000c0: 6489 063d f519 6c37 fa64 b63d 25ad cebc
000000d0: 34bd 0abc 972b 0abe 5c65 1d3d d177 bb3d
000000e0: 6f0a 113d 7a63 ab3d ed95 89bd 8d29 2dbd
000000f0: dea8 63bc 8d58 523c 295f b23c 43e3 543d
00000100: bc46 f33d 4e7a a63d e42a b13d c5e7 bfbd
00000110: 0cb1 223d 3c2e ba3d a65a e53c 39c7 ddbc
00000120: 2b9b 27bd df01 c63d 5a0f 76bd 32b0 833d
00000130: 1e8d 9c3d ee87 d7ba 4f8e 7b3d fe5a 7d3c
00000140: 0ad4 98bc c520 543d 71ab 29bd 1571 103e
00000150: 3483 05bd 9e3f ab3d 4126 8a3d 2b4c ac3d
00000160: 3889 a73d 331a 9abc 5b41 c8bd 0218 ab3d
00000170: 8358 6bbd a19d 8f3d e73b 3f3d 6dfa 2e3d
00000180: 355f 9c3d 9968 a13d fce7 68bd fff5 4c3d
00000190: 8682 af3c 7e36 ae3c a130 ebbb 6fe7 8d3d
000001a0: 7d00 c6bd 3a96 a2bd b1ae be3d 542f d83d
000001b0: 1107 a93c bbd2 81bc dc2e 233c 6326 9fbd
000001c0: 7317 a23c fa42 c6bd 0bce f53c 381f 94bd
000001d0: 8ef6 aa3d 22e8 ac3d 1774 3abd 3698 2f3d
000001e0: 62cb eb3c 20ab 20bd 7723 0eba a7c1 8d3c
000001f0: 5e58 473d 8250 36bd 855f 96bd 6f1f 56bd
00000200: adfb 0f3d 342b debd c059 f8bc d80e 4c3c
00000210: 1165 42bd 5781 063d 1895 40bd 596e ecbc
00000220: 6802 573d b08b bf3d 596b 22bd e685 593d
00000230: 847a a93d 3663 c93d 253b 9c3d 127e 88bd
00000240: 5ee3 75bd 5943 bc3d 8c69 713c 2f5c 09bc
00000250: e4ac 9a3d d78b aa3d 8a46 9aba 0c40 a03d
00000260: c22f 813c d672 223c daac a0bc 466a 623d
00000270: d74d 9cbc 8eb0 893d b241 9dbd 110f 833d
00000280: 6984 b23c e9a3 26bc 5e0e 85bd 78a8 d03d
00000290: 36f3 993d 5335 ac3d 754b 043d 18f9 4f3d
000002a0: e6a0 d33d e0d3 0cbd 6442 0b3c ebb4 063c
000002b0: cb82 3c3d b7de 703d f6b7 4a3c b9ee 6b3d
000002c0: c988 c1bc 9778 d83d 30ef 7f3b ea4d dc3c
000002d0: 7ba7 e6ba 1603 a43c 4a08 9a3d 97a3 a03d
000002e0: d7de 973c 51fc a33d 93da 02bc e608 243d
000002f0: f0d5 c3bd b350 01bc bee2 82bd b2a4 f53d
00000300: 1861 b0ba 3344 28bc 6fec a73d 16a2 98bd
00000310: a164 973d e7de 883d 0872 a3bd e911 1ebd
00000320: 8b85 313a 0d62 7ebc 3006 0a3d 40eb c53d
00000330: 3015 95bd dfef 3c3c 9c7b 843d 553d 503c
00000340: a23f a53d 54c8 6f3d f6a5 053d 62eb 64bd
00000350: 4493 c63d 8509 183d 8273 453d 52eb aa3d
00000360: 65c3 793c dcf8 5f3d d028 083e e282 013d
00000370: 19d0 5e3d 59b9 b43d d9e7 f43b 1943 7bbb
00000380: 112a 2ebd 6175 b33d 342d 0cbd a1ae ba3d
00000390: 9aa3 a5bd dbd8 873c 7484 89bd 3cb4 dbbc
000003a0: ea8a f4bd f44a 91bd 89c9 eabc 4fa7 27bd
000003b0: a22d c63d fb5b 5a3d 87dd a33d be95 a03d
000003c0: 7b68 763d 1ca1 1fbe a765 9b3c 2f54 d93d
000003d0: 7bd8 083e b643 81bc b28b 03bd 02c9 2e3d
000003e0: 3f0c c93c 4ab3 31bc ac51 833d cf6a e53c
000003f0: 4de3 873c 925c c23c 1ce9 4e3d 4bce e93c
-0.057919446 0.045260105 0.023315068 -0.019977797 0.040830377 -0.068861164 0.09531351 -0.048508532
-0.07092806 0.12713446 0.043461226 0.061551467 0.029255398 0.12147119 0.045359407 0.0962567
-0.02381109 -0.022769421 0.02486556 -0.010738747 -0.060232755 0.0036785163 0.09696769 0.082189135
-0.016235309 -0.036877986 -0.078148715 -0.09158791 -0.10736054 0.040276907 -0.10776572 -0.053555954
-0.022248704 -0.06348266 0.074349515 0.08265802 -0.011776463 0.0022222796 0.05557412 -0.02611854
0.044236306 0.0012016516 0.073309936 0.060178712 -0.05624699 0.055574186 0.03242377 0.047249537
0.03284587 1.407274e-05 0.089059785 -0.025229046 -0.008467961 -0.1349319 0.038426742 0.091537125
0.03541034 0.08368583 -0.06718049 -0.042275954 -0.013895242 0.012838495 0.021773892 0.051974546
0.11878726 0.081287965 0.08650759 -0.093703784 0.039719626 0.0909085 0.027997326 -0.027072536
-0.040919464 0.09668326 -0.060073234 0.06430091 0.076441035 -0.0016443708 0.061415013 0.015463589
-0.018655796 0.051789064 -0.041423265 0.14105637 -0.03259583 0.083617434 0.067455776 0.084129654
0.08180469 -0.01881132 -0.097780906 0.083541885 -0.05745746 0.07012487 0.046687987 0.042719293
0.07635347 0.078812785 -0.056861863 0.050039288 0.021424543 0.021266218 -0.007177428 0.06928908
-0.09668062 -0.0793881 0.093106635 0.10555902 0.020633252 -0.015847554 0.009959903 -0.077709936
0.019786572 -0.096807435 0.030005476 -0.07232517 0.08347808 0.08442713 -0.04552087 0.04286977
0.028783504 -0.039225698 -0.0005422155 0.017304255 0.048668258 -0.044510372 -0.07342438 -0.05227607
0.035152126 -0.10848084 -0.030316234 0.012454711 -0.047459666 0.03283819 -0.047017187 -0.028861212
0.05249253 0.09352815 -0.039653156 0.05310621 0.08275321 0.09833376 0.076284684 -0.06664671
-0.060031287 0.09192533 0.014734637 -0.008383795 0.075525075 0.083274536 -0.001177029 0.07824716
0.015769843 0.009915074 -0.019613672 0.05527713 -0.019080086 0.06723128 -0.07678546 0.06399358
0.021791654 -0.010170915 -0.06496881 0.10188383 0.07517092 0.08408608 0.032298524 0.050774664
0.10333423 -0.034381747 0.0084997155 0.008221845 0.04602317 0.058806147 0.012372961 0.05760071
-0.023624795 0.10569876 0.003905248 0.026892621 -0.001759752 0.020021003 0.07521112 0.07843702
0.018538876 0.0800711 -0.0079866825 0.04004755 -0.0956229 -0.007892775 -0.06390904 0.11994304
-0.001345667 -0.010270166 0.08199393 -0.074527904 0.0739224 0.0668314 -0.07980734 -0.0385913
0.00067719136 -0.015526307 0.033697307 0.09664011 -0.07279432 0.011531799 0.06468889 0.012709935
0.080687776 0.058540657 0.032628976 -0.05588854 0.096960574 0.037118454 0.04820586 0.08345665
0.01524434 0.05468069 0.13296819 0.03161896 0.054397676 0.08824415 0.0074739275 -0.0038339554
-0.042520586 0.087626226 -0.034222797 0.09115339 -0.08087845 0.016582897 -0.067147166 -0.02681934
-0.11940558 -0.07094374 -0.028660553 -0.040931042 0.096766725 0.053310376 0.08001237 0.07841061
0.060158234 -0.15588802 0.01896937 0.1061176 0.13363831 -0.015779357 -0.032115646 0.042672165
0.024541972 -0.0108459685 0.06412062 0.028005032 0.016587878 0.023725782 0.05051528 0.028540751

layers.1.bias f4 [128]
00000000: 24b8 f83c 6341 a4bd 3266 cf3d 259a 933d
00000010: 6f3b d93c d17b 2d3c ee14 743d 4b40 df3b
00000020: 98de 01bc 9e6c 17bd 6fc3 6a3d b583 7abd
00000030: ad2b 983d bb30 df3c 95cc 993d 2b4e fa3c
00000040: 08da eb3c 6135 3cbd 4d7b 053e c56e 403d
00000050: daf2 0cbc 1836 d83d 4f4a 7ebd 52a0 1a3d
00000060: 1366 b23d 5f75 513c 2fe3 02bd d885 c53d
00000070: 99d7 62bc ecc7 88bd c9c0 59bd bbcb 463c
00000080: fa56 43bd 815d 29bd 9989 073e 5258 b1bc
00000090: 13a1 efbb 5abf e53d 8ce2 8a3d 0d71 a03d
000000a0: f6c3 aebc 1663 8bbc 1856 b63d 01e3 033b
000000b0: 3c3c c23d d869 95ba bf86 a83d 6fe2 49bd
000000c0: 2124 903d e73b 1c3c e637 153d 7df8 2f3d
000000d0: b088 bcbd bfc5 4d3c b6bd d53b 1065 9f3d
000000e0: dc2f f83c 2392 f93c cc50 be3d 4309 b93c
000000f0: 61a6 01bc 6c90 dd3a 147b cabd a3e2 b13c
00000100: f2ec c1bc 6f01 97bb d5d8 b4bc 1b75 833d
00000110: 0740 683d a03f bd3d 2b0e 1a3d f4b9 ecbb
00000120: 3533 703d 1156 733d 7a33 523d 0395 d8bb
00000130: 659a 2bbc dd23 0e3b 5d93 b13d 042d 08be
00000140: 4d7d 053e c868 d43d d1be eb3d a7fa 57bc
00000150: 50a0 ee3d 3bf1 40bd ee8a 973d 7716 c53b
00000160: 394d f6bc 8803 c03d 82ed 2fbd 970a 2a3d
00000170: ea5c f3bc 555d 883d 2e6e 40bd 4447 8fbc
00000180: 2b12 a2bd 57b9 12bd f38f b83d ea95 333c
00000190: 88a0 b43d 7866 60bc 0132 9c3d e0b0 55bc
000001a0: cc32 7c3d 0f09 48bd 456c c13d f966 9c3c
000001b0: 95c5 063d cc7b 803d f7cb 8dbc 73e1 63bc
000001c0: c57d cc3c 75e9 de3d 0a9c 9b3d a154 2d3a
000001d0: e3d6 acbd 216b d33d 62a4 c03d c78d b53d
000001e0: d6e7 06bb bac9 353d cc10 973d c1b0 2f3d
000001f0: a036 a3bc bd29 9bbb 243a 27bd 18f7 3dbd
0.030361243 -0.08020284 0.10126914 0.07207135 0.026517598 0.010588602 0.059590273 0.0068130842
-0.007926606 -0.03696882 0.057315286 -0.061160762 0.074302055 0.027244916 0.07509724 0.030554852
0.028790489 -0.045949344 0.13035317 0.046980638 -0.008602822 0.105571926 -0.062082585 0.03775055
0.08710875 0.012784331 -0.03195494 0.09644669 -0.013845348 -0.06678757 -0.05316237 0.012133534
-0.04769037 -0.041348938 0.13236083 -0.02164856 -0.0073129027 0.11218138 0.06781492 0.07834063
-0.021333676 -0.017015021 0.0890314 0.0020124319 0.09484145 -0.0011399342 0.08228826 -0.04928821
0.07038141 0.009535766 0.036430262 0.042961586 -0.092057586 0.012559353 0.0065228594 0.07782948
0.030296259 0.030465191 0.092927545 0.022587424 -0.007913203 0.0016904003 -0.098867565 0.021714514
-0.023672555 -0.004608325 -0.02207605 0.064188205 0.056701686 0.09240651 0.037611168 -0.007224316
0.058642585 0.05940825 0.051318623 -0.0066095605 -0.010473822 0.0021688857 0.086706854 -0.13298422
0.1303608 0.10371548 0.11511005 -0.013182319 0.11651671 -0.047105055 0.073995456 0.006014641
-0.03006612 0.093756735 -0.042951114 0.041514006 -0.02970739 0.06658427 -0.046980076 -0.017490037
-0.079136215 -0.035821285 0.09011831 0.010961035 0.088196814 -0.013696305 0.07626725 -0.013042659
0.06157188 -0.048836764 0.09444479 0.01909207 0.032903273 0.062736124 -0.017309172 -0.013908732
0.024962315 0.10884372 0.075981215 0.0006612037 -0.08439424 0.103231676 0.094063535 0.088649325
-0.0020584962 0.044381835 0.073762506 0.042893175 -0.019923508 -0.0047352 -0.04082693 -0.046378225

layers.2.weight f4 [128, 128]
00000000: c9fa 213d db13 ca3d 35d3 903c d436 a2bd
00000010: dbda 81bb 0735 2c3d 11ed 453d 252d 51bd
00000020: d7d8 a8bd ca73 91bd ac6a ebbd 8d2e c63d
00000030: f876 d53c 9bed ddbc 6092 6a3d e0b3 013d
00000040: f53b 0cbd f410 78bd a516 4a3d fccc e3bd
00000050: bd64 4dbb 883e 8dbc 5e89 a3bd 4680 d73d
00000060: 2ffe d73d 9784 72bc 118f 18bd 99c2 73bd
00000070: 7a7e ac3a ca9f 393d bd5e 92bc a9a8 d33d
00000080: 1867 70bb 5a22 60bd b457 3f3d 5447 08bd
00000090: aadf b2bd 6b53 00bc ba13 8ebd 766f 8dbd
000000a0: 3cdc 473d b34a 8b39 7cb9 86bd 5931 193c
000000b0: f4b4 1f3c 7d70 483d cec4 05bd a56e d63c
000000c0: 68a5 f8bd 6e50 62bd 88dd 2f3d c9cd d2bd
000000d0: 5fb7 36bd 5801 81bd 4c52 953d 59ea 833c
000000e0: 487a cbbd 5501 ac3d bf52 443d adcf b03d
000000f0: 479d 20bb 3997 17be 983f 99bd 54dc e03d
00000100: 7be8 5abe 8d05 f7bc 3238 b23d 7897 03be
00000110: 0c01 afbd 7c89 853d 84ff af3c bebb be3d
00000120: 6ecf 323d 9caa 163d 7d52 9d3d 4fe8 63bd
00000130: 7c5f 42bc 0448 86bd a4f6 d4ba 4bd5 133e
00000140: 9e0b 42bc 1866 a03b f5f8 34be 327b debd
00000150: 0281 abbb 57fb 833c 7364 8c3d b320 01bd
00000160: c400 f9bc 2091 d53d 43ac df3b e7cb 4e3d
00000170: 3eef 1a3d 5426 a23d 40fc b63c 4282 5f3d
00000180: 891f 6bbe 4646 193d 4cce 4d3d 993c 883d
00000190: 00ce 953d 60b2 fabb 637c 5cbd 2b36 cf3b
000001a0: 2a92 053b cde8 7e3d 68be 23be e150 e2bd
000001b0: 3b46 30bd ada3 d93c fe48 f3bc 79e5 c23c
000001c0: f61d 793c 1e33 bbbd b67a 11bd 7f75 793d
000001d0: 0a66 c03c 70ff d83d 766c 5dbc 42f9 bf3d
000001e0: ec8a 723c 5d7f debc 7a7d 323c ee5a 983d
000001f0: 388e d03d c20f a0bd 0868 bebd 8f91 e6bd
00000200: b372 8ebc ccda ee3c ba2e 233d 14ac a03d
00000210: 743f e7bd 8c9a 8ebd 4013 eebc 5024 0fbd
00000220: 9b98 a33d 514b d53d 9a4d fcbc 67fd 27bd
00000230: 3ca9 b1bc 9e7f c33d 146b 0bbd 350d a8bd
00000240: ba4c dabd 32ad 69bd afec d73d 893a 9b3d
00000250: bfd8 3bbd ae29 8f3d 8617 ccbd f968 b3bc
00000260: 1738 14bd ff82 30bd eb96 fe3c 6af7 ae3d
00000270: ce82 a9bb fbbb d53c ee73 423c bd73 ae3b
00000280: ae42 1ebe a2d5 9a3c 129c bf3d 2f4d f8bd
00000290: 4f28 0a3e 2141 bd3d 3c51 f83d 4a20 603c
000002a0: 6a8a dfbc cc2b 973d c6bf d83d c7ff 263d
000002b0: 49a4 7fbd fbb4 95bb 401c 0dbe 222a 74bd
000002c0: ac9e 3e3c 7145 5dbd 5fa8 813d 40dd 8f3d
000002d0: fb5c 7cbd 556c 233e 27e2 993c ad1e e4bc
000002e0: cb81 523d 3d0e b23d eadb 2cbd 1f13 52bd
000002f0: 6ba3 883d 2461 6a3d c419 ccbd 27e0 52bd
00000300: 3dc5 a23d ec2b 823c cceb f2bd 4197 1fbc
00000310: 8d6e 1c3d 77ab 9cbd 1627 e1bd 76e8 a7bb
00000320: a284 623d 8232 d03d bf4f 10bc 2a1f 0abc
00000330: 1898 58be ed3a 923d 841e 023d 2707 b1bd
00000340: 45a0 56bc d3a5 7d3c 8633 c8bd 192f de3d
00000350: f6d4 41bd e288 263d 2416 edbc efde 59bd
00000360: 66a0 18bd 26b3 c9bd 3eeb 69bd a33c 52be
00000370: 5131 9abd c168 d9bb 5eba cd3c e2a7 683d
00000380: 2b55 ef3d 44de 7e3d 7d38 b1bd 9541 87bd
00000390: 4c55 e5bd 7229 e2bc c442 e43d 610f 16bd
000003a0: add9 f83d 06b3 85bd 2ac7 1f3d 4dc0 c53d
000003b0: e551 b8bd f958 2c3d 475a 173d c0c9 303c
000003c0: b78f 05be adb3 893d 3397 a4bd f03f 0cbe
000003d0: 2b20 9cbd 70d7 cd3b 7555 db3d 228f ffbc
000003e0: 3cfb 503d 9ea1 0fbe 9af6 febd 8b65 253d
000003f0: 063f 04be efcb 543e efb0 2f3c 68d1 9c3c
0.039545808 0.098670684 0.017678836 -0.07920614 -0.003962857 0.04204276 0.048321787 -0.051068444
-0.08244484 -0.07102163 -0.114949554 0.096768476 0.026057705 -0.027090838 0.0572685 0.031665683
-0.034236867 -0.060563043 0.049338 -0.11123082 -0.0031340562 -0.017241731 -0.07985185 0.10522513
0.105465285 -0.01480212 -0.037245814 -0.059511755 0.0013160252 0.045318402 -0.01786744 0.10334904
-0.0036682542 -0.05472026 0.0467145 -0.03327115 -0.08734067 -0.007832388 -0.06937356 -0.06906025
0.048794016 0.000265678 -0.06578347 0.009350144 0.009747732 0.048935402 -0.03265839 0.026175806
-0.12140924 -0.055252485 0.042935878 -0.10293157 -0.04460847 -0.062990844 0.072910875 0.016102957
-0.09935433 0.083986916 0.047930475 0.08633361 -0.0024507807 -0.1480378 -0.07482833 0.10979524
-0.21377747 -0.030154014 0.08702125 -0.1285075 -0.085451216 0.06520364 0.021484144 0.09313153
0.04365485 0.0367838 0.07681749 -0.05564147 -0.011863586 -0.06556705 -0.0016247821 0.14436834
-0.01184359 0.004894983 -0.17673095 -0.108633414 -0.005233885 0.01611106 0.06855097 -0.031525325
-0.030395873 0.10428071 0.006825955 0.050487425 0.037825815 0.07917467 0.022337079 0.054567583
-0.22961248 0.037420534 0.05024557 0.06652183 0.07314682 -0.0076506585 -0.053829562 0.006323596
0.002038131 0.062233735 -0.15990603 -0.11050583 -0.043035727 0.026567305 -0.029697891 0.023791062
0.015204897 -0.09140609 -0.035517417 0.06090307 0.023486156 0.10595596 -0.013514629 0.09373714
0.014803629 -0.02716034 0.010894174 0.074392185 0.10183376 -0.078155056 -0.09297186 -0.11258232
-0.017388677 0.029157065 0.039839484 0.07845321 -0.112913996 -0.06963071 -0.029061913 -0.03494674
0.079880916 0.10414756 -0.030798722 -0.041013148 -0.021687143 0.095458254 -0.034037665 -0.08205644
-0.10659166 -0.057049938 0.10543191 0.07579524 -0.045861002 0.06990372 -0.09965424 -0.02190064
-0.036186304 -0.043093678 0.031077823 0.08543284 -0.005173064 0.026090613 0.01186846 0.0053238557
-0.15455124 0.018900696 0.0935594 -0.121240966 0.13491939 0.09240938 0.12124869 0.013679573
-0.02728768 0.073814005 0.10583453 0.040771272 -0.062412534 -0.0045686937 -0.13780308 -0.059610493
0.01163451 -0.054021303 0.06330942 0.07024622 -0.06161211 0.15959294 0.018784596 -0.027846659
0.05139331 0.08694122 -0.042201914 -0.051287767 0.066717945 0.057221547 -0.09965852 -0.0514833
0.079477765 0.015890084 -0.11861381 -0.009740652 0.038191367 -0.07649892 -0.10993783 -0.005124147
0.05530227 0.101658836 -0.008808075 -0.008430282 -0.21151769 0.071401455 0.031767383 -0.08643942
-0.013099735 0.01548143 -0.09775452 0.10848827 -0.047322236 0.040657885 -0.028941222 -0.05319112
-0.037262343 -0.09848623 -0.05710911 -0.20530944 -0.075289376 -0.006634802 0.02511328 0.05680073
0.116861664 0.062223688 -0.086533524 -0.06604306 -0.1119791 -0.027607653 0.11145547 -0.03663576
0.12150893 -0.06528287 0.039008297 0.09655819 -0.08999995 0.04207704 0.03695133 0.010790288
-0.13043104 0.067237236 -0.080366515 -0.13696265 -0.07623323 0.0062817857 0.10709659 -0.03119618
0.051020846 -0.14026496 -0.12449379 0.040380042 -0.12914667 0.2078092 0.010723337 0.019142821

layers.2.bias f4 [128]
00000000: 3eec 70bc 0816 073d 5367 7d3d 1941 023c
00000010: cf60 063e c19c bf3d 88a1 1c3d 983b 543d
00000020: 293d ab3c 796f 80bd 3425 14bd c447 2e3d
00000030: 5da6 39bc 6321 17bd 441d a0bd b8f3 eb3d
00000040: bc07 26bb 630b 1a3d 3ef6 d53d c717 10ba
00000050: 568a 60bb 4980 ce3c 6763 46bc 0d94 ea3d
00000060: 25c2 b73d 66a9 8b3d a885 7f3d 1e18 953d
00000070: ca67 dd3d 45f4 27bd 9ca2 a43d 3865 e2bc
00000080: 2a82 1ebc 0164 06bb b6fc 19bb 0a2a f53b
00000090: 64e6 0d3d 5936 c43d f9ac 4d3c ea2e 973d
000000a0: f1cb 123e 5600 1c3b 009f 6c3d 4ccf 02bc
000000b0: ae66 49bd acdd a33d 1fd2 79bd 3067 08bd
000000c0: 8fd5 f73c 6b42 5e3d aa10 9a3d 0ec5 7dbc
000000d0: 6cea 0d3d c5fd e03d 9f15 17bd bf3a 58bd
000000e0: 0022 3fbd 6d1b b53d 2316 573d 8d6d b33d
000000f0: 8365 99bc a799 53bc 3b7c 98bd 2014 6dbd
00000100: e397 69bd 216d 843d 0e54 7f3d a808 0abd
00000110: 3deb 84bc 94f5 923c 6754 033e aa36 38bd
00000120: ad24 7d3d 9949 8a3c 9e03 e63d 1875 e23a
00000130: 00ad 373d 5a25 a43c e80f 6e3b b359 e23d
00000140: 7c52 4b3d 6d2a 4cbd 1529 eabc 02c7 6ebc
00000150: 4888 003c a6cc 513d 6e16 79bd da8e acbc
00000160: 9e23 04bd 214c f63c 412e 4fbd c79e 283d
00000170: a3fb 3c3d 96d9 533e 8280 50bc 1b30 763d
00000180: 7f8a 7e3d 4524 943d 106d 33bc 33b7 88bd
00000190: bfb9 683d e6fc ed3d 0326 86bd 52ed 813d
000001a0: c3f7 2fbd f484 b6bd e36e 29bd b412 8e3d
000001b0: a0ee 943d cfba 193d d35e 14bd 3e99 ec3d
000001c0: baaf 7b3c ecd1 abbd 6f5e 553d 9096 713d
000001d0: fbaa 4ebd 3bfd e13d 436e d2bb bcce 1bbd
000001e0: 7902 96bd 2632 473c dffe 833d 0013 adbd
000001f0: f5f1 d03d 6ace eebc eaa4 c83d 7033 853d
-0.014704762 0.032979995 0.061866116 0.007950091 0.13122867 0.0935607 0.038239986 0.051814646
0.020903187 -0.06271262 -0.036168292 0.04254891 -0.011331168 -0.036897074 -0.07818082 0.11521095
-0.00253342 0.037608515 0.104473576 -0.0005496707 -0.0034262142 0.025207656 -0.01210866 0.1145402
0.08972577 0.068194196 0.062383324 0.072799906 0.10810812 -0.041004438 0.08038828 -0.027636155
-0.009674588 -0.0020506384 -0.0023496575 0.007481818 0.034643546 0.095806785 0.012553447 0.07381995
0.1433561 0.0023803911 0.05776882 -0.007983994 -0.04917019 0.08001265 -0.060991403 -0.033301532
0.0302532 0.05426256 0.0752271 -0.015488876 0.03464739 0.10985903 -0.036885854 -0.0527904
-0.046663284 0.08843122 0.052511346 0.087611295 -0.018725162 -0.012915052 -0.0744557 -0.05788052
-0.057029616 0.06466127 0.06233602 -0.03369966 -0.016225452 0.017939366 0.12825166 -0.044974007
0.061802555 0.016880797 0.11231159 0.0017277328 0.04484272 0.020037342 0.0036325399 0.11052265
0.04963921 -0.049845148 -0.028584043 -0.014573814 0.007844992 0.05122056 -0.060812406 -0.02106421
-0.03226053 0.030065598 -0.05058122 0.041167047 0.046138417 0.20688471 -0.012725951 0.06010447
0.0621438 0.0723348 -0.0109512955 -0.066755675 0.056817766 0.11620502 -0.06550219 0.063440934
-0.042960893 -0.089120775 -0.041365515 0.06937161 0.072720766 0.03753167 -0.036223244 0.11552666
0.015361721 -0.08389649 0.052092012 0.05898148 -0.05045603 0.11034628 -0.0064218356 -0.038038954
-0.0732469 0.012157952 0.06445097 -0.084508896 0.102024 -0.02915116 0.0979708 0.065039515

layers.3.weight f4 [1, 128]
00000000: c9ba 1e3e 23dc 4f3e fb65 2a3e 7058 f43d
00000010: c128 46be be5f 3d3e ef5d ef3d e353 37be
00000020: 0418 483e ed4d 163e 654e 6cbe 58ff 163e
00000030: 8440 1f3e 7a00 19bd a485 0d3e 32d9 57be
00000040: c8ce 6fbe 1fac 443e 2bf8 323e 72e1 b83d
00000050: e7d0 8ebe 2320 62be 2c59 d03c 2184 68be
00000060: f352 6bbe 4bab f13d 8b89 c63d 219e 57be
00000070: f00d 68be dbdb 873d 83d8 0a3e 43da f23d
00000080: f4c2 5fbe 361e 8c3d 9491 67be fe44 233e
00000090: d87d 67be 6dda 51be b071 373e fa1f eb3d
000000a0: 9a5f 0f3e 9801 f0bd 4522 94be 0169 89be
000000b0: a501 74be 7394 3b3e a63d ad3d e319 4bbe
000000c0: d6ed 23be 39ca bc3d dd05 81be 5de5 79be
000000d0: 26f7 493e b0af 7cbe fdbd 273e d71b ff3d
000000e0: b486 1d3e b607 2c3e 383d 1ebe d414 2a3e
000000f0: 2c6c 1fbe 7385 05be 4e07 44be c482 3e3e
00000100: d1c6 2a3e dd56 7bbe fbe2 39be 7102 413e
00000110: a262 033e 740a 533e 86d6 003e c4af 5abe
00000120: 547f 98be 9eb6 2d3e aaae 3bbe e162 3c3e
00000130: ec5c 52be b60d 4cbe 8c42 0d3e b795 8bbe
00000140: c702 6dbe eb19 0f3e 72ed 8ebe 2a28 6ebe
00000150: a442 063e da7c 4c3e 8771 0e3e 89ce fb3d
00000160: 5c8b 443e 34ff 80be fbaf 22be 4f9c 62be
00000170: 346a 933d 1de2 293e d916 60be f6cf 6cbe
00000180: d083 2c3e e494 873d 649e 253e 36d3 6d3d
00000190: edf4 1ebe 3512 2abe ab04 3dbe 34b6 81be
000001a0: 03c6 373e ce23 5dbd 5951 7cbe e25e d33d
000001b0: 30a6 463e f722 093e 56c3 a2be 6c46 57be
000001c0: 8db2 163e f8c8 f5bc 7341 573d 0784 4f3e
000001d0: 2a95 1b3e 368a 51be 1c53 5dbe 4882 2abe
000001e0: 56bf 1e3e 3ef8 3c3e 1299 92be 0fc9 adbd
000001f0: ecdd 38be aea1 67be 83f5 45be 1904 54be
0.1550094 0.20298819 0.16640465 0.119309306 -0.19351484 0.18493554 0.11687838 -0.17903094
0.19540411 0.14678164 -0.2307678 0.14745843 0.15551955 -0.03735397 0.13820511 -0.21078947
-0.23418725 0.19206284 0.17477481 0.09027375 -0.27893755 -0.22082572 0.025433145 -0.22706653
-0.22980861 0.1180025 0.09694203 -0.21056415 -0.22661567 0.06633731 0.13559155 0.11858036
-0.21851712 0.068417 -0.22614127 0.15944287 -0.226066 -0.20493479 0.17914462 0.114807084
0.14001313 -0.11719054 -0.28932396 -0.26837924 -0.23828752 0.18318348 0.08459024 -0.19834094
-0.16008696 0.092182584 -0.25199786 -0.24403901 0.19723186 -0.24676394 0.16381069 0.12456482
0.15383416 0.16799816 -0.1545304 0.16609508 -0.15568608 -0.13039188 -0.19143412 0.1860457
0.16677405 -0.24544854 -0.18152992 0.18848588 0.12830594 0.20609456 0.12581834 -0.21356112
-0.29784644 0.16964194 -0.18328348 0.18397094 -0.2054326 -0.19927105 0.13794917 -0.2726266
-0.2314559 0.1397473 -0.2791553 -0.23257509 0.13111359 0.19969502 0.13910495 0.12295253
0.19193786 -0.25194705 -0.15887444 -0.2212994 0.07197991 0.16590162 -0.21883716 -0.23126206
0.16847157 0.066201955 0.16173702 0.058062755 -0.1552312 -0.16608508 -0.18458812 -0.25334322
0.17946629 -0.053989224 -0.24640407 0.10320832 0.19399333 0.13392244 -0.31789654 -0.21022958
0.14716549 -0.030003056 0.05255265 0.20265208 0.1519362 -0.2046288 -0.21613735 -0.16651261
0.15502676 0.18454072 -0.28632408 -0.084856145 -0.18053406 -0.2262027 -0.19331937 -0.20704688
