trained_models/C_1_psid.pth (torch_old, 139548 bytes, 7 tensors)

layers.0.weight f4 [128, 10]
000000 44 3e a3 bc 39 b0 89 be a0 7e be be 2d 56 90 be
       -0.019927152 -0.2689226 -0.37205982 -0.28190747
000010 83 fd 1c bd 25 f7 84 3e 60 27 ca 3d 25 6a 50 bd
       -0.038327705 0.25969806 0.098707914 -0.050882477
000020 a4 dd 81 3e bd 66 8a be 8e 41 dc 3d e3 8d 80 be
       0.2536441 -0.27031508 0.10754691 -0.2510825
000030 12 cb 03 3e 05 ab 8f 3e 38 9c 10 be 89 31 7b 3e
       0.12870434 0.28060165 -0.14122093 0.24530615
000040 de fc b3 3d a9 fe b0 3a 51 66 cd 3d d5 cd b4 3e
       0.08788465 0.0013503629 0.10029281 0.35313287
000050 ef d3 3f bd 71 43 4e bd 52 e9 99 be 16 d1 2b be
       -0.046832975 -0.050357286 -0.30060822 -0.16778979
000060 be 43 89 3e 97 13 d4 3e 1a 7f 56 3e b9 2e 8c 3c
       0.26809496 0.41421196 0.20946923 0.017112123
000070 c2 50 1f be 27 ac fd 3c 25 85 5a be 72 99 04 be
       -0.1555815 0.030965878 -0.21339853 -0.1294916
000080 c9 3b 00 be f8 82 ef bb bb 82 47 3e fc 11 34 be
       -0.12522806 -0.007309314 0.19483463 -0.17584985
000090 a3 52 b3 3d a0 89 7e 3d a5 b8 b0 3d 18 08 80 3d
       0.08755996 0.06214297 0.08628968 0.06251544
0000a0 b3 5e 91 3d 5c c6 b4 bd c4 8f 31 be b1 6f 5d be
       0.070981406 -0.088268965 -0.17339998 -0.21624638
0000b0 c3 40 b3 3e d3 05 6a 3d 37 ff 1a 3e 61 60 99 3d
       0.35010347 0.05713446 0.15136419 0.07489086
0000c0 81 1e 75 bc 06 b0 14 3e e0 ba 6f 3e 0d ec 92 be
       -0.014960886 0.14520273 0.23411131 -0.28695717
0000d0 4d 9a b8 bd ee 52 8c be f2 3d aa bd 88 64 28 bd
       -0.090138055 -0.2740702 -0.083125964 -0.0411115
0000e0 e4 7f 99 bd 49 9e e6 3c 79 de 05 be d2 1b 3e be
       -0.07495096 0.028151648 -0.13073148 -0.185653
0000f0 11 84 5c 3d 88 9e 50 bc 14 21 36 be 55 fa 65 be
       0.053836886 -0.012733109 -0.17786056 -0.22458775
000100 99 ba 1a 3e bb 3f 85 3e f5 50 ed bd 58 af d9 be
       0.15110244 0.26025185 -0.11587707 -0.4251659
000110 e2 c5 37 3c 9b 3e 7a bc 09 6d 91 3e 41 73 0d 3e
       0.0112166125 -0.015273715 0.284035 0.13813497
000120 5a dd af bd bc dc b3 3d 1b 47 e9 3e 0b 8b 4f be
       -0.08587141 0.08782336 0.45562062 -0.20267884
000130 a4 0f 29 3d 8f c9 92 3d 25 bf 9d 3e 39 70 5a 3e
       0.04127468 0.071673505 0.30809894 0.21331872
000140 36 ce 14 bd 5b 89 ee 3d fc ca 97 be 22 71 06 be
       -0.03632947 0.11647292 -0.29647052 -0.13129094
000150 f8 2f 10 bd 84 af a5 be a4 da 6a be c9 88 ab be
       -0.035201997 -0.3236047 -0.22934967 -0.33502796
000160 d1 1f 1c bc 4c 80 13 3c 62 8f 02 be 4a cd 8c 3e
       -0.00952907 0.009002756 -0.12750009 0.27500373
000170 c2 b9 87 3e b9 5e 16 3e 1f 42 db 3e eb a9 b4 3e
       0.2650891 0.14684571 0.42823884 0.35285887
000180 c1 0c d1 bc ca 3d 11 3d 44 31 c8 3c 44 26 1b be
       -0.025518777 0.035459317 0.024437554 -0.15151316
000190 39 78 23 3e 15 75 45 3e 3b 7f 96 3c 78 97 2f be
       0.1596383 0.19282945 0.018371215 -0.17147624
0001a0 f0 10 0c bf 97 db a5 be 30 c5 73 3e 26 a9 35 3e
       -0.54713345 -0.32394096 0.2380569 0.17740306
0001b0 a9 7e de 3d 75 9a 5e 3d c6 c3 3b 3e df f9 0c be
       0.10864002 0.05434652 0.183364 -0.13767193
0001c0 fc e4 a3 be a7 ce 2b 3e 27 93 71 be 30 41 bc 3d
       -0.3201064 0.1677805 -0.2359129 0.09192121
0001d0 b7 96 3e 3e b6 db db 3d 65 70 fe 3d 44 5f 1f 3d
       0.1861218 0.10735266 0.12423781 0.03890921
0001e0 23 af 1c 3e 00 41 b4 be 5a 95 48 3e 80 51 71 3d
       0.15301184 -0.3520584 0.19588223 0.058915615
0001f0 73 3d 9d be ab 0f 96 3d 80 79 38 3e 9d 9a 21 3d
       -0.30710945 0.07327207 0.18015099 0.03945409
000200 24 65 36 bd 67 19 e9 3d de 02 34 3e 8e 46 78 3d
       -0.04453005 0.11381798 0.17579219 0.06061416
000210 69 a4 43 3e 68 9a 20 3d 90 cf 88 3c b8 a9 87 be
       0.19105686 0.039209753 0.016700536 -0.26496673
000220 c3 73 14 3e 79 56 a3 3d c6 ba f3 3d e7 a8 aa bd
       0.14497285 0.07975478 0.119008586 -0.08332997
000230 c9 e1 c4 3d 4f 79 80 3d 8d e6 82 bd 14 2d 2f 3e
       0.096133776 0.06273138 -0.0639163 0.1710704
000240 25 18 cd 3d 4e 76 9b be d4 ff 5b bd 2a 7e 32 3e
       0.10014371 -0.30363697 -0.053710774 0.1743094
000250 05 9c 16 3d d2 9f db bd d1 54 80 bd f2 7f 9b bd
       0.036769886 -0.10723843 -0.062661774 -0.07592763
000260 ad 87 8e 3e 68 8b ac 3d 9c d7 69 be 8a 07 86 3c
       0.27837887 0.08425027 -0.22836155 0.016361017
000270 eb 83 17 be 12 43 f1 3d 54 f9 8b 3e 0e 2b bd be
       -0.14796416 0.11780371 0.2733866 -0.3694691
000280 a5 c5 ef 3c a9 74 56 3e 55 14 72 3e 33 5b 11 be
       0.029269049 0.2094294 0.23640569 -0.14194946
000290 a4 49 7e be c7 4f 82 be c2 bc 1f 3e ad de 97 bd
       -0.24832779 -0.2545149 0.15599349 -0.07415519
0002a0 96 7f 00 3d 01 32 11 be e5 b8 c4 be eb a4 8c bd
       0.031371675 -0.14179231 -0.38422313 -0.06867393
0002b0 28 25 14 be c9 e7 52 be 0b 6e a8 3d fc 75 2d 3d
       -0.14467299 -0.20596232 0.08224114 0.042348847
0002c0 e5 62 66 be f5 e7 30 bd 52 dd cf 3d 1f 90 85 be
       -0.22498663 -0.04318996 0.101496354 -0.26086518
0002d0 42 0a 5f bd 3c 10 9d 3d f5 70 05 bf 03 65 2f 3e
       -0.054453142 0.07669112 -0.52125484 0.17128377
0002e0 56 26 20 3d c6 fd 60 3d 25 21 07 be 5d 66 a6 be
       0.03909906 0.054929517 -0.13196237 -0.32499972
0002f0 53 e2 7a bd bc ce 98 3c 6c f4 14 3e 91 66 2e be
       -0.061250996 0.018653266 0.14546365 -0.17031313
000300 9d 3d 69 3c 9d 05 c2 3e e5 c9 51 3e 52 54 4f 3e
       0.014235881 0.37894908 0.20487173 0.2024701
000310 4a 26 a0 bd ef 1f cc bd 8b 67 19 3d 86 74 28 bd
       -0.07819803 -0.09967028 0.037452262 -0.04112675
000320 f8 06 4c bd c2 0d 17 3e 71 5b 1e 3e 9b 5c b8 be
       -0.049811333 0.14751342 0.1546457 -0.36008152
000330 68 84 b5 3d c2 33 f6 3e 69 f4 dc 3d 1b ab 08 bf
       0.08863145 0.48086363 0.10788805 -0.53386086
000340 ea 9b a9 be d9 30 e2 bd 7d 40 4a 3d 9d 7d a7 3e
       -0.33126765 -0.11044473 0.049377907 0.32713023
000350 89 9f c4 bc c1 7e 7a bb 87 9c f4 3e 4d 94 93 3e
       -0.024001854 -0.0038222524 0.4777567 0.28824082
000360 b4 14 9b 3c 7b a5 98 3d 26 c1 91 bd 07 d9 ca bd
       0.01893077 0.07453438 -0.07116918 -0.09904676
000370 6e b4 04 3e 70 f1 30 3e 0f ca 8b bd 17 7e bc 3e
       0.12959453 0.17279601 -0.06825649 0.3681495
000380 17 7b 9f bd 3d 05 5b 3d 94 4e 48 be 85 6b 93 bd
       -0.077871494 0.053471792 -0.19561225 -0.07198242
000390 2f ca f3 3c 57 e2 0d 3e 6d 0d 48 3e 1c 75 f1 bd
       0.029759495 0.13855873 0.19536372 -0.11789915
0003a0 08 87 89 bd c8 14 36 bc 6b ff b3 be 5d f6 33 3e
       -0.06715208 -0.011113353 -0.35155806 0.17574449
0003b0 72 fb 90 be b9 49 48 3d 81 9e 12 3e b3 3e e2 3e
       -0.28316838 0.048898432 0.14318277 0.4418846
0003c0 a2 25 56 bc 00 50 b2 be 67 23 e9 bd 77 27 92 3d
       -0.013070496 -0.3482666 -0.113837056 0.071364336
0003d0 47 b3 1c 3e 19 be 26 be 92 dd a6 3d 5e 41 e2 3d
       0.15302764 -0.16283454 0.0814773 0.11047624
0003e0 03 cd c2 3d af 62 81 bd 26 da 0b bd a3 c0 8e 3e
       0.09511759 -0.063176505 -0.03414359 0.27881345
0003f0 f8 de 48 3e 05 49 14 3e 86 c3 91 be 91 83 d7 3e
       0.19616306 0.1448098 -0.28469485 0.42092565

layers.0.bias f4 [128]
000000 33 18 78 3e fd 1c 5b 3e 81 80 e9 3e 60 27 5a 3e
       0.24227981 0.21397777 0.45605853 0.21304083
000010 bc 42 de 3e 41 2d 8a 3d ec f1 f2 3d b8 24 6c 3e
       0.4341029 0.06746913 0.11862549 0.23060882
000020 41 df 7b 3e 9b 84 a5 be b1 93 91 3e 74 dc c9 3e
       0.24596883 -0.32327732 0.28432992 0.39426005
000030 17 14 83 3e cb 7a 88 3e 1a f2 35 3e 0e 14 36 be
       0.25601265 0.26656184 0.17768136 -0.17781088
000040 9a 2a 5e be c4 e5 3c 3b 08 d3 18 3d 2c 15 54 3d
       -0.21695939 0.0028823474 0.03731063 0.051778004
000050 a8 2d c6 3c 90 3f 98 3e f6 ff e2 3e 3b df 51 3e
       0.024191692 0.29735994 0.44335908 0.20495312
000060 a1 12 74 3e 38 88 7e 3e 4d 0e 6d 3d f0 26 9f be
       0.23835231 0.24856651 0.057874966 -0.31084394
000070 46 9b 5e bd ca 5e 52 bd 98 3d af 3c fc a4 e9 3d
       -0.0543473 -0.05135993 0.021391675 0.114084214
000080 28 cd ad 3e af 6f 98 3d e3 60 07 bc 7b 9e c6 3e
       0.33945584 0.07443177 -0.008262846 0.38792786
000090 c5 99 28 3d 2a e3 c2 3e 8e 08 ab 3e cf b2 34 be
       0.04116227 0.38063937 0.33404964 -0.17646335
0000a0 7d b6 27 3e 38 80 59 be d1 e7 b6 bd 4e 27 59 be
       0.16378208 -0.21240318 -0.08930934 -0.212064
0000b0 e8 1a 06 3e a4 00 bd 3d 5d 45 16 be 37 6c cb 3e
       0.13096201 0.09228638 -0.14674897 0.39731
0000c0 e6 c5 83 bd 1e ad f5 3e 3b 28 a2 bc 68 9a e2 bc
       -0.064342305 0.4798364 -0.019794574 -0.027661517
0000d0 d1 4a 1c 3e 99 1f 55 bc 1e 34 9c 3e eb 2c c9 3e
       0.15262915 -0.013008022 0.30508512 0.39292082
0000e0 a6 00 84 3e 42 56 ee 3b 3d 0a 90 3e 38 50 9f bd
       0.25781745 0.0072734663 0.2813281 -0.077789724
0000f0 8c b1 94 3e 72 3a 6b bd 42 e4 df bd 94 4b 67 3e
       0.29041708 -0.057428785 -0.109322086 0.22587425
000100 1f 52 ed 3e 84 1e b5 be db 05 40 3e d9 4e 3d 3e
       0.46351716 -0.35374844 0.18752234 0.18487109
000110 ea ed cf 3e 9d 66 f8 3e 60 02 2b be 90 5b 2a 3e
       0.40611202 0.48515788 -0.16700125 0.16636491
000120 b9 cb 99 3e aa 5f 63 3e 00 87 99 3e d8 eb 01 be
       0.3003824 0.22204462 0.2998581 -0.12687624
000130 1a d9 b1 bd a9 89 d8 3e 59 a9 48 3e 37 8e ab be
       -0.08683987 0.42292526 0.19595851 -0.3350694
000140 c6 30 4e 3d 36 45 fd bd 7c bd 5d 3d 82 8d ca 3e
       0.050339483 -0.123667166 0.054135785 0.39561087
000150 a2 c8 99 3e f5 1b 80 3e 14 b1 2f 3d 5f 48 36 3e
       0.30035883 0.2502133 0.042893484 0.17801045
000160 ee 68 18 3e 35 c2 97 3e e7 e3 32 3c f8 ce 32 be
       0.14883777 0.29640356 0.010918594 -0.17461765
000170 ad 30 84 3e 46 b9 ca bc 7b 4e 5e bd 2f 96 f8 3e
       0.25818387 -0.024746548 -0.054274064 0.4855208
000180 ab 44 2a 3e fb c5 9b 3e 96 d1 d2 3e 82 eb 86 be
       0.16627757 0.30424485 0.41175526 -0.26351553
000190 82 cf 9a 3e 4d 2f bc 3e a5 00 da 3e 79 d7 08 be
       0.3023644 0.36754838 0.42578617 -0.13363446
0001a0 0c 76 d1 bd 5a 67 d3 3e 01 dd 84 3e 96 a9 dd 3d
       -0.10227594 0.41289788 0.25949863 0.108233616
0001b0 27 ff d2 bd eb af e5 be 3e 55 55 3d 5b 62 a9 bd
       -0.10302573 -0.44860777 0.052083246 -0.08270713
0001c0 0a d9 63 3e fc 78 45 be b0 12 ae 3d 9c f1 31 bd
       0.22250763 -0.19284433 0.08499658 -0.043443307
0001d0 3d 57 cb 3e a4 7c bf 3e 94 24 a1 3e a6 6f a7 3e
       0.39714995 0.3739978 0.3147322 0.32702368
0001e0 e8 0f 5e be e0 ca ae bd 41 13 a3 3e 4e 6b 5e 3d
       -0.21685755 -0.08534789 0.31850627 0.054301552
0001f0 16 7e c7 3d 23 ef 8e 3e d2 c8 45 3e 9c 25 05 3e
       0.09740846 0.27916822 0.19314888 0.13002628

layers.1.weight f4 [128, 128]
000000 09 53 2f bc 75 e8 b1 bc fb fa d6 3d f2 bb 4d 3d
       -0.0107009495 -0.02171729 0.104970895 0.050228067
000010 5f 52 08 be 69 90 f8 39 ab 65 a7 3c 94 e4 57 ba
       -0.13312672 0.0004740984 0.020434221 -0.000823566
000020 6b 1a 33 3d dc e2 87 3c af 8c 39 bd 97 a3 2f bb
       0.043726366 0.016587667 -0.045300182 -0.0026800388
000030 d8 b9 c4 3d f5 8e c1 3c 04 ad f1 3b 87 f8 89 3d
       0.096057594 0.023627738 0.0073753614 0.06736856
000040 0d 70 25 bc 67 01 db 3b a1 c3 0f 3e eb 48 a4 3c
       -0.010097516 0.006683517 0.1403947 0.020054301
000050 0b 06 82 3e 30 89 bd 3d ba 6d 8d bd b2 32 84 3d
       0.25395235 0.09254682 -0.06905694 0.06454982
000060 dc 9d b9 bd ba 60 23 bd e1 f9 8b 3d d3 b4 18 bc
       -0.090633124 -0.039887168 0.0683477 -0.009320456
000070 e6 d7 ec 3d c3 cc 3b bc 8a 00 04 3e 3a d8 09 3e
       0.11564617 -0.011462393 0.1289083 0.1346139
000080 c8 bd f7 3d 64 44 d2 bc 8a 12 7e bd 16 47 8e 3d
       0.12096745 -0.025667377 -0.0620294 0.06947152
000090 b8 e1 bb bb 77 44 f9 3b 5f 51 2f bc 23 99 04 3e
       -0.005733695 0.0076070386 -0.010700553 0.12949042
0000a0 28 cf 70 bd 98 43 39 3e 0e 27 58 3d 14 6d f9 bc
       -0.05879131 0.18092191 0.05277162 -0.03044752
0000b0 54 51 92 b9 18 54 30 bd ff 5b 84 3d 58 00 64 bd
       -0.00027907884 -0.043048948 0.06462859 -0.05566439
0000c0 48 63 2b 3d ed 37 21 3d 0e 51 47 bc 94 34 23 3c
       0.04184273 0.039359976 -0.012165321 0.009961266
0000d0 20 b0 18 3d 0b a3 b3 bc 53 60 93 3c 68 91 04 bd
       0.03727734 -0.02192833 0.017990267 -0.032365233
0000e0 5f e3 10 3d 23 c8 31 bd dd 0c f8 3b b3 58 86 bd
       0.035373088 -0.043403756 0.007569893 -0.06559887
0000f0 47 cd 83 3c 97 64 99 bd a1 09 4e 3e 2c 7d c1 bc
       0.016089095 -0.07489889 0.2012086 -0.023619257
000100 33 33 af 3c 56 62 2d bd e9 bc 65 bd a0 2a 16 be
       0.021386718 -0.04233011 -0.056088362 -0.14664698
000110 a4 03 58 bd 6d 59 c0 3b 1f 21 ca 3d af 5a 22 bc
       -0.052737847 0.0058700354 0.098695986 -0.009909316
000120 83 aa a3 bd a0 4b bf 3d d9 0b 58 bd 22 37 5e 3d
       -0.07991507 0.09340596 -0.052745674 0.054251797
000130 f4 c4 28 3c 64 9c f3 3c fe b3 b3 bb 72 24 82 bb
       0.0103008635 0.029737659 -0.005484103 -0.00397163
000140 a2 2f 35 3d 1e 87 21 bd 60 e5 28 be 86 5f 65 3d
       0.04423488 -0.0394355 -0.1649375 0.0559993
000150 d1 3e b1 3c 52 4f 64 3d b5 04 f3 3c d8 a6 56 bd
       0.021636399 0.05573971 0.02966533 -0.05240521
000160 81 2e 50 bb 1e 83 ba 3d 70 97 07 3d 88 ec d9 3d
       -0.0031766 0.0910704 0.033103406 0.10640818
000170 82 23 f1 3d ef 9b 95 3d 3c c1 e5 3d 61 8e a8 bc
       0.11774351 0.073051326 0.11218497 -0.020575704
000180 60 c7 d1 3c 57 c0 4f 3d c3 d7 71 3d f6 3e 69 bd
       0.025607765 0.05072054 0.059043657 -0.05694481
000190 45 36 38 bd 11 38 f1 3c 9a 9d b6 3d 89 a9 97 3a
       -0.04497363 0.02944568 0.08916779 0.0011570911
0001a0 ff b8 27 3e 82 7c 2e 3d ca 82 a8 3c bf b7 4d 3d
       0.16379164 0.04259921 0.020570178 0.050224062
0001b0 7e 05 3e 3d e1 a1 31 bd 6d 6e 1f bc f0 71 b6 3d
       0.046391957 -0.04336727 -0.009730917 0.089084506
0001c0 8e 8c 40 bd 6b a8 ab 3c bc 6e 8d 3d 2b 4c 8b 3d
       -0.047009043 0.020954331 0.069058865 0.06801637
0001d0 7a e5 45 3d 97 f3 f2 3d 56 ee 82 bd 7f ce 06 bd
       0.04831455 0.11862867 -0.06393115 -0.032911774
0001e0 5c db 74 bd d6 a4 07 3d ee 18 fb 3c 6e 39 d4 3d
       -0.05977951 0.033116184 0.030651536 0.10362516
0001f0 b5 f8 74 3d 8f 84 60 bd fb 56 00 bb fb 57 a7 3b
       0.059807498 -0.054813918 -0.0019583094 0.0051069236
000200 a6 c2 7a bd 41 b6 53 bd 03 53 cd bc b2 58 9a bd
       -0.061220787 -0.051687483 -0.025063997 -0.075364485
000210 91 e2 5e 3d bd 98 02 3c 30 d3 ba 3d 29 de f4 3d
       0.05441529 0.007970986 0.09122312 0.11956436
000220 45 2f 8b 3d 00 65 d4 3d 0f ca f5 bc aa 6f 4d bd
       0.06796125 0.10370827 -0.030003576 -0.05015532
000230 85 f9 50 bd 4d 70 9f 3d ec 62 25 3c 6e d2 82 3c
       -0.05101921 0.077850915 0.010094386 0.015969481
000240 6a f2 d9 3c 8c 2a 77 3d 97 2b 31 be 64 c0 96 3b
       0.02660485 0.06034331 -0.17301784 0.0046005715
000250 b7 5d 87 bd 3d 9a 26 bc a2 69 c1 bd 04 7a 05 be
       -0.066096716 -0.010168609 -0.09443976 -0.13034827
000260 cc c7 36 bd a1 6b 39 bd a2 1f 05 be 9a 99 32 3e
       -0.044624135 -0.04526866 -0.13000348 0.17441407
000270 83 af 1a 3d f2 c8 0e bc bd 5b d6 bd c2 42 b3 bc
       0.037765037 -0.008714901 -0.104667164 -0.021882419
000280 06 2f c1 bd 67 4b ca 3c 3a 9a 1d 3d 1e 17 61 3d
       -0.09432797 0.024694158 0.03847716 0.054953687
000290 e1 68 89 bd 46 88 9d bd d0 23 fe bc b6 50 16 be
       -0.06709457 -0.07692008 -0.031022936 -0.14679226
0002a0 e1 74 87 bd 46 55 72 3e 9f a2 8b 3d a0 63 ca 3c
       -0.0661409 0.23665342 0.06818127 0.024705708
0002b0 a9 c4 0c 3d 35 98 89 bc 56 34 02 3e f0 34 88 3d
       0.034367237 -0.01679621 0.12715277 0.06650722
0002c0 89 66 af 3d 5e 82 3a 3e 47 dc a8 3d 5e a8 55 3c
       0.08564479 0.18213794 0.082451396 0.01304063
0002d0 a0 9b 8e 3d b9 a2 2c bd 8e 5f b2 b9 86 7a 22 3c
       0.06963277 -0.042147372 -0.00034022 0.009916907
0002e0 23 2a 72 3d 8d 27 b1 bc fa 27 57 3d 6e cb 8e bc
       0.059122216 -0.021625305 0.05252836 -0.017430987
0002f0 83 4b ca 3d 6f 61 51 3d 02 5b 5b 3e e8 7d a2 bc
       0.09877684 0.05111831 0.21421435 -0.019835427
000300 84 5a bf 3d 03 13 aa bd 06 f7 14 3d 45 7f 3b 3c
       0.09343436 -0.083044074 0.036368392 0.011443918
000310 4d 58 41 3c 61 1e 31 bd 73 3f 23 3d f7 5a 45 bd
       0.011800838 -0.043241862 0.03985543 -0.048182454
000320 f1 38 91 3b a2 a4 05 bd ad 9a 3c 3c df b8 a8 3a
       0.004431837 -0.03262771 0.011511487 0.0012872479
000330 c9 b4 b3 3d 61 63 44 3d 0d 13 8e 3d da 4d 03 bd
       0.087747164 0.047946338 0.069372274 -0.032056667
000340 7f 29 08 bc 2a b9 7c 3d 6e c7 42 3d 08 c6 38 bd
       -0.008310675 0.061700024 0.047553472 -0.045110732
000350 d1 fc 05 3e 82 30 40 bc 0a 3f 05 be 76 8d 1b 3d
       0.13084723 -0.011730315 -0.13012329 0.037976705
000360 db 8a b0 3c 37 19 73 3d 89 93 4e bd a5 a4 01 bd
       0.021550586 0.05935022 -0.05043367 -0.031651158
000370 ae 6c 36 bd 7d eb 4b 3c 36 c4 b1 3b 03 81 08 3c
       -0.04453724 0.0124462815 0.0054250015 0.00833154
000380 72 2c 14 3b c3 30 ed bd 0b f9 a2 bd 4b 4f 07 3c
       0.00226095 -0.11581566 -0.079576574 0.008258651
000390 a6 61 2b bc 53 8d dd 3c c7 87 78 3d 67 7c 30 3b
       -0.010460293 0.027044928 0.060676362 0.0026929618
0003a0 fa 64 bb 3c a2 99 89 bc d3 43 21 3d 5d c0 0c 3d
       0.022875298 -0.01679689 0.039371323 0.03436314
0003b0 73 f2 ba 3c bc 66 d5 3d be 48 41 3c 6f 0c 99 bd
       0.022820687 0.10419986 0.011797128 -0.07473075
0003c0 84 fc 72 3d a5 8d 38 bc 61 66 ab bd 04 b4 19 bc
       0.05932285 -0.011264239 -0.083691366 -0.009381298
0003d0 73 79 09 3d 0f cf d6 3c f0 af 92 3d 44 e1 73 3d
       0.03356309 0.02622178 0.07162464 0.059541002
0003e0 f8 c2 fc bd 6f ba 27 bd 30 94 46 3d 84 1c 26 3c
       -0.12341875 -0.04094928 0.048481166 0.010138635
0003f0 05 f4 00 bd 70 72 90 3d a7 31 75 3d 77 1c 14 3c
       -0.031482715 0.07053077 0.059861805 0.00903999

layers.1.bias f4 [128]
000000 6b 3a e1 3d a3 f8 11 3d a7 3a c3 3d fc e5 cf 3d
       0.109974705 0.03563751 0.095326714 0.10151288
000010 e0 3a b6 3c 2f b9 99 3d 41 8d c2 3d d2 46 3e bd
       0.02224487 0.07506024 0.09499598 -0.04645426
000020 03 5a 87 bd 8a 0d 8a bd 47 50 c6 bb bd cb 9d 3c
       -0.06608965 -0.067408636 -0.0060520503 0.019262189
000030 3b c7 b0 3d 97 2b f4 3c b7 86 b4 bc 91 0a 23 3d
       0.0863175 0.029805942 -0.022036893 0.039805
000040 ed f6 87 3d 09 55 2d 3c 8b a7 59 3d c5 19 d8 3d
       0.06638894 0.010579356 0.053138297 0.1055179
000050 28 f1 56 bd 6d 62 4b bd 4d ba 1c bd 55 7d bc 3d
       -0.05247608 -0.049654413 -0.038263608 0.09203593
000060 ac 8b ed 3c 83 00 0e 3d 72 1a 48 bd 4e bc 83 3d
       0.028997265 0.034668457 -0.048853345 0.06432401
000070 30 3f 8e bc e3 61 67 3d ef cc 6b bc 82 ac 03 bd
       -0.017364115 0.056489836 -0.014392122 -0.03214694
000080 2d 57 51 bd b4 23 07 3d 03 54 e6 3b 1c d3 75 bd
       -0.051108528 0.032993034 0.007029058 -0.060015783
000090 c2 81 96 3c b1 1e bb bc a0 6f 1e bd 84 7a 97 bd
       0.01837242 -0.022841783 -0.038680673 -0.07396415
0000a0 dd f7 ec 3c 0b 90 44 bc 0a df 03 3d b3 5a c5 bc
       0.028926784 -0.011997233 0.03219513 -0.0240911
0000b0 21 b7 47 3c a4 d7 66 bd 3d ec 26 3d 33 9c 1d bd
       0.012189657 -0.056357995 0.040752638 -0.03847904
0000c0 e6 de 7f 3d 94 a4 68 3d 9b 09 91 3d 95 95 7f bd
       0.062468432 0.05679758 0.0708191 -0.062398512
0000d0 47 43 3c 3d 7b 66 99 3c 18 0b 42 3d 5f a7 9a bd
       0.0459626 0.018725624 0.04737386 -0.07551455
0000e0 23 0e 0c bd 5f a3 6c bb 81 10 12 bc 83 04 84 bc
       -0.03419317 -0.003610812 -0.008915068 -0.016115433
0000f0 a0 a4 e6 3d c4 4c fa 3d f0 11 0f bd d7 72 5e 3d
       0.112618685 0.12221673 -0.034929216 0.05430874
000100 b1 55 cd bc e2 37 45 3d 55 73 cd bb cf e0 d3 bc
       -0.025065275 0.048148997 -0.006269852 -0.025864033
000110 6a 26 0d bd 87 6c e4 bc 84 3e 15 bd f6 63 ab bb
       -0.034460463 -0.027883781 -0.036436573 -0.005230422
000120 85 f8 1e 3d bf 28 65 bb e4 8d 07 bd a9 90 28 bd
       0.038811225 -0.0034966914 -0.0330943 -0.041153584
000130 48 fa 3e 3d 12 b1 27 3d 8a 41 2c 3d 87 db a8 3c
       0.046625406 0.04094035 0.04205469 0.020612491
000140 91 6e 7f bd 3e 2f e1 3c e4 21 c8 3d 49 3f 51 3c
       -0.062361304 0.027488347 0.09772089 0.012771436
000150 1d fc a1 bc 7b 2c b1 3d d1 88 45 bd 34 27 0a bd
       -0.019773537 0.08651062 -0.04822618 -0.033728793
000160 16 cd 42 bd 63 94 33 bc 2f 01 1c bd 7e 32 1d 3d
       -0.047558866 -0.010960671 -0.038087066 0.03837823
000170 10 f3 45 bd 37 05 77 bc d6 9e f6 bc a8 52 a3 3c
       -0.048327506 -0.015076927 -0.030105036 0.019936875
000180 be ed 1a 3d f6 c2 bf 3d b2 97 37 bc 1e 20 29 bc
       0.037824385 0.09363358 -0.011205601 -0.010322599
000190 56 6b 99 3d a8 2d 34 3d 71 a3 10 bd a4 4d 63 3d
       0.07491176 0.043988854 -0.03531212 0.055493966
0001a0 3f 70 08 3c b2 7c 23 3d a9 d8 e2 bd db e4 ae 3d
       0.008327543 0.03991384 -0.11076481 0.085397445
0001b0 47 dd 95 bd 7c ba bc 3c 04 45 42 3c 40 66 9d 3d
       -0.07317596 0.023038141 0.011857275 0.07685518
0001c0 3f 68 d1 bc 09 57 0c bd 80 af 8b 3d 11 4f c6 bc
       -0.025562404 -0.03426269 0.06820583 -0.024207624
0001d0 0f e3 21 bd 26 aa 1d bd ad cc 27 bd 26 37 ad bd
       -0.03952318 -0.038492344 -0.04096668 -0.08457784
0001e0 24 92 d9 3d d6 80 2a 3c 91 47 00 ba 91 5c 5e 3b
       0.10623577 0.010406693 -0.0004893477 0.0033929686
0001f0 d0 99 07 3d 2c 71 da 3c 5a b1 74 3d 65 e5 4e bd
       0.03310567 0.026665293 0.059739448 -0.050511736

layers.2.weight f4 [128, 128]
000000 85 04 5a 3d 31 d3 c5 3c 68 d1 c0 3d 33 af 4b 3d
       0.053226966 0.024148555 0.09414941 0.04972763
000010 88 fc f8 3c 05 96 43 3d 5a 55 80 3c cb e1 1b 3e
       0.030393854 0.04775049 0.015665699 0.15222852
000020 2d f3 73 3d 43 a2 e7 3d f0 53 86 bd 03 15 dd bd
       0.059558082 0.11310246 -0.065589786 -0.10795023
000030 75 a7 75 3d d7 33 0a 3d 82 a8 d5 bd f3 7d 1b 3d
       0.059974153 0.033740845 -0.10432531 0.03796191
000040 65 85 fd 3d f8 f4 40 bd ad ec 01 3d 0a 2b b3 bc
       0.123789586 -0.04710862 0.031719852 -0.021871109
000050 ff 41 d4 3d 73 44 12 be a5 10 95 3d 8f 1a 6d 3b
       0.1036415 -0.14283924 0.07278565 0.003617916
000060 59 cc e2 bc c8 50 f4 3c 41 43 dc bc 37 a1 18 bd
       -0.027685331 0.029823676 -0.026887538 -0.03726312
000070 5b db e0 bd fd d4 b3 3d b8 b1 97 3b 0f 00 d7 3d
       -0.10979339 0.08780859 0.00462934 0.10498058
000080 31 f4 4a bd fc 92 35 3e 84 48 86 be a4 40 7d bd
       -0.049549285 0.17731851 -0.262272 -0.061829224
000090 0a cb 82 bd 9e 85 a9 3c d6 f0 85 3d 6d f1 4c bd
       -0.06386383 0.020693596 0.065400764 -0.05003493
0000a0 38 63 84 3b 34 f3 8f bd e5 b8 e9 3d 4b f0 96 3d
       0.004040148 -0.07028809 0.11412219 0.07370051
0000b0 f5 66 a5 3d bb 1c 54 3d 56 4c 15 3e e7 cd 84 3d
       0.08076278 0.051785212 0.14579901 0.06484585
0000c0 f1 97 2b 3d 3e 9b a6 3c db 90 b6 ba e0 0e 57 3d
       0.04189295 0.020337697 -0.0013928668 0.05250442
0000d0 ab 00 13 3e 33 45 d2 3d 05 9b 28 bd 63 1c e3 3c
       0.14355724 0.10267105 -0.041163463 0.027723497
0000e0 cd b7 a8 3d 85 9c 04 be f7 6a 38 ba 00 08 30 ba
       0.08238182 -0.12950332 -0.0007034982 -0.0006715059
0000f0 94 d4 89 3d bd 5c b9 3d 80 55 7b 3c cf 4b 23 3e
       0.06729999 0.090508915 0.015340209 0.15946887
000100 8d 6a dd bc 15 40 06 bd c8 7a 2d be e3 41 9d 3d
       -0.027028346 -0.032775957 -0.16941369 0.076785825
000110 2f 06 02 3e eb a8 e8 3c 7c f3 8d 3d 7d b6 35 3d
       0.12697671 0.028400859 0.069312066 0.044363488
000120 ab 55 c9 3d dd 5b 24 3e 67 fb 79 bc 75 b8 78 3d
       0.09830793 0.16050668 -0.015257693 0.060722787
000130 ec 3d cf 3d 53 10 fe 3d 80 4d 66 bd c3 76 3d bd
       0.101192325 0.12405457 -0.056226254 -0.046255838
000140 9b 5a 85 3e 65 4a ee bd 41 2f 66 3d 8a 6a 3a 3d
       0.2604569 -0.116352834 0.05619741 0.04551176
000150 2a ff 44 3d 70 77 4a 3d 71 f2 b4 bd e1 2f f1 3c
       0.048094906 0.04943031 -0.088353045 0.029441776
000160 a7 86 1f bd a1 83 07 3e ba 11 cf 3d b9 2c bc 3d
       -0.038946774 0.13233806 0.10110803 0.09188218
000170 91 60 de ba 19 12 92 bc e5 24 11 ba 34 4b 48 bd
       -0.0016966035 -0.017830895 -0.0005536809 -0.048899844
000180 8c 64 c0 3d 70 c5 85 3d 64 88 cc 3d 1f 67 0e 3d
       0.09394178 0.06531799 0.09986952 0.034766313
000190 4f 66 40 bd 32 15 38 bd 5c 65 72 3d d1 47 bb 3d
       -0.04697257 -0.04494209 0.059178695 0.09144557
0001a0 24 98 63 bc e4 4d 09 3d d6 9a 4d 3d e1 c6 4c bd
       -0.013891254 0.033521548 0.05019649 -0.049994353
0001b0 80 70 0b 3d 41 f0 33 3e 12 74 99 3d 39 26 1c be
       0.034042835 0.17572118 0.07492842 -0.15248956
0001c0 bb d3 cc 38 74 84 8d 3d 1c e2 12 3e 65 3f 93 3d
       9.766916e-05 0.06910029 0.14344066 0.07189826
0001d0 f3 f3 85 bc 76 b6 c4 3c da 91 63 3d 26 fa 33 3e
       -0.016351676 0.024012785 0.055559017 0.17575893
0001e0 c0 33 20 3d 93 7b 0e 3c c0 dd c7 3c 23 42 5a bc
       0.039111853 0.008696455 0.02439773 -0.013321432
0001f0 dd ec ec 3d dc d1 e0 3c f8 cb 8f ba 69 fc 0f bd
       0.115686156 0.027443819 -0.0010970822 -0.035152826
000200 36 b1 45 3d fe de 9a bd 1f ef 15 bc 15 1f df bd
       0.048264705 -0.07562064 -0.009151249 -0.108946
000210 6d cf cd 3d 26 db c6 3d 05 4a f0 3c 14 68 2e bd
       0.10049329 0.09709768 0.02933217 -0.042579725
000220 9f d5 8c be 54 7c ca 3c fa 4b 8d bd ba 6b 46 3e
       -0.2750673 0.024717487 -0.06899257 0.19377032
000230 a6 10 8d bc ea e6 ab bd 06 26 50 3e cb 94 27 be
       -0.017219853 -0.08393653 0.20327005 -0.16365354
000240 b1 6d a5 bd a8 1c 4e bc d5 41 0a 3e 76 3d 88 bd
       -0.080775626 -0.012580074 0.13501675 -0.06652348
000250 58 d8 ce 3d a1 d1 40 bb f0 2f 9b bd 31 6a 01 bd
       0.10099858 -0.0029421824 -0.07577503 -0.031595413
000260 69 db 29 be 80 f9 3f 3d d2 40 03 bd fe a8 db 3c
       -0.16587605 0.0468688 -0.03204424 0.02681398
000270 a3 10 71 bd a0 4b 0e bc 9e bc 27 3d 0e c8 9e 3c
       -0.058853757 -0.008685023 0.040951364 0.019382503
000280 7c 2f a6 3a 9d 4d 7f be dd 86 cc bd 95 81 08 3e
       0.0012678946 -0.24931951 -0.09986661 0.13330682
000290 5b 9e 01 3d ad 2e c5 39 2b 4a b2 bd e1 5f 41 bd
       0.03164516 0.00037609544 -0.08705553 -0.047210578
0002a0 04 9b 3a bd a1 10 c8 3d 2e 3d f8 3d ea d9 86 bd
       -0.04555799 0.09768797 0.12121044 -0.065845326
0002b0 94 68 b8 3d cb 53 0e 3d 78 55 90 bd a2 c0 11 be
       0.09004322 0.03474788 -0.07047552 -0.1423364
0002c0 73 68 46 be d4 f4 8b 3d b2 37 97 bb 40 43 f7 3c
       -0.19375782 0.06833807 -0.0046147937 0.030183434
0002d0 91 64 62 be da 2e 82 3d bb b9 f9 3c 07 58 c5 bc
       -0.22108676 0.063565925 0.030484071 -0.024089826
0002e0 97 b2 e3 3c fb 65 83 3c 1a ff 85 3c 43 dc 31 bc
       0.02779512 0.016039839 0.016356993 -0.010855737
0002f0 30 60 fc bc 8e 15 ca 3d a4 0c 0d be fe 07 23 be
       -0.030807585 0.098673925 -0.13774353 -0.15921018
000300 71 35 8e bd e8 62 89 3d 30 54 dd bb 69 93 12 be
       -0.06943787 0.06708318 -0.0067544207 -0.14314045
000310 e7 19 c6 bb 30 03 a7 bb 3d e9 a9 bd a5 09 ae 3d
       -0.0060455683 -0.0050968155 -0.0829644 0.08497933
000320 64 96 dd bc a5 a7 45 bc 2d 80 4f 3e a3 dc 02 3d
       -0.02704925 -0.012063895 0.20263739 0.031948697
000330 b7 57 56 3d 98 92 35 3d f3 51 f9 3c 9f 95 dd 3d
       0.052329745 0.044329256 0.030434584 0.108195536
000340 43 6e 02 3d 75 21 95 3d f2 27 7b 3e 19 ed 1e 3e
       0.031843435 0.07281772 0.24526957 0.15520133
000350 68 ea 6d 3d b6 44 00 be 6a 0c 74 3d d8 15 fe bd
       0.058084875 -0.12526211 0.05958215 -0.1240651
000360 f5 76 5b 3d 15 19 54 bc fe 66 94 3c 34 a9 e9 bc
       0.053580243 -0.012945433 0.018115517 -0.028523065
000370 20 5d f2 bd b2 4c 90 bd 71 2d 65 3e 48 59 7e bc
       -0.118341684 -0.070458785 0.22380616 -0.015524216
000380 2f a5 cb bd 33 aa 48 bd ce 07 34 bc fb ec bb bd
       -0.09943616 -0.04899044 -0.010988189 -0.0917606
000390 63 8c 63 bd 0d b9 22 3e 3a 13 b9 3c 7a 1a cd 3d
       -0.055553805 0.15890904 0.022592176 0.10014816
0003a0 c6 dd fc 3d 2c 23 c9 bd 25 ae 3e 3d 83 7e e4 3d
       0.123469874 -0.09821162 0.046552796 0.11156943
0003b0 72 fc f3 bd bd 47 59 be ea 04 48 3d 29 a0 d9 3d
       -0.119133845 -0.21218772 0.04883281 0.10626251
0003c0 f3 b0 2b 3d 27 b6 df 3d de 7f fb bd e4 4d c4 3d
       0.0419168 0.10923415 -0.12280248 0.09585169
0003d0 28 ee ef 3d cd 8c 6b 3d ef d8 e7 bd 96 cc 6c be
       0.117153466 0.057507325 -0.11320674 -0.23124918
0003e0 d8 a7 07 be 57 04 cf 3a 4d e1 01 3e 9c 80 f1 3d
       -0.13247621 0.001579414 0.12683602 0.117921084
0003f0 9b 4f fb 3d 8d 19 34 3d 0a ea 32 bc 35 4c c5 3d
       0.12271043 0.04396968 -0.010920057 0.09633676

layers.2.bias f4 [128]
000000 e2 8c 12 bd 86 a7 9a 3d 60 c3 b5 bd e1 15 95 3d
       -0.035778888 0.07551484 -0.088751554 0.07279564
000010 b5 20 8f bd 6f fa ec 3d d6 a9 a6 3d 28 0f dc bb
       -0.0698866 0.11571204 0.081378624 -0.006715674
000020 8e 61 87 3d 90 b5 ad bd 86 50 12 bd 0f d6 42 bc
       0.06610404 -0.08481896 -0.035721324 -0.011891856
000030 05 d2 b4 bd d7 1a ae bd 11 96 7b bd f1 be 2b 3d
       -0.088291205 -0.08501213 -0.06142241 0.041930143
000040 cd 35 84 bc b5 d0 a8 3d 25 1a 2d bd b8 d2 c6 bd
       -0.016138935 0.08242933 -0.04226126 -0.0970816
000050 d9 f1 e8 3c f5 ce f8 bc 59 cd b2 3d 80 2b bc 3b
       0.028435634 -0.030372122 0.08730573 0.0057424903
000060 11 10 a2 bd 5b c8 9d 3d e4 08 ea bd bf 7d 26 3d
       -0.07913221 0.077042304 -0.11427477 0.040647265
000070 3b 22 a6 bb 09 9e ea 3c 76 61 b2 bc 52 c0 d9 3c
       -0.0050699986 0.02863981 -0.021774989 0.026580963
000080 ea b8 13 3d 21 c8 9b 3d ed 57 a5 bd 87 77 b9 3c
       0.03606502 0.07606531 -0.08073411 0.022640003
000090 d1 e4 86 bd 78 c8 21 bc f9 06 11 3e c2 77 b7 3c
       -0.06586612 -0.009874456 0.14162816 0.022395972
0000a0 ee 58 c2 3c ab 04 1d bd 11 fa 8a 3d 24 6f 12 bd
       0.023724046 -0.03833453 0.06785978 -0.035750523
0000b0 e6 09 32 3d e8 72 cd 3d 03 a7 5c 3d 81 99 1f 3d
       0.04346647 0.10031682 0.053870212 0.038964752
0000c0 5c 83 75 3b c4 aa 83 bc 63 72 87 3c a7 52 e6 bd
       0.003746233 -0.016072638 0.016534036 -0.112462334
0000d0 2f 11 9e 3d 8a 2c 1e 3e 39 70 6d bd 5e 23 ed 3c
       0.07718121 0.15446678 -0.057968352 0.028947528
0000e0 d9 32 e5 3d 37 bd 8e 3d 77 c7 03 bc 62 18 8d 3d
       0.11191339 0.069696836 -0.008043162 0.06889416
0000f0 ce b4 5f 3d 13 92 82 3d ff d0 9f bc 32 e7 68 bd
       0.05461579 0.06375518 -0.019508837 -0.05686111
000100 fd 82 51 ba 5e 22 0a bd 9e 9a 38 3c d4 ec 4f ba
       -0.0007992236 -0.03372418 0.011267332 -0.00079317135
000110 7c b6 6f 3b 31 4c 3f bd 29 0d 49 3d cd 24 50 bd
       0.0036577275 -0.04670352 0.049084816 -0.050816346
000120 3f 94 82 bb a0 55 f3 3c 11 b9 84 bb d7 55 b8 3d
       -0.0039849575 0.029703915 -0.004050382 0.09000748
000130 b8 b1 98 3d 09 8d 0b bd 58 9e 3b 3d 14 77 a1 3d
       0.07455772 -0.03407005 0.045805305 0.078840405
000140 62 ec 10 bb 3b 77 32 3c 97 ee 2b 3d a4 5d e0 bc
       -0.0022113551 0.010892685 0.041975584 -0.027388401
000150 d0 2f 41 3d 16 81 4c bd 1b f4 1b 3e 1d 2e 59 bc
       0.04716474 -0.049927793 0.15229838 -0.013255623
000160 db 38 1f bd 36 8c f4 3b 1a 13 e5 3d 90 34 29 3d
       -0.03887258 0.0074630035 0.11185284 0.041309893
000170 6a 05 43 bd 52 1b a5 3d 6b 9d ca 3c c9 0e 93 3c
       -0.047612585 0.080618516 0.024733266 0.017951386
000180 aa 21 99 bc 8f 6e 97 3d 2f b9 28 3d c0 88 7a 3d
       -0.01869281 0.07394134 0.04119223 0.06116557
000190 1e 5d 0b bc 8d 77 53 bd 31 d9 13 bd 7a 2d 83 bd
       -0.008506088 -0.051627684 -0.0360958 -0.06405158
0001a0 63 75 8b 3d fc 75 9e 3d a0 6c cd 3d 53 f6 94 3c
       0.06809499 0.077373475 0.10030484 0.018183863
0001b0 c2 5a c8 3d b7 c8 30 3d b1 c6 6c 3d 1a 51 c7 bb
       0.09782936 0.043160167 0.057806674 -0.006082666
0001c0 32 ff e5 3c c7 50 87 3d f1 a0 b6 3c 1f e0 81 3c
       0.028075788 0.06607204 0.02229354 0.01585394
0001d0 97 88 26 3c ce 5f 9f 3d 09 87 b1 3d 60 f4 89 3d
       0.0101644015 0.07781945 0.08668334 0.06736064
0001e0 a2 cb e2 3c 8c 76 95 3c 3f 80 03 bd c1 09 90 3d
       0.02768499 0.018245004 -0.032104727 0.070331104
0001f0 95 0f b6 bd 15 83 07 3d 60 8b 7a bd 98 d5 ec 3d
       -0.08889691 0.033083994 -0.061168075 0.11564177

layers.3.weight f4 [1, 128]
000000 c2 93 2c be e0 9a 40 3e 96 5c 1e b9 e6 4f 52 be
       -0.1685324 0.1880908 -0.00015102545 -0.20538291
000010 c6 14 67 3e 25 26 52 be 24 97 8d be 62 03 81 3e
       0.22566518 -0.20522363 -0.27654374 0.25197893
000020 e7 54 2d 3e 72 98 2c 3e 9e e3 8a bd 8d 30 87 be
       0.16926919 0.16855028 -0.06781696 -0.2640423
000030 02 37 a6 bd 8b a4 32 3e 6a e1 69 be 57 95 6e 3e
       -0.08115961 0.1744558 -0.22839895 0.23299156
000040 c7 ee 23 3e c9 07 7e be 91 1c 8a be d6 ee 29 3e
       0.16009055 -0.24807657 -0.2697492 0.16595015
000050 07 42 c4 3d b7 87 af bd 53 8d 23 3e 49 f4 53 be
       0.09582906 -0.085708074 0.1597188 -0.20698656
000060 e2 cf 00 3e 93 d1 22 3e 48 f5 3e be 4b 78 19 be
       0.12579301 0.15900259 -0.18648255 -0.14987294
000070 3a 88 8b be bb b6 02 3e c2 ad 63 be 58 ab 27 3e
       -0.2725237 0.12765019 -0.22234252 0.16373956
000080 e0 02 2b 3e d2 02 76 3e 64 f4 1e 3e 1a 7d 9f 3d
       0.16700315 0.24024513 0.15522915 0.07787533
000090 e8 8e 54 be 04 5f 3b 3e 71 e4 c0 3d 62 55 17 3e
       -0.2075764 0.18297964 0.09418572 0.14778665
0000a0 d0 9a 10 3e 6a 77 18 3e 36 56 9a be e7 3b 57 3e
       0.14121556 0.14889303 -0.301439 0.21018945
0000b0 00 86 07 39 db 68 86 be 88 6e 7f be c2 31 68 be
       0.00012924522 -0.26251873 -0.24944508 -0.22675231
0000c0 87 63 6a 3e 62 45 81 3e 5a 14 67 bd fe 86 9a be
       0.22889529 0.25248247 -0.056415893 -0.30181116
0000d0 71 4a 93 be af 08 df 3d d1 69 4a be 69 64 30 3e
       -0.28767732 0.10890328 -0.19766928 0.17225803
0000e0 8d 48 0f be 4a 4b f3 bd 87 17 56 3e 19 d0 5a be
       -0.1399252 -0.118795946 0.20907412 -0.21368445
0000f0 61 4c 1d 3e d6 59 f5 3d 16 e0 f6 3d 68 ad c5 3d
       0.15361167 0.119800255 0.1205446 0.09652215
000100 cb 81 52 be 0a 1a 9a be 75 25 e4 3d b6 e1 09 3e
       -0.20557325 -0.3009799 0.11139957 0.13465008
000110 49 fd 5d 3e 88 2c 0e 3d c7 ac 29 3e 1f 81 2a 3e
       0.21678652 0.034710437 0.16569816 0.16650818
000120 72 78 2b 3e 54 04 8b be 8c 06 09 3e 79 64 3b 3e
       0.16745165 -0.2715174 0.13381404 0.18300046
000130 e4 a4 13 3e 92 d9 58 3e 6c 6d 1a 3e 96 19 5b be
       0.1441837 0.21176746 0.15080804 -0.21396479
000140 8b 8c 34 3e b5 02 2d be 9a 8f 4f be 5b 93 7b be
       0.17631738 -0.16895564 -0.20269623 -0.2456793
000150 5b ab 52 be 6a a9 7b be 18 2f 2a 3e 05 0a 13 3e
       -0.2057318 -0.24576345 0.16619527 0.14359291
000160 61 e3 10 3e 07 2e 21 3e 5a 51 85 be b6 13 6a be
       0.14149238 0.15740214 -0.2603863 -0.22859082
000170 ba ce ad be dc 48 7c be 27 09 2e be ac a1 5e 3e
       -0.33946782 -0.24637169 -0.16995679 0.2174136
000180 05 bf 0e 3e 81 5d 71 be ce da 46 3e 7e 1f 44 be
       0.13940056 -0.23570825 0.19419405 -0.19152638
000190 89 db 21 3e f7 ba 9b 3d e6 82 c5 3c 41 88 31 3e
       0.15806402 0.0760402 0.024110269 0.17337133
0001a0 b9 3e 68 be da d1 23 be 61 1f 78 be fc 86 c3 3d
       -0.22680177 -0.15998021 -0.2423072 0.095472306
0001b0 65 e5 40 be ee 95 28 3e 2b 7d 6b be 38 ca ea 3d
       -0.18837507 0.16463444 -0.22996967 0.114643514
0001c0 28 d4 ce 3d da 14 75 be 6e 47 09 3e 70 27 62 be
       0.10099059 -0.23933735 0.13406155 -0.22085357
0001d0 ed 76 30 be 63 36 23 3e bc d0 5c be 8f 90 06 3e
       -0.17232867 0.15938716 -0.21564001 0.13141082
0001e0 52 ed 24 3e 34 58 37 be ae 90 dd 3c 7c 6e 80 be
       0.16106156 -0.1790474 0.027046528 -0.25084293
0001f0 3d 04 05 3e cd 77 86 be f0 ec ff 3d 62 fd 60 be
       0.12989898 -0.26263276 0.12496364 -0.21971658
