trained_models/G_0_psid.pth (torch_old, 146757 bytes, 8 tensors)

layers.0.weight f4 [128, 13]
000000 fd 75 15 3e 2b e0 19 be 26 bb 63 be cf e8 6f be
       0.1459579 -0.1502692 -0.2223936 -0.23428653
000010 00 60 fa bd c5 86 76 3e cd a0 17 be 15 7a 6c 3e
       -0.12225342 0.24074848 -0.14807434 0.23093446
000020 97 9c 86 bb 10 ea 4d 3e 11 a4 dc bd 52 d7 8b be
       -0.0041080224 0.20108819 -0.10773481 -0.27312714
000030 72 09 7c be 63 7a fd bd 82 b2 98 3e b7 b8 0e bd
       -0.24612978 -0.12376859 0.2982369 -0.034844127
000040 da 4a 87 bd 3d 77 06 3e d9 e1 86 bd b3 fd e1 bd
       -0.06606074 0.13131423 -0.06586046 -0.110347174
000050 00 d3 77 be 54 29 05 bd 92 5e 26 be 86 d2 7b be
       -0.24201584 -0.032510117 -0.16247013 -0.24592027
000060 36 b9 81 3d 2c 3e 51 3d 46 63 b2 3d db d2 a6 3e
       0.06334154 0.051084682 0.08710341 0.32582745
000070 4b 80 a3 3e 17 0e 0e be a4 11 5c 3e ed f3 7f be
       0.31933817 -0.13872562 0.21491104 -0.24995394
000080 09 c6 56 3d 73 8a 9f be ab fd 62 3e 3c 35 5f be
       0.052434955 -0.31160316 0.22167079 -0.21797651
000090 a0 6f 99 bd 58 28 13 be ce f8 e0 3d 8a a3 42 3d
       -0.07491994 -0.14370859 0.10984956 0.047519244
0000a0 d9 6a 89 3e 86 60 1e be 9d 53 4b be 7d 56 04 3c
       0.2683933 -0.15466508 -0.19856115 0.008077261
0000b0 ea 38 7f be 2f f2 37 3d f9 fb 2a 3e 2f f8 37 be
       -0.24924055 0.0449087 0.16697682 -0.17965768
0000c0 a3 4d 9e be 0c 5c a8 be 38 ef 59 3e 75 2d a0 bd
       -0.30918607 -0.32882726 0.21282661 -0.0782117
0000d0 c7 63 df bd 13 10 05 3e f0 cd 91 3e d1 86 9d 3e
       -0.10907703 0.12994413 0.2847743 0.3076692
0000e0 83 7b 4f 3e 2f b1 89 3e 0a 7e 23 be a1 1b 02 3e
       0.2026196 0.26892993 -0.15966049 0.12705852
0000f0 0d 15 51 be 90 82 9b be 63 39 8e bd f3 c8 b9 3d
       -0.20418186 -0.3037305 -0.069445394 0.09071531
000100 d2 d3 cc bd 0c 65 a9 bd 39 6b 67 be bf 12 77 be
       -0.10001339 -0.08271226 -0.22599496 -0.24128245
000110 6e 21 b5 bd aa 77 1e 3d 44 23 d5 3d 75 c6 fd 3d
       -0.08844267 0.03868834 0.10407117 0.12391368
000120 92 c0 97 3e 80 b8 cd 3d 4f ea 4f 3e 2a 1f 06 be
       0.29639107 0.10044956 0.20304225 -0.13097826
000130 98 9c 65 be 34 8b 98 be e7 bf 8d be 0d 6a 2d be
       -0.22423017 -0.29793704 -0.27685472 -0.16934986
000140 da 2b e0 3d a4 7f c7 bd f3 c5 95 bd f3 08 80 3d
       0.10945864 -0.097411424 -0.073131464 0.06251707
000150 9d b8 ba bd d9 c5 7a 3e 17 d0 82 be fe 51 26 3d
       -0.091172434 0.24489535 -0.25549385 0.040605538
000160 e7 66 de 3d e0 ad 80 be d6 35 0e be b4 d3 89 3e
       0.10859471 -0.25132656 -0.13887724 0.2691933
000170 d7 2a 85 be 9a 6c 1c be 44 cd ec 3d f3 cc 65 3e
       -0.26009247 -0.15275803 0.11562589 0.22441463
000180 66 db 9f 3e f6 bc 03 3e 6f 0c 16 be b9 23 29 be
       0.31222075 0.12865052 -0.1465318 -0.16517533
000190 81 30 9c 3e 01 7a 24 3d 7a c8 94 3e b8 52 f2 bc
       0.30505756 0.040155414 0.290592 -0.029580459
0001a0 e8 8d c4 3d f4 0d 2e be 7f 6b 04 be c4 aa 58 3e
       0.09597379 -0.1699751 -0.12931632 0.21158892
0001b0 7c b2 4c 3e c3 4c 0c 3e 50 d1 7a bd 81 c5 31 bd
       0.19989961 0.13701157 -0.061234772 -0.043401245
0001c0 68 d3 2f bd d3 9e 41 be d8 1d 11 3e 7a d4 88 3d
       -0.042926222 -0.18908243 0.1417154 0.06681152
0001d0 f5 27 90 3e 7a d0 ab 3e e0 b9 4e bd e8 df b4 be
       0.28155485 0.33557492 -0.050470233 -0.35327077
0001e0 af 37 73 3d ba 78 2a bd 6d 13 88 be df 67 34 be
       0.059379276 -0.04161904 -0.2657732 -0.17617749
0001f0 e9 72 56 be 38 f1 21 be fe 66 f9 3d 33 6e 77 be
       -0.20942272 -0.15814674 0.12177847 -0.24163131
000200 08 7a 62 3d 3d 31 de bc 0f 2b 37 be 51 9d 23 be
       0.05529216 -0.027123088 -0.1788752 -0.1597798
000210 1c 52 13 3d 8b 6f 43 be 96 72 e2 3d 07 2b 31 bd
       0.035966977 -0.19085519 0.11057012 -0.043253925
000220 f6 32 71 be 5a ef 8a 3e fc 55 dc 3d e9 04 1f bb
       -0.23554596 0.27135736 0.10758588 -0.0024264401
000230 37 d7 6b be d1 df 0c be 8d 7f 08 bc 94 2e f7 3d
       -0.23031317 -0.13757254 -0.008331192 0.12069431
000240 f3 dc 16 be 6d 85 8d 3e b4 88 d1 3d 52 5f 38 3e
       -0.14732723 0.27640858 0.10231152 0.18005112
000250 cd a0 42 be 5e eb 5a 3d 31 b9 c8 3d 7e e9 e7 3d
       -0.19006653 0.05344712 0.098009475 0.11323832
000260 de 29 ac be 90 c8 4f 3d 22 76 e2 bb c8 ba 5a 3d
       -0.33625692 0.05072838 -0.006911055 0.053400785
000270 ac 60 8c be 54 e9 26 3e ce cc 69 3e 5d e5 78 3d
       -0.27417505 0.16299945 0.22832033 0.060765613
000280 ae 1f 1b 3e 8d 16 3b 3d 85 31 59 be 40 8f 1d 3e
       0.15148804 0.045675803 -0.21210296 0.15386677
000290 f0 01 0b be cc e9 76 be 14 f4 0e 3e 78 a1 85 3e
       -0.13574958 -0.24112624 0.13960296 0.26099753
0002a0 a0 84 89 be fa 47 ea bd a4 be 9e 3e dd c2 90 3e
       -0.26858997 -0.1143951 0.31004822 0.2827367
0002b0 75 05 7a be a4 0b 82 3e 31 c8 a4 3d a4 77 c6 3c
       -0.24416144 0.25399506 0.08045996 0.024226971
0002c0 f1 ca 38 3e 25 b3 75 3d 55 8b 97 be b8 11 83 3e
       0.18046166 0.0599853 -0.2959849 0.25599456
0002d0 84 f8 b2 3e c6 ee 69 3d 76 5e e6 3d c4 64 73 3d
       0.34955227 0.057112478 0.11248486 0.05942227
0002e0 86 2f b9 be 3a 45 09 be c5 bc 4e bd 0a 83 29 be
       -0.3616907 -0.13405314 -0.050472993 -0.16553894
0002f0 c5 eb 29 be e9 86 45 3d ea 5e 73 bd fb 3c e9 bd
       -0.16593845 0.048224363 -0.05941669 -0.11388584
000300 c6 99 4f bd 7c 02 d4 bc 84 33 b0 bc ae 8b 60 3e
       -0.05068376 -0.02588009 -0.02150894 0.21928284
000310 21 90 f0 bd 20 46 92 be 9a c4 6f be ee d1 9f 3e
       -0.117462404 -0.28569126 -0.23414841 0.3121485
000320 1a 8c 22 bd 2e 94 d9 bd 29 43 61 3d db 6d 6b bc
       -0.039684393 -0.10623966 0.05499569 -0.014369453
000330 14 4b b2 bd 45 d4 1d be 8d 16 ee 3d 6e 73 91 3e
       -0.08705726 -0.15413006 0.11625395 0.28408378
000340 d4 59 0e 3e 01 9a 93 bc f0 f7 77 be 6b e5 12 be
       0.13901454 -0.01801777 -0.24215674 -0.14345329
000350 dc 10 08 3e 1b ee 89 3e ff c4 c9 3d 82 4d 52 be
       0.13287681 0.26939473 0.09852027 -0.2053738
000360 63 cf 94 3e fd 1c 64 3e 54 15 9c bd 77 08 47 be
       0.29064474 0.22276683 -0.076212555 -0.19436823
000370 ca 84 4e be d1 6e 02 be c2 49 f1 bd ce dd 7a bd
       -0.20167843 -0.12737586 -0.11781646 -0.061246686
000380 eb 6d 49 3d 82 cd d2 3d 2b 4d 87 3e 73 49 27 be
       0.04917709 0.10293104 0.26426062 -0.16336612
000390 9e e7 db bd 50 f7 90 3e ec 21 a5 3d b5 f5 44 be
       -0.10737537 0.28313684 0.08063111 -0.19234355
0003a0 04 00 37 bd 14 96 65 bb 07 7a 4f be 08 bb 6f 3e
       -0.04467775 -0.003503208 -0.20261393 0.2341119
0003b0 42 0d fa bd 8a 0e 2b 3d 28 91 fa bc 50 bd 05 3d
       -0.1220956 0.041761912 -0.030586794 0.032651246
0003c0 0a ee 7f be 50 cf f1 3a 12 cf 3c bd 9c 14 41 bc
       -0.24993148 0.0018448625 -0.046095915 -0.011784699
0003d0 3e 48 45 be 3b 4b 8c bd cd 10 d6 bc 44 66 10 3e
       -0.1926584 -0.068502866 -0.026131058 0.14101511
0003e0 25 2b 9f be 7e 6b 03 be ba 67 4d bc 73 37 5b 3d
       -0.31087604 -0.12833974 -0.012536937 0.053519677
0003f0 2a a5 99 3d bd 81 96 be 9d 7d 7c 3e 47 93 6a bc
       0.07502206 -0.29395857 0.24657293 -0.01431734

layers.0.bias f4 [128]
000000 21 93 af 3b 1b b5 99 3e 58 99 b7 bd 15 37 3b 3d
       0.0053581153 0.30020985 -0.08964795 0.045706827
000010 54 70 f4 bd be 51 df 3d 98 59 93 3e 6a f7 e1 3d
       -0.119354874 0.10904263 0.28779292 0.110335186
000020 32 6a 38 be eb 8a db bc 01 62 d2 3d 07 15 64 3e
       -0.1800926 -0.02679964 0.10272599 0.22273646
000030 42 1d 05 be 69 26 3f be 9b c4 96 3d 48 15 ed 3d
       -0.12999442 -0.18666996 0.07361718 0.11576325
000040 22 23 1a 3e 07 c7 35 bd 17 a1 f1 3d 5c 1d 53 bd
       0.15052465 -0.04437926 0.117983036 -0.05154167
000050 ba 2c 00 3e cc c3 3e be de ec 5d bd 97 36 e2 3d
       0.12517062 -0.18629378 -0.054180972 0.110455684
000060 52 6c 82 3e 03 fa 1f bc cc 42 26 3e 39 aa 3f 3e
       0.25473267 -0.009764197 0.16236418 0.18717279
000070 0c 82 a7 3d 25 8e d7 3d 28 2d 88 3e d0 d0 d8 bd
       0.08179101 0.10525159 0.2659695 -0.10586703
000080 9a ae f9 bd ba 73 a2 3d 56 3a 4d be 9d 2f 08 3e
       -0.12191506 0.07932229 -0.20041785 0.13299413
000090 d6 5a ac bd 64 6b 84 3e ac 65 22 3e 79 63 80 3d
       -0.08415763 0.25863183 0.15859097 0.06268973
0000a0 73 f6 b2 3d aa 87 2d bc f0 cb 8a 3e c1 2c e5 bc
       0.08738413 -0.010591427 0.27108717 -0.027975442
0000b0 b0 d7 60 bd 42 80 86 3e 5b 28 0e 3e 6d b4 71 be
       -0.054893196 0.26269728 0.13882582 -0.23603983
0000c0 6d f4 0f be c3 60 b9 3d fe d9 54 3a 82 20 3f 3e
       -0.14058085 0.09051659 0.00081196416 0.18664744
0000d0 81 48 85 3c ef 67 d1 bc f6 35 d2 3d 52 c0 9d bd
       0.016269924 -0.025562255 0.102641985 -0.07702698
0000e0 ff ab 17 be 7b 57 73 3c 2c de 1a be ac e8 08 3e
       -0.14811705 0.0148524 -0.15123814 0.13370007
0000f0 76 a0 c8 3d b8 c2 b5 3d 08 f2 54 3e 36 3c 90 3e
       0.097962305 0.0887503 0.20795453 0.28170937
000100 dc 26 30 3d f4 22 c6 3d 82 6d 8d 3d 73 8b 82 bd
       0.04300581 0.096746355 0.069056526 -0.06374254
000110 d2 f9 08 be e8 e9 1b be ba 98 ee 3c a4 62 b9 3c
       -0.13376549 -0.15225947 0.02912556 0.022630043
000120 3b 03 09 3e 8b f5 81 3e 46 3a a9 bd 48 89 6d 3d
       0.13380139 0.25382647 -0.08263068 0.05799225
000130 b8 46 37 be 6b 98 da bd a9 05 8e 3e 4e 78 28 be
       -0.17898071 -0.10673603 0.27738693 -0.16452143
000140 16 e3 b9 3d 56 7c 60 be a6 0b fc 3d d7 9a 16 3c
       0.09076516 -0.2192243 0.12306909 0.00919219
000150 48 3b 4e 3e 05 02 b6 3d 29 f5 cb 3b 57 9c 82 3e
       0.20139802 0.08887104 0.0062242937 0.25509903
000160 ca 19 17 be 19 59 08 be 31 73 87 3e 69 9e e3 3d
       -0.14755931 -0.13315238 0.26455072 0.11114199
000170 7c 4a f9 3d 11 5f a5 bd 78 fc 13 be ca 65 6f bc
       0.1217241 -0.08074773 -0.14451778 -0.014611671
000180 be 76 c2 bc af f8 93 bd 87 dc 81 bd 5f 43 bd bd
       -0.023738261 -0.07225167 -0.063408904 -0.09241366
000190 2f d6 3a be 73 85 d6 bd d3 ec 10 be d8 5a 3d 3d
       -0.18245767 -0.10474672 -0.14152841 0.046229213
0001a0 5f 2b 5c 3e f6 b7 58 3e 01 d6 d3 3d b9 1d 6f 3d
       0.2150092 0.21163926 0.103435524 0.058377955
0001b0 62 13 98 3c 5e 32 16 bb 06 d2 01 be 2e bc 8c 3e
       0.01856393 -0.0022918205 -0.12677774 0.2748732
0001c0 88 f4 78 3c f1 4c 7a 3e 3e 75 27 be 8b f9 29 be
       0.01519502 0.24443413 -0.16353318 -0.165991
0001d0 02 9d c4 bd f8 4f 3b 3e 7d d9 4f be 03 e6 92 3e
       -0.09600259 0.18292224 -0.20297809 0.2869111
0001e0 c4 8b 39 3d f2 16 70 bd ab 7d a6 3e bc f0 80 3d
       0.045299307 -0.058615632 0.32517752 0.062959164
0001f0 ed 32 02 3d cb 19 34 3e a5 14 9d 3e 74 55 17 3e
       0.031786848 0.17587964 0.30679813 0.14778692

layers.1.weight f4 [128, 128]
000000 ee 5d 5e bd 85 db 2c 3c ca 19 4f 3d 2d a5 f2 bc
       -0.054288797 0.010550384 0.050561704 -0.029619778
000010 cb eb 09 bd d4 d2 2e bd 46 63 d5 bc 07 a6 12 3b
       -0.033672135 -0.04268153 -0.026048314 0.0022376792
000020 43 12 6f bc dc d9 66 bd b8 34 fd 3c 9a 53 0e bd
       -0.014591756 -0.05636011 0.030908927 -0.034747697
000030 8a cb 0f 3e 14 58 fb 3c ac e3 fd 3b de 92 03 3d
       0.14042488 0.030681647 0.007748088 0.032122485
000040 fa 04 74 bd 7a 16 9f 3d 4b d0 08 bd cf 73 e8 bd
       -0.05957506 0.07767959 -0.03340177 -0.11350214
000050 e2 47 94 3c c3 13 b8 3d 5c 22 6a 3d ad 8b 54 bd
       0.018100683 0.08988144 0.057161674 -0.051891018
000060 c2 58 b7 bd 1d bb 2e 3d 52 27 e0 bd 71 00 c9 3c
       -0.08952476 0.042658914 -0.10945 0.024536343
000070 44 b1 ed 3c 16 9c cf 3d ec 48 f5 3d 49 90 22 bd
       0.02901519 0.10137193 0.11976799 -0.039688382
000080 f5 e7 ff 3c 42 85 40 3d c7 12 80 3d 02 51 f2 3b
       0.031238535 0.047002085 0.062535815 0.007394911
000090 5d a7 24 bd 39 e8 5d 3d e3 7a d5 3d fd 00 91 3c
       -0.040198673 0.054176543 0.104238294 0.017700667
0000a0 f7 37 85 3d 7f 93 8c bd 34 05 08 3a 68 10 91 bd
       0.06504815 -0.0686407 0.00051887636 -0.07083207
0000b0 b9 17 97 3d c1 91 81 bb 39 bc f8 3c c2 54 b4 3d
       0.073775716 -0.003954143 0.030363189 0.08805229
0000c0 ae 55 09 3d 61 2d 47 3d bd be df 3c 1b 71 1d 3d
       0.033528976 0.04862726 0.02731263 0.038437944
0000d0 6e 2c 0a bd a7 32 a7 bd e6 7e 4d 3c df 9c 83 3c
       -0.033733778 -0.08163958 0.012542462 0.016066013
0000e0 a8 d6 f3 bd 53 a7 4d 3d 14 73 b6 3d b7 dc 3d bd
       -0.11906177 0.0502084 0.08908668 -0.04635307
0000f0 96 ab 25 3e ff c5 36 3c 6c 45 89 bd 79 14 79 bd
       0.16178736 0.011155604 -0.06702694 -0.06081054
000100 d7 ce 89 bd 52 e1 fb 3c 8d 6a 1b 3e 52 37 be 3d
       -0.06728905 0.03074709 0.15177365 0.09287895
000110 b4 8e a2 bd 66 aa 45 3d e2 83 84 3c ad 7e f0 bc
       -0.07937375 0.048258208 0.016176168 -0.029357279
000120 86 84 13 bd ae d3 66 3d 99 2f fe 3c a1 9a 5f bd
       -0.036015056 0.056354217 0.031028556 -0.054590825
000130 b9 6e b1 3d e2 66 02 3e 90 51 ca bd 72 7b ba 3c
       0.08663697 0.12734559 -0.09878838 0.022763941
000140 fe 02 3c 3d 1a 47 98 3d 30 6d 77 3d b1 d3 f5 3d
       0.04590129 0.074354365 0.060406864 0.120032676
000150 6b 53 de 3d 5f d5 7f 3d c6 25 0d bc d6 62 a2 3b
       0.108557545 0.062459346 -0.008614963 0.00495563
000160 51 79 d7 3d 7a 8c 91 3d e9 62 50 3b ef 2a 1f bd
       0.10521186 0.07106872 0.0031797236 -0.038859304
000170 16 aa 70 3c c3 94 92 bc f0 4f 4a bc bf fd 08 bd
       0.014688989 -0.0178932 -0.01234816 -0.033445116
000180 76 a6 97 3d 89 59 26 3e da d4 b9 3b b2 60 9c 3d
       0.07404797 0.16245092 0.005671126 0.07635631
000190 4f 02 5a bd 75 81 36 bd 45 5c 59 3c 91 c3 e6 bc
       -0.053224858 -0.044557054 0.013266628 -0.028169425
0001a0 f3 a7 ae bc 2c 8e 44 bd 6c fb 61 bd 52 91 bc 3d
       -0.021320319 -0.04798715 -0.055171415 0.09207405
0001b0 93 ff 10 ba 77 22 6a 3d 3c 19 cf bd 29 fa da bc
       -0.00055312476 0.057161774 -0.10112235 -0.026730614
0001c0 18 36 b6 bd 44 f8 9d 3d 5d 67 15 3d 20 72 0e 3d
       -0.08897036 0.077133685 0.036475528 0.034776807
0001d0 35 38 e3 3d 6c 69 1b 3d 4c 32 92 3d 52 a4 f1 3a
       0.11094705 0.037942335 0.071384996 0.0018435812
0001e0 b9 5e 58 3d 52 ad 84 3d 69 c9 a1 3b e0 34 95 bd
       0.05282471 0.06478371 0.00493734 -0.07285476
0001f0 8b 7d 10 3e 16 ad aa bd 8a 1e f2 3c 03 92 67 bd
       0.14110391 -0.08333795 0.029555578 -0.056535732
000200 1f aa f0 3d 99 db a0 3b 8d 8e c8 bb c7 77 db 3c
       0.11751198 0.0049089906 -0.006120509 0.026790513
000210 01 63 de bd 1b de b7 bb 0b a6 e6 3d 98 be 37 bc
       -0.10858727 -0.005611194 0.11262139 -0.011214875
000220 51 42 8f bd 77 65 08 3e f1 23 2f bd 61 be 00 bd
       -0.06995071 0.13319956 -0.042758886 -0.03143156
000230 a8 06 c8 bd 82 ef e5 bd 38 6a aa 3d e0 21 b8 3c
       -0.097668946 -0.11227323 0.08321041 0.02247709
000240 60 6a 04 3e 72 8a 30 3d aa 9b b0 3d 18 d0 0d bc
       0.12931204 0.04310078 0.086234406 -0.00865557
000250 84 94 91 3d 17 51 a8 bd 3c 20 37 3d 5b fa 52 bd
       0.07108405 -0.08218592 0.044708475 -0.05150829
000260 da 17 85 3c 11 79 1b 3d ac 8f ad 3d ed 13 23 3d
       0.016246725 0.037957255 0.08474669 0.039813925
000270 6d 45 4d 3d 18 5c 02 be 8e ee 3a 3d 01 52 53 bb
       0.050115038 -0.12730443 0.04563766 -0.0032244923
000280 33 18 36 bd 10 72 73 3d e2 fb de ba c0 23 17 3d
       -0.044456672 0.05943495 -0.0017012323 0.03689933
000290 3d 3a 95 3d df f1 7b 3d d7 df 42 bd 91 d5 ad bd
       0.07286499 0.061509963 -0.04757675 -0.08488
0002a0 51 ba 04 3e b6 85 46 3d 16 3b 03 bd 3f 91 8c bd
       0.12961699 0.04846736 -0.03203877 -0.06863641
0002b0 ff 2f 3f bc 6d 64 00 3e 3c 5d 76 bc 90 4b db 3d
       -0.011669158 0.1253831 -0.015036877 0.10707772
0002c0 3d 8d 98 bd 37 14 03 3d 26 c9 99 bb 30 31 a4 3d
       -0.07448814 0.0320017 -0.004693168 0.08017194
0002d0 36 5f 2a 3d fa d3 7d bd 80 ed d9 bc 5c ed 1b 3e
       0.041594706 -0.061969735 -0.026602507 0.15227264
0002e0 23 7b dd 3d 59 0d bc 3d 84 0b 65 bc 59 3f 34 3d
       0.10814502 0.09182233 -0.013979796 0.044005726
0002f0 6d 89 50 bc 59 c8 06 3d f3 df 07 3e 26 24 1b bd
       -0.012728077 0.03290591 0.13269024 -0.03787627
000300 be cc ac 3d 2d cc 77 3d f6 f8 37 3c fc cf 94 bd
       0.08437489 0.06049745 0.0112287905 -0.07266232
000310 3a 94 94 3d 94 63 b7 3d 2c ff b0 bd 69 8f 86 bd
       0.072548345 0.0895454 -0.0864242 -0.06570322
000320 5e 8b 9e bc e2 a2 98 bc d8 0b a7 bd 8f 04 d5 3b
       -0.019353565 -0.018632356 -0.08156556 0.0065007876
000330 98 50 33 bd d0 96 83 3d 1d ed 93 3c 51 fd d5 3d
       -0.043778032 0.064252496 0.0180574 0.10448707
000340 c5 e5 d5 3c 02 f6 9e bd 71 bf bc 3c fa d4 0d 3c
       0.02611054 -0.07761766 0.023040505 0.008656735
000350 00 63 28 3d b5 57 57 bb 56 80 02 be 34 1e fa 3d
       0.04111004 -0.0032858674 -0.12744269 0.12212792
000360 ed 32 dc 3a 3c bb fc bd 8e a0 5d 3b a7 d7 34 bd
       0.0016799845 -0.123403996 0.0033817622 -0.044150975
000370 24 19 c8 3d 08 13 6d bb 0f db 63 bd 10 b1 84 3c
       0.0977042 -0.0036174674 -0.055628832 0.016197711
000380 f2 91 81 3d 2d c6 4f bd 5c 69 fe 3d 5b 3b fd 3d
       0.06326665 -0.050726105 0.124224395 0.12364837
000390 70 1c 43 3c fb 4f 26 bd 37 ac 9b 3d 90 b6 91 3b
       0.0119086355 -0.04060362 0.07601207 0.004446812
0003a0 a3 f2 81 3c 9d df 62 bd cb 5d fd bb 5b 9b e3 3d
       0.015862769 -0.055389035 -0.0077321283 0.11113616
0003b0 83 4c 12 3e 89 86 13 be 7b a3 e0 3c 1a 36 7e bd
       0.14287 -0.1440679 0.027421704 -0.062063314
0003c0 ad ca f6 3d 01 8f 27 3d 5f 16 46 bd 88 95 95 3c
       0.12050376 0.040907864 -0.04836118 0.018259779
0003d0 9d be df bc 90 0e 72 bd 7a a6 50 bd 9f e6 90 bc
       -0.027312571 -0.05909592 -0.050940014 -0.017688094
0003e0 6c ed b1 3d c7 8a 9e bc 9a c3 85 3c 60 b8 4e bd
       0.08687863 -0.019353284 0.016328622 -0.050468802
0003f0 1f 8e fa 3c a1 b7 d5 bc b3 0b 4a bd fa 3d 26 3c
       0.030585347 -0.026088538 -0.049327563 0.010146612

layers.1.bias f4 [128]
000000 ad 16 db 3d 50 c6 9d bc d0 ed c2 3d 0f da 3f bd
       0.106976844 -0.019259602 0.095180154 -0.046838816
000010 42 c3 b4 bc 38 4a 88 3d e2 f0 f2 3d 97 5a 3d bd
       -0.022065762 0.06654781 0.11862351 -0.04622897
000020 1b bc 52 bb 35 ae a9 bd b6 fa d7 3c 05 48 a7 39
       -0.0032155577 -0.082851805 0.026364665 0.0003190638
000030 cf 87 e3 3c b6 3c 0a 3d e3 1b 6d bd 4a 67 62 3c
       0.02777472 0.033749305 -0.057887923 0.013818571
000040 97 23 07 bd c1 c7 b8 3d 08 fb 3c bd 4a c6 92 bc
       -0.032992925 0.09022475 -0.04613784 -0.017916817
000050 62 94 b3 3d bf 71 ca bc 22 18 8b 3d f9 46 37 3d
       0.08768536 -0.024712441 0.06791712 0.04474542
000060 eb 1c f4 3c 72 52 10 3c 71 60 41 3d 62 d3 a0 3d
       0.029798945 0.008808719 0.047211114 0.07852818
000070 73 88 57 bd d8 fd 0c bd d5 ed 89 3d 92 d0 44 bc
       -0.052620362 -0.03442177 0.06734816 -0.012012618
000080 b0 e5 90 3d 24 84 86 bb 05 6a 93 3d 2c cd 23 bd
       0.070750594 -0.004105108 0.07197956 -0.03999059
000090 58 bd 56 3b 6d e2 b1 3d 9e 5c fb 3c da 6c 51 bd
       0.0032766666 0.086857654 0.030683812 -0.0511292
0000a0 5b 5d 2c 3b d6 75 65 3c 27 e2 45 3d 2c 67 75 3d
       0.0026300761 0.014005145 0.04831138 0.059912845
0000b0 d0 32 53 bd fc 8e 7d bc 01 5f 2f bd 77 5a 08 bd
       -0.05156213 -0.015475985 -0.042815212 -0.0332894
0000c0 f1 f5 02 bb ae 83 80 3c 26 a0 8f 3d 9a 1b a7 bd
       -0.0019983018 0.01568779 0.07012968 -0.081595615
0000d0 73 67 7d 3d 32 50 3c 3d f4 8b e0 3d 61 b0 1e 3d
       0.061866235 0.045974918 0.10964194 0.038742427
0000e0 02 f4 7e 3d 4f 34 ba bd ae a8 72 3d 26 1e 68 3d
       0.062244423 -0.09092008 0.059242897 0.056669377
0000f0 e5 c4 5b bd 38 80 00 bc 04 d6 c0 bc cc 86 ab 3d
       -0.05365457 -0.00784307 -0.02353955 0.0837532
000100 3d 5d 03 3d 5a 98 5a 3d e7 6c 4f bc b1 74 2a bc
       0.03207134 0.05336795 -0.012660242 -0.010403798
000110 ee 9d d0 3d 2e 61 b2 3d a6 c6 26 bb b1 aa 40 bd
       0.10186373 0.08709942 -0.0025447994 -0.047037784
000120 bf 72 57 bd 8c 20 ce 3d d7 5c 8f 3d c4 ea 78 bc
       -0.052599665 0.100648016 0.0700013 -0.015192691
000130 28 1e 63 3d ff 3a 1b 3d 42 e2 96 3c 90 9c 8e 3d
       0.05544868 0.03789806 0.018418435 0.06963456
000140 54 66 8f bc 91 ef 6c 3c f6 77 a1 bd 4c d5 68 bd
       -0.017504849 0.014461414 -0.07884209 -0.05684404
000150 5a ed 1d 3d 7c f8 86 3c 1e ab a2 3d f1 96 92 3d
       0.038556434 0.016475908 0.07942794 0.07157696
000160 5c ab 81 3d 18 44 44 3d 87 e1 e2 ba 25 e0 32 bd
       0.06331512 0.0479165 -0.0017309644 -0.043670792
000170 10 5f 34 bc 12 34 8b bc 4b 2f de 3d e6 58 db 3d
       -0.011008993 -0.016992602 0.10848864 0.107103154
000180 25 0d 60 3d a0 7c cc 3d 8e 65 6b bd da 61 ee bb
       0.054700036 0.09984708 -0.057469897 -0.0072748484
000190 70 68 cc 3d 23 50 27 bd 7e b3 bf 3d b6 92 9f bc
       0.09980857 -0.04084791 0.09360407 -0.019479137
0001a0 08 67 ea bc 6f a6 9d 3d d7 2e 4c bd 93 6e 33 3c
       -0.028613582 0.0769776 -0.049849357 0.010951656
0001b0 48 cb 44 bd fa 59 84 3c 12 c2 9d bd cc f7 b7 3c
       -0.048045427 0.016156185 -0.077030316 0.022457026
0001c0 00 14 2c 3d 3c bc 2b bd 46 24 25 bd 74 0c 51 3d
       0.04201126 -0.04192756 -0.040317796 0.051037267
0001d0 26 00 11 3d 41 7f 1a bc cc cc 54 3d e7 fa 7d 3b
       0.035400532 -0.009429754 0.051953122 0.0038754286
0001e0 7a 1b d5 3d ed 48 c9 bb 9e 85 f7 3c 70 c6 ab bc
       0.10405631 -0.0061427266 0.03021508 -0.020968646
0001f0 1d 82 fe 3d 4a 77 5d bd 59 9e f4 3b 47 30 36 bd
       0.12427161 -0.05406884 0.0074651656 -0.044479635

layers.2.weight f4 [128, 128]
000000 2c 40 c8 3d dc f7 44 bc 46 55 8c 3c a2 a2 d5 3d
       0.09777865 -0.012021985 0.017130505 0.1043141
000010 1b c6 e7 3d 90 52 f5 3c b4 4f b1 bd 73 f4 44 3d
       0.113170825 0.029946595 -0.0865778 0.048084687
000020 bc 89 5b 3d 1c c8 2d 3d 17 eb 76 bd e8 36 63 3d
       0.05359815 0.042427167 -0.060282793 0.055472285
000030 22 40 08 bd 00 d8 29 bd 7e 95 a4 bc ca 91 34 3d
       -0.033264287 -0.04146576 -0.020090815 0.044084348
000040 04 06 b6 3d eb 5c cc 3d 3f b7 ba bd ac 98 34 bd
       0.08887866 0.0997866 -0.09116983 -0.04409091
000050 e8 06 3e 3d f2 64 ab bd 68 4c 04 3d f9 2c 83 3d
       0.046393305 -0.08368863 0.03229943 0.06405062
000060 ab 94 f8 bd 05 77 35 3b 22 e3 18 3c e1 9b 16 bd
       -0.12137731 0.002768935 0.009331496 -0.03676975
000070 b4 98 a6 bd 73 32 7d 3d 1d c3 38 bd 62 6b b8 3d
       -0.081345946 0.06181569 -0.04510795 0.09004857
000080 c3 55 86 bd e0 70 e2 3d 78 f1 07 3d 1f 8e d9 bd
       -0.065593265 0.110566854 0.033189267 -0.106228106
000090 9b 0a 39 3d 9c d2 85 bd 39 39 cd 3d fc 10 60 bb
       0.04517613 -0.06534311 0.1002068 -0.003418981
0000a0 c0 12 7f 3d f9 2d a9 3d 2a 71 91 3d c7 3a f7 3c
       0.06227374 0.08260722 0.071016625 0.030179394
0000b0 19 1a 20 bd d4 14 8a 3d 18 3b 20 bd 25 db c9 bc
       -0.03908739 0.06742254 -0.039118856 -0.024640629
0000c0 11 65 17 3d ce 81 a8 bc c5 80 4d bd df e1 3f bd
       0.03696162 -0.020569708 -0.050171632 -0.046846267
0000d0 c7 4e 72 bc 99 7b 26 bd 48 0d de bd ca bc 82 bd
       -0.01478929 -0.040645216 -0.10842377 -0.06383665
0000e0 2d 42 b5 bd 21 36 f1 3d 71 e6 3f 3d 34 7e e0 3b
       -0.08850513 0.117779024 0.046850625 0.006850982
0000f0 ea 83 d4 3c 75 12 96 3d 94 fb 98 3d 60 0e fb bc
       0.025941808 0.07327739 0.0746986 -0.030646503
000100 ba c0 36 bd fb 81 bd 3d f4 fd 51 3d 5d a2 24 bd
       -0.044617392 0.092533074 0.05126758 -0.040193904
000110 0c 9a a9 bc aa ff c9 bc 02 72 dd bc 92 d1 a7 bb
       -0.020703338 -0.024658043 -0.027031902 -0.0051214183
000120 e7 53 b5 3d 52 77 1e 3d 97 5b f4 3d 5f 11 d0 bd
       0.08853894 0.03868801 0.11931532 -0.10159563
000130 02 c0 e3 3d b0 f4 a8 bd 0c 12 88 3b 41 ec ca bd
       0.11120607 -0.082497954 0.004152542 -0.09908343
000140 51 94 d9 bc b1 8c 80 bd ad 38 7d 3d 73 3f 56 3d
       -0.02655998 -0.06276835 0.06182163 0.052306604
000150 b6 ab b5 bd c3 b8 19 3c 45 9a 12 bc ab e3 3a bb
       -0.08870642 0.0093824295 -0.008947914 -0.0028517048
000160 88 5b 22 bd f8 28 65 bd 31 c6 96 bd a2 1e 03 3e
       -0.039638072 -0.055947274 -0.07362021 0.12804654
000170 32 04 d9 3c 4a 4b 42 bd 8c ff 15 3d b6 22 c9 3d
       0.026491258 -0.047435082 0.03662066 0.09821074
000180 5d 58 91 3c e4 71 b7 3c 11 76 8b bc 51 2c f4 bc
       0.01774233 0.022393174 -0.017024072 -0.029806288
000190 18 6a 5c 3d a8 87 00 be 88 60 b8 3d c7 64 05 bd
       0.053812116 -0.12551749 0.09002787 -0.032566812
0001a0 22 e6 c9 3c a8 bb 41 bd dd 64 ef bd 09 3d 96 bd
       0.024645869 -0.047298104 -0.1168916 -0.0733586
0001b0 51 3f 95 bd d7 5d 3d 3c 46 37 05 3d 39 e1 a2 bd
       -0.07287467 0.011558018 0.032523416 -0.07953114
0001c0 34 da e2 3d 2e c6 28 bd a4 87 33 bd f3 2f a7 bc
       0.11076775 -0.041204624 -0.04383053 -0.020408606
0001d0 a8 f7 d9 3c dd 70 b5 3d 68 3f b4 bc 1b 35 8d 3d
       0.02660735 0.088594176 -0.02200289 0.06894895
0001e0 a0 99 e4 bd b3 b8 7c bd 50 3a 52 3c 92 96 54 3d
       -0.11162114 -0.06169958 0.012831286 0.051901408
0001f0 35 1a 7f 3d cd 36 03 3d b7 51 14 3d 71 34 87 bd
       0.062280852 0.032034684 0.03621074 -0.06601799
000200 7b f3 5b bd d2 d2 02 3d 3b e1 10 bd 6a 6c 8d 3d
       -0.053698998 0.031939335 -0.035371047 0.06905444
000210 26 e7 87 bd 98 97 6d 3c 89 88 c0 bd 83 e0 80 3d
       -0.06635885 0.014501475 -0.09401042 0.06292822
000220 fd 64 ab bd 70 d5 90 bc b5 a1 22 bd cf 19 ac bc
       -0.08368871 -0.0176799 -0.039704997 -0.0210084
000230 aa db 84 bd 3e 73 2e 3d ef f5 e2 bc 2a 0a 02 bc
       -0.0648721 0.042590372 -0.02770516 -0.007936994
000240 5c 37 b2 bd fc b9 d3 bc 76 55 a2 bd 0d 5d a3 bd
       -0.08701965 -0.02584552 -0.07926457 -0.079767324
000250 f7 59 9a 3c 79 30 95 3d be 85 0d 3c da cf b6 bd
       0.018841727 0.07284636 0.008637844 -0.08926363
000260 8d 98 79 bd b6 fc ce 3c 14 95 0c 3d c7 3f 75 bd
       -0.0609365 0.025266986 0.03432186 -0.059875276
000270 04 0a c9 bd 86 16 91 bc 1d 43 36 bd 41 71 75 bd
       -0.098163635 -0.017710935 -0.044497598 -0.05992246
000280 04 13 56 ba 6c 9a 8b 3d 90 31 37 bc b8 6f 3d 3d
       -0.00081662857 0.06816563 -0.01118125 0.04624912
000290 47 76 53 3d d7 33 56 bd dd b3 04 bd 2c 8b ee bc
       0.05162647 -0.052295532 -0.032398093 -0.029119097
0002a0 ef 06 77 3d b8 28 9c 3c bd 4a fe ba dc 5f 6e bc
       0.060309347 0.019062385 -0.0019400936 -0.014549222
0002b0 ce ce 64 bc 51 1b c3 ba 6f 7b a1 3d be 6d a1 bd
       -0.013965322 -0.001488546 0.07884871 -0.0788226
0002c0 1b 17 86 3d c9 44 56 3d bb 80 b4 bd 92 0d 87 3d
       0.06547376 0.052311692 -0.08813616 0.06594385
0002d0 6a 26 a3 bd d7 c8 24 3d 01 60 c1 bc 93 55 9e bd
       -0.07966311 0.0402306 -0.023605349 -0.07731166
0002e0 0b ad c9 bb 12 51 ee bb 7b 3e 2e bd 38 6f 47 3d
       -0.0061546615 -0.007272848 -0.042540055 0.04869005
0002f0 84 13 5b 3d 04 ca bd bb 4e 7d 48 bc a1 eb 89 bd
       0.05348541 -0.0057919044 -0.012236906 -0.06734396
000300 84 5c 0a 3c 4d 8c 62 bd 8b 05 69 3d 3c 2e 17 bc
       0.008444909 -0.055309583 0.05689005 -0.009227332
000310 3a 24 01 3d 4f 41 65 bd f9 82 96 3d 10 40 c9 bb
       0.03152869 -0.055970486 0.073492 -0.00614167
000320 ec a4 20 bd b7 a9 c8 3c f5 4d 06 bc 5f 0a 4a bc
       -0.03921978 0.024494989 -0.008197297 -0.012331574
000330 2b e1 93 3d 1e b4 9c bd 59 5d 8d 3d b6 ed f5 3c
       0.07220682 -0.07651542 0.0690257 0.030020576
000340 a4 98 d4 3b ee f1 41 bd bf 98 40 bd 3f 70 07 3d
       0.0064879227 -0.047349863 -0.04702067 0.03306603
000350 b6 36 3b bd c4 4e 88 bc db a2 a7 bd 85 4d d5 3c
       -0.045706473 -0.01663912 -0.08185359 0.02603794
000360 34 ef 92 bd d6 40 06 3d 8a 48 44 3d 0a 7c bd bd
       -0.071745306 0.032776676 0.04792074 -0.09252174
000370 72 07 74 bd c5 46 5b 3d 28 a3 c4 3c 81 ed 94 bd
       -0.059577413 0.053534288 0.02400358 -0.07271863
000380 a3 46 a0 bd fb 55 83 bc 6a 80 b0 bd 00 56 5e 3d
       -0.07825973 -0.01603221 -0.08618243 0.054281235
000390 1b ae f0 3c d4 9c 27 3d dc 82 28 bd 45 da 0d bc
       0.029379895 0.040921047 -0.041140422 -0.008657997
0003a0 d5 ac 8e 3d a4 89 11 3d 92 c6 49 3d 78 0e 0c 3d
       0.06966559 0.035531655 0.049261637 0.034193486
0003b0 66 68 61 bd ec c2 eb 3c 57 74 9b bd 22 c8 aa bd
       -0.055031203 0.02877947 -0.075905494 -0.083389536
0003c0 d3 d5 0e bd 32 11 54 bd 06 c4 28 3d 79 63 71 bd
       -0.034871887 -0.05177421 0.041202568 -0.058932755
0003d0 b1 5b 18 bd 7b fc 84 3d d8 ca e8 3c 6c d7 19 3d
       -0.03719682 0.06493469 0.028417036 0.037558958
0003e0 38 29 52 3d a2 9a 80 3d 5f e3 6c bd 41 ab 80 bd
       0.05130884 0.06279494 -0.057834025 -0.06282664
0003f0 1d 48 86 3d 01 db f3 3b b5 b9 c0 bd f3 49 58 bc
       0.06556723 0.007441879 -0.09410421 -0.013201225

layers.2.bias f4 [128]
000000 d1 4d 5a bd 81 38 02 3d 3e 8d c2 bd 51 ab 9b bd
       -0.053296868 0.031792168 -0.09499596 -0.076010354
000010 b8 ad a1 3d ca e1 14 3c 74 1f 17 3c 8c 56 d1 3d
       0.07894462 0.009087035 0.009223808 0.10221586
000020 35 ee 88 3d d0 6d 4f 3d bf 92 2f 3c db 76 3e bd
       0.066860594 0.050641835 0.010716139 -0.04650007
000030 01 97 2e 3d 57 6a ba 3d 8d 7c 9c bd ae 34 b2 3c
       0.042624477 0.09102314 -0.07640944 0.021753635
000040 d4 60 ed 3c 86 d4 f0 3c 97 9c 15 bc d4 a7 12 3d
       0.028976835 0.029398214 -0.009131572 0.035804585
000050 13 e4 d0 3d c7 70 30 bd 25 00 80 bc b7 08 fa 3c
       0.10199752 -0.043076303 -0.015625069 0.030521734
000060 70 ef 45 3d d9 2a 8a bc 52 ca 4d bd 73 3a 0e 3d
       0.04832405 -0.016866134 -0.050241776 0.03472371
000070 73 66 af 3c c2 87 3d 3d 9d b0 4b bd e8 bd 64 3d
       0.021411156 0.046272047 -0.04972898 0.05584517
000080 7b 34 c8 bb 3c 70 7d 3d 41 87 dd 3c f4 03 52 ba
       -0.006109772 0.061874613 0.027042033 -0.00080114533
000090 47 0a ab bd 1d 18 ba 3c b7 48 c1 bb 0d 28 9d 3d
       -0.083515696 0.022716576 -0.005898561 0.07673655
0000a0 62 f8 b9 bd 07 05 fa bc e5 f2 39 bd ce 56 32 3d
       -0.090805784 -0.030519975 -0.045397658 0.043539815
0000b0 bd c0 cc bc 7c 4b 93 bd 9e e4 94 bd 1e 2e a5 3d
       -0.024994249 -0.07192132 -0.07270168 0.08065437
0000c0 9d 99 8c 3d 8f 6a 29 3d 32 e5 04 bd 58 b8 9e 3d
       0.06865237 0.041361388 -0.03244514 0.077500045
0000d0 22 10 fa bc 3e cb b5 3d 07 b5 c7 3c 34 d2 8c 3d
       -0.03052527 0.08876656 0.024378313 0.068760306
0000e0 36 c8 41 3b e5 3e 45 bd 8c 07 ce bc 7d 54 e2 3c
       0.0029568798 -0.048155684 -0.025150083 0.027628178
0000f0 2f 4f 8c 3d ea 65 84 bc 1c 8c 0c bd c1 11 83 3c
       0.068510406 -0.016161878 -0.034313306 0.015999677
000100 e6 03 dd 3c 23 e7 b6 3d 88 b4 be 3d 94 38 90 bd
       0.026979398 0.089308046 0.09311777 -0.070420414
000110 52 bd 8b bd 5a 7f 96 3d a6 b8 a6 bd 92 6f 9b 3d
       -0.06823219 0.07348509 -0.08140688 0.0758964
000120 f3 2f ca 3c e8 0e 94 bd e8 84 a6 3c 17 05 91 3d
       0.024681067 -0.07229406 0.020327047 0.07081049
000130 fb f3 bc 3d cc ce a2 bd 79 b1 9c bc 28 f9 62 3d
       0.09226223 -0.079495996 -0.019127594 0.055413395
000140 63 1c 0f bd 49 ed ec 3c f9 9b 98 3d 03 e7 a6 3c
       -0.03493918 0.02892174 0.074516244 0.020373827
000150 aa 9d 5d 3c 85 b8 21 3d 49 84 b2 3d db 82 4f bd
       0.01352636 0.039482612 0.08716638 -0.050661903
000160 07 a9 2f 3d ec 55 84 3d 04 17 74 bd 11 55 53 bd
       0.042885806 0.06461701 -0.059592262 -0.051594798
000170 f1 11 a2 bc e6 03 e7 bb a9 01 65 3d d6 38 e5 bc
       -0.019783946 -0.0070500253 0.055909786 -0.027981203
000180 23 23 8a 3d f9 7c a2 3d 1d f9 23 3c 82 69 c6 3c
       0.06744983 0.07933993 0.010008124 0.024220232
000190 24 33 66 3c fd 72 8f bd 12 5b cb 3d 45 f0 99 3d
       0.014050279 -0.07004354 0.0992948 0.07516531
0001a0 20 82 b7 3c d4 ba d4 3d ea 49 c0 3c 59 b3 f7 3c
       0.022400916 0.10387197 0.023472745 0.030236887
0001b0 04 ef 85 3d 9c 7b 60 ba 44 7e ff 3c 91 56 02 3e
       0.06539729 -0.0008563341 0.031188138 0.12728335
0001c0 6e bc 9b 3d 1e 3e 96 3d ab d5 2c 3d 9a c9 ba 3c
       0.076042995 0.07336067 0.042195957 0.02280121
0001d0 f5 af 80 3d b2 a6 70 bb 87 1b c2 3d d6 37 9a 3d
       0.06283561 -0.0036720452 0.09477907 0.07530181
0001e0 37 e2 b2 3d 15 5c ac bc ac 94 ad bc 20 a8 96 3c
       0.08734553 -0.021040002 -0.021189056 0.018390715
0001f0 8f 2f 76 bd 09 18 56 bd 81 3b 67 3d 81 10 ea 3c
       -0.06010395 -0.052269015 0.05645323 0.028572323

layers.3.weight f4 [12, 128]
000000 37 c0 02 3e 8c d6 3d bc 74 b7 eb 3d 71 96 02 3e
       0.12768637 -0.0115867965 0.115096 0.12752701
000010 8e b6 8d 3c e9 1d ad 3d e7 7e 0d 3d e7 77 a2 bd
       0.017298963 0.084529705 0.03454485 -0.07933026
000020 83 6f ff 3d d9 43 93 bd a8 b8 4d bd 1b 3c 56 bd
       0.12472441 -0.07190675 -0.05022493 -0.052303415
000030 b3 d1 ab bd b5 71 88 bc e0 bf a9 3c 47 2a 5b bd
       -0.08389606 -0.016655782 0.020721376 -0.053507116
000040 c6 60 9f 3d 7d 4c 5e 3d da 9a c2 bd 71 db bb 3d
       0.0778213 0.054272164 -0.09502192 0.091727145
000050 ad a5 9e bd 2e 15 3b 3d f8 0e be bd da 4c d9 3c
       -0.07746444 0.045674495 -0.09280199 0.026525903
000060 7f d3 48 bd fe bf 6d 3a c6 24 67 3d 1d 9d a3 bd
       -0.049029823 0.00090694416 0.056431554 -0.07988951
000070 66 05 a6 3d c6 b1 f0 bc 42 6d 95 3d 34 33 ba bd
       0.081064984 -0.029381644 0.0729623 -0.090917975
000080 7c 40 03 3e 5e 72 80 bd 05 21 28 3b da 7d bc bd
       0.12817568 -0.06271814 0.0025654447 -0.09203692
000090 4f e4 ac 3d 98 52 8a 3d 96 f0 8a 3d 2a c4 ac 3d
       0.08441984 0.06754035 0.067841694 0.08435853
0000a0 76 2d 1a 3d 21 80 9d bc 19 1f 25 3c 16 99 d7 3c
       0.03764101 -0.019226136 0.010078215 0.026318114
0000b0 3b ea 7d bb ac 18 20 3d a4 06 4a 3b 17 5c ee bc
       -0.0038744349 0.03908603 0.0030826712 -0.029096646
0000c0 04 db 9d 3d c4 76 aa 3d 97 b2 00 3e d4 05 d7 3d
       0.077077895 0.08323434 0.12568127 0.104991585
0000d0 b7 68 e3 3c c7 98 50 3d 6d ec e3 3c f9 ed 17 3d
       0.027759893 0.05092695 0.027822698 0.037092183
0000e0 8f 93 2e 3d 98 71 95 3d 37 c0 9e bb 66 e8 56 3d
       0.04262119 0.07297057 -0.004844691 0.052467726
0000f0 b6 8c d0 3c 23 67 ba bb 49 59 44 3d ec be 78 3c
       0.025457721 -0.0056885644 0.04793671 0.015182238
000100 77 c2 3c bc 1b ee 99 ba 4b 11 d6 bd 3e 49 71 bd
       -0.011520973 -0.0011743935 -0.10452517 -0.05890774
000110 5e 9f af 3d c2 63 ab 3c 80 5b e7 bb 08 99 4f bd
       0.08575319 0.020921592 -0.007060468 -0.05068305
000120 1f 73 2c 3d f1 85 ba bd 90 9f 47 bd 00 ef a3 3d
       0.042101976 -0.091075785 -0.048736155 0.0800457
000130 ca 64 76 bd e4 52 7e 3d 62 7d 4a bd f2 68 68 bb
       -0.060154714 0.06209077 -0.04943598 -0.0035462943
000140 e2 80 8a bd c7 15 9c 3d 3b c3 8c bd 14 7f a9 3d
       -0.06762864 0.07621341 -0.06873175 0.08276191
000150 1b 74 a2 bd 63 de 19 3d 06 7d ab bd 64 68 3c bd
       -0.079323016 0.0375656 -0.08373456 -0.045997992
000160 e4 71 98 3d 36 cd 7e bd 5f 84 9a bd 94 aa 24 bd
       0.07443598 -0.062207423 -0.07544779 -0.04020174
000170 be 36 ef 3c 8d 52 5f bd 4e d5 c7 bd d0 e1 4f 3d
       0.029200908 -0.054522086 -0.097574815 0.05075246
000180 36 b3 b4 3d 61 71 14 3d 3a e2 d9 3d bc 8b 85 bd
       0.08823244 0.03624094 0.106388524 -0.06520793
000190 f5 51 26 3d dc d6 8f 3a c8 72 f1 bc 33 17 cf 3b
       0.040605504 0.0010974067 -0.029473677 0.0063199042
0001a0 a0 ed a9 bd e7 89 ce bd 75 de e1 bd fb 95 ba bd
       -0.082972765 -0.100848965 -0.110287584 -0.09110638
0001b0 07 32 49 bd c1 f6 04 3d 7a 32 04 3d 42 f6 ca bd
       -0.049119975 0.032461885 0.0322747 -0.09910251
0001c0 58 b4 15 bd b1 7b 9c bd f4 a9 f8 3b e9 c1 5d bd
       -0.036548942 -0.0764078 0.0075886194 -0.054140005
0001d0 81 91 43 3d a6 3b 97 3d c1 37 a2 3d 64 df ba 3d
       0.047746185 0.07384424 0.079207905 0.0912464
0001e0 03 6f 05 bb 59 cb 65 bd 13 3b 84 3d 24 d4 95 bc
       -0.0020360358 -0.05610213 0.0645658 -0.018289633
0001f0 64 de 09 3d 4d 8d 83 bd 88 3f 11 3c 85 04 9b 3d
       0.033659354 -0.06423435 0.008865245 0.075692214
000200 eb a0 c8 bd c4 9a 74 3d 81 2b ed 3c 46 92 30 bd
       -0.09796318 0.05971791 0.028951408 -0.043108247
000210 d3 66 bc bc 55 a9 44 bd 6d 15 c0 bc 70 c3 a9 bd
       -0.02299825 -0.04801305 -0.023447717 -0.0828923
000220 ff 93 51 3d 55 d1 1b bd fd 98 34 3d ca f3 87 3d
       0.05116653 -0.03804143 0.044091213 0.06638296
000230 dc 85 97 3d 8b 1d e1 3c 55 17 fb 3d 3a b7 41 3d
       0.073985785 0.027479907 0.122603096 0.04729388
000240 ed 14 37 3d 6d 30 33 3c fe ba 19 3d a8 fa a1 bd
       0.04469769 0.010936839 0.037531845 -0.07909137
000250 79 52 be 3d 19 93 96 3d f3 09 ab 3d 2b 05 85 bd
       0.09293074 0.073522754 0.08351507 -0.06495126
000260 ff f5 97 39 10 38 07 3c ec d0 78 3c fa 3f c0 3d
       0.00028984246 0.008253112 0.01518653 0.093872026
000270 87 8d 07 bd f8 12 0b bc 64 a5 75 3c 88 bd bf bc
       -0.033093955 -0.008488409 0.0149930455 -0.023405805
000280 93 c6 12 bd cb e6 b9 3b 85 ab 19 bd 84 b4 d5 bc
       -0.035833906 0.0056732646 -0.03751709 -0.026087053
000290 e2 17 b0 3c 69 ed 0c bd 68 ae 20 bc cc 1c ab bd
       0.021495763 -0.0344061 -0.009807207 -0.08355102
0002a0 e6 53 a5 bd a1 20 a8 bd c4 f8 91 bd 21 51 b7 bd
       -0.08072643 -0.082093485 -0.071275264 -0.08951021
0002b0 bc 0f e8 bc ac 12 71 bd 41 0c eb 3b f8 c1 d2 3d
       -0.028327815 -0.058855698 0.0071730916 0.10290903
0002c0 a9 6f a6 3d c7 93 2b 3d c6 5c d3 bd fe 73 f5 bc
       0.08126766 0.04188898 -0.103204295 -0.029962536
0002d0 92 74 a0 bc 33 56 24 bd 8c 9e e0 3c d9 2c 9e 3d
       -0.019586835 -0.04012127 0.027419351 0.07723398
0002e0 8e 7b 94 3c 41 00 83 3c 4b fe 8f bd 06 a5 f9 bc
       0.018125322 0.015991332 -0.070309244 -0.030474197
0002f0 da 9a cf bc 90 01 a1 3d 2f 6d c9 bb 29 52 94 bd
       -0.025342394 0.07861626 -0.006147049 -0.07242233
000300 40 78 a6 bb 13 18 32 bd e9 c2 b3 bd 98 23 8b bd
       -0.005080253 -0.04347999 -0.087774105 -0.06793898
000310 cd 26 89 bd d3 f1 44 3d 03 f2 09 bd dd 9b 95 bd
       -0.06696854 0.048082184 -0.033678066 -0.07305119
000320 02 04 a4 bd 80 54 9a 3d b1 9a 02 3d e9 51 6e 3d
       -0.08008577 0.07535648 0.031885806 0.058183584
000330 10 d0 76 bd fb 27 21 bd 48 b2 c1 bb 69 f6 ae 3c
       -0.060257018 -0.03934477 -0.0059111454 0.021357732
000340 5e 12 79 bd 18 f7 ac 3d c3 32 0a bd 50 76 98 3d
       -0.060808532 0.08445567 -0.033739816 0.07444441
000350 66 90 15 bd da 35 f1 3c 86 0e 90 bc c3 bb 38 3d
       -0.036514662 0.029444624 -0.01758505 0.04510094
000360 29 11 b9 3b 85 0a 88 bd 07 e6 30 bd 53 f8 c2 bc
       0.0056477976 -0.066426314 -0.04318812 -0.02380005
000370 b3 40 d9 bb 2e 72 01 bd f9 eb 8e bd 88 ac bc 3d
       -0.006630027 -0.03160303 -0.06978602 0.09212595
000380 8b ff 85 bd c9 8f 17 3d 52 9b 9a 3d 78 43 8a 3b
       -0.065428816 0.03700236 0.07549156 0.0042194687
000390 bc 9b 87 3d a6 65 ce 3c c3 cd 83 bd 1e 41 2d 3c
       0.06621501 0.025194954 -0.0643573 0.010574607
0003a0 9c b3 4a 3d ec 92 83 3d fa 69 2b 3d a2 d9 89 3d
       0.049487695 0.064245075 0.041849114 0.06730963
0003b0 f8 0f af bd 1f 8a 5e 3c 77 14 62 3b 86 26 58 3d
       -0.08547968 0.013582735 0.0034497061 0.052771114
0003c0 fa a6 82 bc 01 27 9f 3d c4 94 1e 3d 37 c3 d5 bc
       -0.015948761 0.07771111 0.038716093 -0.026094062
0003d0 c7 17 2e 3d 90 c1 b0 3d 71 29 59 3b 66 20 6d bd
       0.042503145 0.08630669 0.0033136273 -0.057892226
0003e0 10 ad e3 3c 30 7e ab bd 1b fc 88 3d d7 a1 2c bd
       0.027792484 -0.08373678 0.0668871 -0.04214653
0003f0 c3 88 d2 3d f6 86 86 bd e5 38 35 3d 49 d2 ce 3c
       0.102799915 -0.065687105 0.044243712 0.025246756

layers.3.bias f4 [12]
000000 6f 5e d1 bd f0 94 8d bd bc bf 83 39 bd ec ea bc
       -0.1022309 -0.06913173 0.0002512912 -0.028677339
000010 64 80 aa bc 33 b1 70 bc 57 f7 8d 3c 2f c0 6e bd
       -0.020813175 -0.014690685 0.017329855 -0.05828875
000020 51 90 c6 3c 42 ff 4c bd b9 a1 22 bd 71 25 98 3b
       0.024238737 -0.05004812 -0.039705012 0.0046431352
