trained_models/G_0_cps.pth (torch_old, 146761 bytes, 8 tensors)

layers.0.weight f4 [128, 13]
0.2944258 -0.16280362 0.245317 0.11367159 -0.2419521 -0.19513729 -0.23107338 0.20495285
0.089185186 0.2551325 -0.26246387 -0.2233162 -0.3110309 -0.26276493 0.21860792 0.2680997
-0.2614628 0.29133955 0.1434919 0.109707505 -0.07496264 0.23096912 0.16074184 0.22251199
-0.07363144 -0.28537574 0.22548927 -0.18401015 -0.18868804 -0.20128503 0.21105933 -0.08927394
-0.26318732 0.19020724 0.13807666 0.06786224 0.17239936 -0.26135686 0.214337 0.0044445484
-0.3012884 -0.21685171 0.2676715 0.058201544 0.3030785 0.11140506 -0.28246748 0.19556849
-0.19492798 0.3054812 -0.033045094 -0.28022012 -0.06409399 -0.091767035 -0.27149075 0.10993475
0.06820654 0.13333279 -0.02754579 -0.014800152 -0.1283452 -0.16140424 -0.23321697 0.22599924
-0.3095761 -0.25517353 0.117736794 -0.01833238 -0.016327433 0.093677334 0.3028082 0.15270717
0.097398475 -0.19027354 -0.044577517 0.031311918 0.26067483 0.22722344 -0.3098744 0.058297433
-0.07828719 0.22286889 -0.27836847 0.19930227 -0.15841599 0.11427563 -0.18887982 -0.23465163
-0.03748403 0.14655173 -0.08214472 0.046935212 -0.09755575 -0.02515198 0.21955223 0.21886055
-0.08138927 0.03012673 0.19102658 0.016658768 0.17687614 0.07818804 -0.058150183 0.3460967
0.25699985 -0.24877423 -0.064489484 0.20963642 -0.19528018 -0.23932399 0.33055982 0.067281164
0.27816945 0.21135485 -0.05295241 0.10486691 0.18513824 0.0978975 0.13808171 0.19789816
-0.2758656 0.16212942 -0.07878831 0.36020595 0.009280037 0.23579936 0.030931538 -0.2506753
-0.3324995 -0.23426078 0.13784114 0.057624936 0.14910883 -0.31225863 0.15746057 0.14800952
0.28652495 -0.15414077 -0.1786829 0.048938602 0.042536788 -0.2420928 -0.26804972 -0.2443327
-0.12500654 0.3205016 0.21968368 0.25044823 -0.25141284 0.042272113 -0.10255077 0.29254848
0.30759877 0.21250233 0.204746 -0.19535913 0.2963792 -0.2937665 0.12574138 0.27233413
0.2432927 -0.068981454 -0.082313605 0.20099305 -0.3027825 0.27953702 -0.02254138 0.27089885
0.23265965 0.053696666 -0.17895418 0.11941514 0.15797798 0.035944905 0.20870924 -0.23922247
0.30685607 -0.23995689 0.29056075 0.25467435 0.14485273 -0.28562623 0.092054605 -0.14533044
-0.23789515 0.15499945 -0.20821556 0.054411545 0.22343099 -0.084406555 0.14132571 -0.067172244
-0.10160088 0.06769509 -0.34068856 0.18466695 0.0019364903 -0.062477224 -0.1917244 0.08408558
0.11899373 0.02850696 0.037061635 -0.07768202 0.06324036 -0.021226678 0.11397715 -0.13227111
-0.1572713 -0.121732414 -0.08649535 -0.015358365 0.29584143 -0.11142421 0.11331924 0.1840536
0.29728082 0.28140494 0.13776958 -0.05616072 0.04105546 0.18505518 0.069247626 0.3373981
0.13839546 -0.05558895 -0.34307268 -0.053850487 0.32171547 0.3162325 0.35343707 0.27738532
0.21084635 -0.021395473 0.14290157 -0.05572852 -0.054746196 -0.32930818 -0.05118283 0.24046911
-0.0029689164 -0.2147477 0.14419337 0.1873 0.21940579 -0.24339396 -0.09287988 -0.2295727
0.062314752 0.24957384 0.2747772 0.1835313 -0.14500937 -0.3546075 -0.20173727 0.23198561
00000000: fabe 963e feb5 26be 6134 7b3e a7cc e83d
00000010: 4bc2 77be 12d2 47be 809e 6cbe 29df 513e
00000020: b9a6 b63d baa0 823e aa61 86be 00ad 64be
00000030: 713f 9fbe 2089 86be c1da 5f3e 5d44 893e
00000040: 74de 85be 752a 953e 8aef 123e 54ae e03d
00000050: 0386 99bd 2b83 6c3e 8299 243e 2fda 633e
00000060: 15cc 96bd c51c 92be a9e6 663e 286d 3cbe
00000070: 7037 41be aa1d 4ebe f01f 583e 41d5 b6bd
00000080: 7dc0 86be b0c5 423e f863 0d3e 5cfb 8a3d
00000090: 7589 303e 91d0 85be 297b 5b3e 93a3 913b
000000a0: 7942 9abe 600e 5ebe 3d0c 893e be64 6e3d
000000b0: 1b2d 9b3e 5628 e43d 949f 90be 1b43 483e
000000c0: 339b 47be 0868 9c3e 4b5a 07bd 0379 8fbe
000000d0: b643 83bd 5bf0 bbbd d600 8bbe 7825 e13d
000000e0: dfaf 8b3d 6488 083e b5a7 e1bc 567c 72bc
000000f0: ed6c 03be 2747 25be 6ed0 6ebe 586c 673e
00000100: c280 9ebe 1ba6 82be fd1f f13d ca2d 96bc
00000110: 1cc1 85bc e7d9 bf3d ad09 9b3e 455f 1c3e
00000120: da78 c73d 11d7 42be ea96 36bd ed40 003d
00000130: 2c77 853e 43ad 683e dba7 9ebe 4ac9 6e3d
00000140: 0955 a0bd be37 643e 5086 8ebe e515 4c3e
00000150: cd37 22be 5709 ea3d b669 41be 8448 70be
00000160: db88 19bd a811 163e 7e3b a8bd 233f 403d
00000170: 4fcb c7bd 860b cebc 4dd2 603e fb1c 603e
00000180: 6baf a6bd 55cc f63c 799c 433e f877 883c
00000190: 051f 353e 0d21 a03d e32e 6ebd 9633 b13e
000001a0: 7c95 833e acbe 7ebe 1013 84bd eeaa 563e
000001b0: 87f7 47be 5911 75be 233f a93e b5ca 893d
000001c0: 3a6c 8e3e 686d 583e a0e4 58bd 76c4 d63d
000001d0: e194 3d3e 7c7e c83d 4b65 0d3e d1a5 4a3e
000001e0: 423e 8dbe 4105 263e c45b a1bd ea6c b83e
000001f0: 4c0b 183c 6375 713e 2364 fd3c 8358 80be
00000200: 603d aabe 0fe2 6fbe 3a26 0d3e 2008 6c3d
00000210: fcaf 183e 5de0 9fbe 583d 213e cf8f 173e
00000220: 66b3 923e 14d7 1dbe a6f8 36be d873 483d
00000230: 0e3b 2e3d 2de7 77be d03d 89be 5a32 7abe
00000240: b701 00be c918 a43e c2f4 603e c03a 803e
00000250: 2fb9 80be 8625 2d3d 2306 d2bd eac8 953e
00000260: 967d 9d3e 369a 593e efa8 513e 390c 48be
00000270: 04bf 973e 9068 96be 59c2 003e 616f 8b3e
00000280: b921 793e 2646 8dbd 0994 a8bd 1fd1 4d3e
00000290: 4f06 9bbe 7a1f 8f3e b3a8 b8bc 41b3 8a3e
000002a0: 553e 6e3e 09f1 5b3d c43f 37be ed8f f43d
000002b0: fbc4 213e f73a 133d e0b7 553e bcf6 74be
000002c0: 3d1c 9d3e 42b7 75be 61c4 943e ad64 823e
000002d0: 4654 143e 9a3d 92be 2087 bc3d 81d1 14be
000002e0: c99a 73be 2db8 1e3e 7636 55be a4de 5e3d
000002f0: 18cb 643e 58dd acbd b0b7 103e 9a91 89bd
00000300: 1f14 d0bd b9a3 8a3d bb6e aebe 5519 3d3e
00000310: d5d1 fd3a 1ee8 7fbd 6753 44be 1035 ac3d
00000320: fcb2 f33d 6e87 e93c f1cd 173d c017 9fbd
00000330: 2984 813d 92e3 adbc da6c e93d 1472 07be
00000340: ba0b 21be d84e f9bd 7924 b1bd a7a1 7bbc
00000350: 8778 973e 6032 e4bd eb13 e83d 8c78 3c3e
00000360: 3135 983e 4f14 903e 7813 0d3e c808 66bd
00000370: c529 283d 1b7f 3d3e b3d1 8d3d 72bf ac3e
00000380: 8ab7 0d3e 3db1 63bd 39a7 afbe 5492 5cbd
00000390: e4b7 a43e 3ae9 a13e b4f5 b43e 7305 8e3e
000003a0: 1be8 573e 8f45 afbc ca54 123e 9743 64bd
000003b0: 8c3d 60bd 159b a8be 16a5 51bd 893d 763e
000003c0: 2792 42bb d2e6 5bbe 6da7 133e 92cb 3f3e
000003d0: e9ab 603e 443c 79be ce37 bebd 1b15 6bbe
000003e0: c13d 7f3d 4990 7f3e 99af 8c3e a1ef 3b3e
000003f0: 567d 14be 1d8f b5be 3794 4ebe a38d 6d3e

layers.0.bias f4 [128]
-0.023154728 0.31107795 -0.2000751 -0.036462624 0.18913041 -0.023516703 0.02552078 0.3300522
0.11936384 -0.07894305 0.03021906 0.01933634 -0.13349955 -0.105707444 0.06714495 -0.0108528035
-0.13995847 -0.1769395 0.31799468 -0.1105471 -0.14671287 0.18745022 0.2797127 -0.088686325
-0.123308726 0.09784749 0.15925118 0.04212869 -0.1787919 0.08452605 0.11376249 -0.05874173
0.22421108 0.2650682 -0.029005216 -0.11012414 0.2354212 -0.092934184 -0.051169902 0.29781908
0.20164795 -0.019185951 0.019293344 0.09179416 -0.18826538 -0.08228984 -0.081364356 0.11487037
-0.01869831 0.088585034 -0.024639413 0.3182939 0.09030661 -0.0261934 -0.23141503 0.16028833
-0.16695279 0.098082155 0.08855098 -0.2169551 -0.06759073 0.07273891 0.024663867 0.19111927
0.14243563 -0.15714867 -0.18087786 -0.16687112 -0.05905858 -0.0044922973 -0.19444521 0.21288398
0.2754813 0.21351352 -0.04013638 -0.16890922 -0.11195611 -0.044298224 0.13638677 0.2610035
0.22380123 0.0018251897 0.088854164 -0.085444614 -0.06577062 0.22256964 0.013963556 -0.19799334
-0.113904566 -0.019387059 0.1962383 0.18818706 -0.20428842 0.29772437 -0.1871105 -0.009198392
0.0543354 -0.109410666 0.18122275 0.0018353732 0.12627053 0.03008277 -0.019865813 0.100289404
-0.024460956 -0.02805208 -0.2165251 -0.10826695 0.1060138 0.16211069 0.20951477 0.19511475
0.0106241405 0.06818039 0.16707326 0.29208556 -0.07113715 -0.17406079 0.011469234 0.28917044
-0.2184473 -0.16526693 0.29160208 -0.23692557 0.24500811 -0.2128359 0.24228798 0.0969843
00000000: fcae bdbc 9c45 9f3e 7de0 4cbe d559 15bd
00000010: 67ab 413e 1aa6 c0bc f410 d13c 9afc a83e
00000020: 0775 f43d e5ac a1bd f68d f73c 3e67 9e3c
00000030: 1bb4 08be 257d d8bd 4b83 893d f5cf 31bc
00000040: 4651 0fbe a12f 35be 33d0 a23e 8566 e2bd
00000050: e63b 16be f3f2 3f3e 8136 8f3e 2da1 b5bd
00000060: 4989 fcbd 4464 c83d be12 233e 228f 2c3d
00000070: 3915 37be fe1b ad3d 4ffc e83d 2b9b 70bd
00000080: 9797 653e 05b7 873e 599c edbc c488 e1bd
00000090: 4112 713e 4754 bebd 8897 51bd be7b 983e
000000a0: cd7c 4e3e db2b 9dbc 130d 9e3c 94fe bb3d
000000b0: a4c8 40be 9387 a8bd 5ba2 a6bd 2841 eb3d
000000c0: 332d 99bc 126c b53d 98d8 c9bc 6bf7 a23e
000000d0: acf2 b83d 8b93 d6bc 10f8 6cbe a022 243e
000000e0: acf5 2abe 4cdf c83d 375a b53d 7a29 5ebe
000000f0: 026d 8abd 23f8 943d e10b ca3c c5b4 433e
00000100: a5da 113e 95eb 20be 0c38 39be 43e0 2abe
00000110: 69e7 71bd 1f34 93bb a51c 47be 42fe 593e
00000120: e30b 8d3e 4aa3 5a3e 0b66 24bd 8af6 2cbe
00000130: 3f49 e5bd 0e72 35bd f9a8 0b3e 40a2 853e
00000140: 262c 653e 343b ef3a 2cf9 b53d 96fd aebd
00000150: bfb2 86bd 4ce9 633e 66c7 643c c4be 4abe
00000160: cc46 e9bd 9cd1 9ebc b1f2 483e 1cb4 403e
00000170: fc30 51be 546f 983e e599 3fbe dab4 16bc
00000180: cc8e 5e3d b312 e0bd 7592 393e e890 f03a
00000190: 104d 013e 2470 f63c a1bd a2bc 8864 cd3d
000001a0: 5862 c8bc 7acd e5bc c1b8 5dbe 10bb ddbd
000001b0: c31d d93d 5800 263e 0a8b 563e 29cc 473e
000001c0: e010 2e3c 29a2 8b3d 4115 2b3e 3d8c 953e
000001d0: 5bb0 91bd fe3c 32be 74e9 3b3c 260e 943e
000001e0: a6b0 5fbe bc3b 29be de4c 953e 9e9c 72be
000001f0: 68e3 7a3e a7f1 59be 571a 783e b49f c63d

layers.1.weight f4 [128, 128]
0.017099766 0.027317736 -0.010771573 0.017185599 0.055258926 -0.0044562896 0.021151954 0.061486445
0.13935004 -0.032260302 -0.014418187 0.021755878 0.0140234465 0.019418117 0.13122149 -0.029810926
0.06506176 0.11953159 -0.005098572 -0.15808696 -0.15782043 0.047316823 0.11219703 -0.0130694825
0.09563083 0.041708305 -0.007078209 -0.08185409 -0.067147195 0.113366425 0.038079627 -0.11048151
0.073289186 0.001609395 -0.09954348 0.00019745958 0.04189385 -0.15128863 -0.014044814 0.005730706
-0.07975747 -0.015588946 0.12853019 -0.056230087 -0.07422616 0.0072615505 -0.038790744 0.028292282
0.066785164 -0.05550095 0.037210442 0.07059748 -0.117575906 -0.121115334 0.005193242 -0.04668975
0.12542556 0.06992682 0.066734746 0.021090265 -0.10836026 -0.031472683 0.0552501 0.11494985
0.09736626 -0.092803024 0.010916092 0.014691776 0.114313096 -0.13534582 0.03866506 -0.018575707
0.11249512 0.037706893 0.00017172778 0.008709788 -0.08756812 0.06296466 0.112796865 0.026419844
0.088380806 -0.0576085 -0.07380911 0.070522234 0.10937563 0.07265901 -0.13298726 0.047084503
0.027656823 0.0037111046 0.14055261 -0.10744246 0.031722777 0.15093282 -0.11122952 0.00808126
0.022913378 -0.017674543 -0.091283694 0.035217583 0.08707637 -0.018304814 -0.022258578 0.0072548096
-0.15593469 -0.053765066 0.011087221 -0.020699764 0.07073384 -0.0074043414 0.004620712 0.009381632
0.08850438 0.015531632 -0.049499188 0.10160649 0.03012306 -0.09528052 0.11875807 -0.011582711
-0.047593478 0.08565832 -0.07838433 -0.004722 0.06117205 0.019954965 0.053768963 -0.03815892
0.018386202 0.059728514 -0.056325275 -0.060783807 -0.010095562 -0.054024957 -0.040141635 0.07328629
0.07917934 0.06864415 0.035341416 0.08582648 0.05448539 -0.13336906 0.025399921 -0.022730099
0.10635016 0.05411691 -0.046710238 0.02813032 0.08041868 0.014342407 -0.014532667 0.11095028
-0.04594451 -0.08152674 0.020620575 0.10197646 0.02447037 -0.006359825 -0.05849762 0.0052601807
0.048714172 -0.022652684 -0.08901061 -0.021264581 0.021053053 0.09916888 -0.0046478254 0.06610844
0.09393767 0.018143427 -0.042802073 0.0017708982 0.019922368 -0.0028170224 0.073931426 0.082351945
0.05899896 0.07846806 -0.0042981007 -0.03744911 -0.012184421 -0.08867514 -0.103316545 -0.016162824
-0.09550671 -0.012098961 -0.02598362 0.010594325 0.04603442 0.05755705 0.10380987 0.0062408657
-0.023607725 -0.030609453 -0.010275887 0.0117327105 0.057408802 -0.017002635 0.07538183 0.016984684
0.07433294 0.0065521165 0.033009674 -0.018259585 0.04030862 -0.06546866 -0.012165719 0.016853351
0.02088212 0.109598756 0.10111639 0.11268151 0.013014729 0.050459392 0.09672378 -0.10769046
-0.049800582 0.08523922 0.015131204 0.09748534 -0.028173605 0.060335428 0.05702647 -0.02740133
0.058889974 -0.04064559 -0.019953411 -0.022374002 -0.09306129 0.060002886 -0.0721703 0.0664858
0.05526723 0.03773563 -0.0018219174 0.02697606 -0.087042734 0.04198271 0.042405788 -0.091004886
-0.070202686 0.02079294 -0.06892834 -0.088206746 -0.06076363 -0.044290993 -0.11166372 0.07544129
0.100346275 -0.011305514 0.09505435 0.10765359 -0.042829048 0.06648969 0.115080066 -0.08241532
00000000: cf14 8c3c 72c9 df3c 407b 30bc d0c8 8c3c
00000010: 2f57 623d 1106 92bb dd46 ad3c 36d9 7b3d
00000020: c7b1 0e3e 6123 04bd 423a 6cbc 6239 b23c
00000030: 99c2 653c be12 9f3c ed5e 063e 0b36 f4bc
00000040: 1a3f 853d facc f43d ec11 a7bb 8ce1 21be
00000050: ae9b 21be 49cf 413d 8ec7 e53d 6221 56bc
00000060: 19da c33d 54d6 2a3d 52f0 e7bb 1ea3 a7bd
00000070: 7884 89bd a82c e83d 62f9 1b3d 2144 e2bd
00000080: a418 963d 56f2 d23a 74dd cbbd 270d 4f39
00000090: e398 2b3d 68eb 1abe 381c 66bc a5c8 bb3b
000000a0: e257 a3bd c768 7fbc 6b9d 033e 8551 66bd
000000b0: e303 98bd 4df2 ed3b 0be3 1ebd 37c5 e73c
000000c0: a9c6 883d f754 63bd fa69 183d 6995 903d
000000d0: a3cb f0bd 510b f8bd 122c aa3b c03d 3fbd
000000e0: 8f6f 003e cb35 8f3d 3aac 883d 7ec5 ac3c
000000f0: fceb ddbd 80e9 00bd ee4d 623d d46a eb3d
00000100: f667 c73d 830f bebd 69d9 323c c6b5 703c
00000110: fc1c ea3d 1898 0abe 415f 1e3d 152c 98bc
00000120: d763 e63d 8b72 1a3d d311 3439 80b3 0e3c
00000130: ea56 b3bd 9ef3 803d 0b02 e73d 6e6e d83c
00000140: ff00 b53d e4f6 6bbd 3b29 97bd f66d 903d
00000150: 5500 e03d 3fce 943d d02d 08be aedb 403d
00000160: 9090 e23c 0136 733b 06ed 0f3e cb0a dcbd
00000170: beef 013d 228e 1a3e 4dcc e3bd 4367 043c
00000180: d6b4 bb3c 34ca 90bc f2f2 babd 5040 103d
00000190: 1955 b23d faf3 95bc 9f57 b6bc c1b9 ed3b
000001a0: 58ad 1fbe c238 5cbd 2da7 353c 8d92 a9bc
000001b0: e7dc 903d 1ea0 f2bb 5769 973b 6bb5 193c
000001c0: c941 b53d 6378 7e3c a9bf 4abd 1017 d03d
000001d0: a3c4 f63c 6f22 c3bd 6e37 f33d 69c5 3dbc
000001e0: 61f1 42bd a16d af3d f787 a0bd 02bb 9abb
000001f0: 8b8f 7a3d 9878 a33c d83c 5c3d 874c 1cbd
00000200: a99e 963c e3a5 743d 55b5 66bd 71f8 78bd
00000210: db67 25bc 4649 5dbd 8e6b 24bd 1f17 963d
00000220: c728 a23d 4e95 8c3d 29c2 103d cbc5 af3d
00000230: 132c 5f3d e691 08be 7f13 d03c 7934 babc
00000240: 1dce d93d b1a9 5d3d 3c53 3fbd 8f71 e63c
00000250: 8db2 a43d 6afc 6a3c 6c1a 6ebc e739 e33d
00000260: 4f30 3cbd 7ef7 a6bd 7bec a83c 09d9 d03d
00000270: 1676 c83c 1466 d0bb 339b 6fbd 985d ac3b
00000280: 8388 473d 1f92 b9bc 324b b6bd 0f33 aebc
00000290: 7477 ac3c 0e19 cb3d c94c 98bb dd63 873d
000002a0: 6562 c03d 86a1 943c 3a51 2fbd 7c1d e83a
000002b0: 3c34 a33c cb9d 38bb 5c69 973d 23a8 a83d
000002c0: e5a8 713d ddb3 a03d 15d7 8cbb 3d64 19bd
000002d0: 2aa1 47bc 509b b5bd a097 d3bd e667 84bc
000002e0: 0699 c3bd b83a 46bc 9adb d4bc d293 2d3c
000002f0: 978e 3c3d f1c0 6b3d 459a d43d 2d80 cc3b
00000300: fd64 c1bc adc0 fabc 325c 28bc 8e3a 403c
00000310: 7e25 6b3d 1c49 8bbc ca61 9a3d 7723 8b3c
00000320: de3b 983d 23b3 d63b 2735 073d 2095 95bc
00000330: a71a 253d 6f14 86bd b952 47bc 0a10 8a3c
00000340: fb10 ab3c 5075 e03d 1c16 cf3d 90c5 e63d
00000350: bb3b 553c 82ae 4e3d 1e17 c63d d18c dcbd
00000360: b2fb 4bbd e691 ae3d dfe8 773c 65a6 c73d
00000370: 55cc e6bc 4822 773d 9694 693d c178 e0bc
00000380: 9d36 713d fd7b 26bd 5675 a3bc af49 b7bc
00000390: eb96 bebd 96c5 753d 06ce 93bd b529 883d
000003a0: e45f 623d ad90 1a3d 67cd eeba e6fc dc3c
000003b0: 7643 b2bd 10f6 2b3d b1b1 2d3d c560 babd
000003c0: 6dc6 8fbd f555 aa3c 4d2a 8dbd bda5 b4bd
000003d0: 49e3 78bd 796a 35bd f3af e4bd f780 9a3d
000003e0: 5982 cd3d c33a 39bc dbab c23d 7c79 dc3d
000003f0: 836d 2fbd bf2b 883d 19af eb3d 5dc9 a8bd

layers.1.bias f4 [128]
0.026311079 0.057688277 0.10945171 0.003178818 0.013274469 0.11783011 0.11901361 0.006756653
0.07565574 0.049321387 0.06427533 -0.031505603 -0.053390767 0.11810385 0.01883245 -0.040429123
0.091121115 0.003624809 0.027656432 0.061275523 -0.067679144 0.06684551 0.068725236 0.13937928
-0.013883688 0.056455273 0.02139769 -0.019895123 -0.08174767 -0.012773631 0.03709909 0.005435495
0.05271322 -0.06988907 0.019427756 0.045530286 -0.04510098 -0.038319733 0.12245007 -0.030111797
0.0708698 0.1250095 0.057501778 -0.029109422 0.08355802 0.05769541 0.08964709 0.05908529
0.05470621 -0.008416739 0.0391259 0.015634436 0.039606195 -0.0970853 -0.039614208 0.115168564
-0.0061714887 0.10291333 0.0018913214 -0.031137688 -0.027004505 0.002289103 0.054021474 -0.06926985
0.09442266 -0.0148549955 0.047900144 -0.008899913 0.05589077 0.056138877 0.076040834 0.05851475
-0.02488052 -0.056590784 -0.01443684 -0.07479036 -0.039451536 0.044905152 0.02580337 0.09500876
-0.052551605 0.115720265 0.057790432 0.057515766 -0.031407796 -0.026828878 -0.0585496 0.08712102
0.06644114 0.0074251555 0.084146746 0.002321755 0.095955215 -0.03444402 0.08774788 -0.0112212105
0.026414985 0.10270043 0.028580662 -0.018910808 -0.037513547 -0.05567136 0.13340795 0.0402531
0.056931164 0.006459511 0.0693586 -0.06859113 0.07647315 -0.04365485 -0.02839155 -0.06098677
-0.05898972 0.060028482 0.072955415 0.058299944 0.052929875 -0.055030853 0.13085647 -0.031129908
-0.051466394 -0.011019171 0.0046593533 0.08175018 0.06435678 0.11539232 0.0064242817 0.093409464
00000000: 558a d73c 8b4a 6c3d 3828 e03d b753 503b
00000010: 297d 593c ea50 f13d 68bd f33d ea66 dd3b
00000020: 66f1 9a3d 3905 4a3d c9a2 833d 050c 01bd
00000030: 47b0 5abd 6ee0 f13d 8346 9a3c 0299 25bd
00000040: b59d ba3d 348e 6d3b be8f e23c 0bfc 7a3d
00000050: 5d9b 8abd 4ce6 883d d1bf 8c3d 71b9 0e3e
00000060: 6878 63bc a53d 673d 354a af3c 19fb a2bc
00000070: 536b a7bd 7e48 51bc 37f5 173d 3d1c b23b
00000080: d1e9 573d 0022 8fbd f526 9f3c f77d 3a3d
00000090: cebb 38bd 27f5 1cbd 1ac7 fa3d 04ad f6bc
000000a0: 3024 913d 7e02 003e fc86 6b3d e276 eebc
000000b0: 7820 ab3d 0652 6c3d e598 b73d 6b03 723d
000000c0: 9e13 603d 5de6 09bc 7b42 203d ca13 803c
000000d0: 1b3a 223d a8d4 c6bd 8242 22bd 7fdd eb3d
000000e0: 333a cabb 39c4 d23d 37e6 f73a 7714 ffbc
000000f0: 8d38 ddbc c704 163b 9f45 5d3d 5add 8dbd
00000100: ab60 c13d 5e62 73bc f132 443d f1d0 11bc
00000110: b8ed 643d e1f1 653d 4cbb 9b3d 2aad 6f3d
00000120: 3bd2 cbbc bdcb 67bd 7f88 6cbc b02b 99bd
00000130: ef97 21bd 77ee 373d 9761 d33c f493 c23d
00000140: 5a40 57bd bffe ec3d a9b5 6c3d a795 6b3d
00000150: 76a5 00bd 3cc8 dbbc b5d1 6fbd 816c b23d
00000160: 4b12 883d b84e f33b 2155 ac3d 9628 183b
00000170: 2b84 c43d 2c15 0dbd 29b5 b33d 2bd9 37bc
00000180: 3d64 d83c 9a54 d23d fe21 ea3c d7ea 9abc
00000190: cea7 19bd a707 64bd 189c 083e 6fe0 243d
000001a0: a730 693d 4eaa d33b e20b 8e3d 8279 8cbd
000001b0: f49d 9c3d 6ecf 32bd 6595 e8bc 43cd 79bd
000001c0: 349f 71bd 6de0 753d a669 953d eccb 6e3d
000001d0: ffcc 583d 0868 61bd 3dff 053e 2604 ffbc
000001e0: 6dce 52bd c189 34bc 7dad 983b a36c a73d
000001f0: 7dcd 833d cf52 ec3d c882 d23b 764d bf3d

layers.2.weight f4 [128, 128]
-0.046068743 0.04921139 -0.044900946 0.06323317 0.021288438 -0.02601673 -0.08160818 0.017776972
0.056883227 0.053194046 -0.05706575 0.03328419 0.1044155 0.051885173 0.0952359 -0.1030037
0.020566665 -0.02579933 -0.03944108 0.06743624 -0.010629397 -0.03850564 -0.036871538 0.02520796
0.06497749 0.015966062 0.09597018 0.053069904 -0.037511125 -0.020889308 0.035303097 -0.044443276
-0.00048084452 0.08211494 0.042296156 0.042476695 0.050956115 0.0942164 -0.038013387 -0.07072352
-0.047703084 -0.0878429 0.03400335 -0.056479745 0.05369116 -0.07068215 -0.037518132 0.08554469
-0.025614414 0.089066595 -0.02334422 -0.07507324 -0.04721405 0.1272957 0.0787653 0.04027969
-0.02050755 0.018817699 0.06169958 0.049058247 0.05247195 0.09808552 -0.034896918 0.06325759
0.037066743 -0.101195015 0.072851196 0.08511644 -0.05599509 0.02741273 -0.03389221 -0.082262754
0.07771124 0.002178713 0.07644567 0.06587289 0.06331788 0.07777708 0.108895265 0.0061524203
0.066539966 0.0667155 0.040274188 -0.03955626 0.04234709 -0.023878295 0.036680315 0.066173024
0.083775595 0.0028817712 0.07556667 0.027431872 0.0036072813 -0.0762377 0.048514176 0.06408816
0.0643002 -0.1024149 -0.027194591 -0.11298607 0.002566886 -0.06096434 -0.028841479 0.040097654
-0.08686876 0.014172994 -0.052000627 0.093904965 0.0035363578 -0.006245059 -0.028666826 -0.0124671105
0.08750241 -0.03330457 -0.0742038 0.059414078 0.05513963 0.100268535 0.07583244 -0.023123803
0.015724884 -0.009996474 -0.06748385 -0.08304609 0.0720018 -0.05880006 0.047523096 0.048498116
-0.04555408 0.07757728 0.0038394553 -0.031781122 -0.016702741 0.023354065 -0.009229694 0.09653159
-0.011480981 0.023926387 0.06311217 -0.06047454 0.08878616 0.0036455428 -0.055728387 0.058240883
-0.000441165 0.04747316 -0.061941523 -0.050977137 0.09087863 0.077139705 0.06210035 -0.06602611
0.02091758 -0.035884023 -0.08389903 0.06666255 0.09827642 -0.035591513 0.0780377 -0.10275508
0.048471745 -0.016891122 -0.03326758 -0.057543274 -0.06678711 -0.04427345 -0.0413284 -0.054197993
-0.02797125 0.009145843 -0.02489542 -0.025553105 -0.043173596 0.044507246 -0.015938459 -0.01656454
0.025755325 -0.072152145 0.077988096 0.020649033 -0.0019629986 -0.14025815 -0.00872178 0.07314151
0.055189725 0.020263677 0.050420985 0.031322762 -0.03675815 -0.046482015 -0.032740492 -0.083224244
0.11259972 0.012142707 -0.084098734 -0.12926383 -0.0886314 -0.029766865 -0.0009660151 -0.05113582
0.040216953 0.0716814 0.037794076 -0.04974818 0.10388095 0.08420207 0.06542247 -0.11204312
-0.014765386 -0.008303409 -0.0033851857 0.016194282 0.0033396978 0.05660011 -0.01745449 0.04255234
-0.0037219247 0.10022217 0.055840172 0.08783567 -0.0930975 0.02595521 -0.0028427085 0.10050741
-0.04112458 0.10748698 -0.033320576 0.052580725 -0.015490398 -0.03857518 -0.03906491 0.043880332
0.0059243324 -0.16153657 -0.004499629 0.05276587 0.09322078 0.052923985 0.11026233 0.030400738
0.023607796 -0.04476489 0.115136504 0.035992436 0.06983415 0.09324225 -0.05243102 0.022636758
0.04187995 0.020808635 0.03677575 -0.02189596 -0.024751423 -0.037222765 -0.06890526 -0.005224304
00000000: 94b2 3cbd e291 493d 0eea 37bd 6480 813d
00000010: 1765 ae3c 0a21 d5bc 3122 a7bd 03a1 913c
00000020: 63fe 683d 00e2 593d c7bd 69bd 0155 083d
00000030: cbd7 d53d 8c85 543d 0a0b c33d 9bf3 d2bd
00000040: 6c7b a83c 1e59 d3bc f88c 21bd 031c 8a3d
00000050: ec26 2ebc 17b8 1dbd 9c06 17bd ec80 ce3c
00000060: eb12 853d 42cb 823c 048c c43d d45f 593d
00000070: 44a5 19bd 0e20 abbc fb99 103d 270a 36bd
00000080: dc19 fcb9 e12b a83d bc3e 2d3d 0bfc 2d3d
00000090: 5cb7 503d 87f4 c03d edb3 1bbd 7ed7 90bd
000000a0: 4f64 43bd fae6 b3bd 1947 0b3d 4e57 67bd
000000b0: 43eb 5b3d cec1 90bd 9dac 19bd 0e32 af3d
000000c0: 52d5 d1bc 8c68 b63d 613c bfbc 00c0 99bd
000000d0: 8563 41bd ce59 023e b44f a13d 51fc 243d
000000e0: 73ff a7bc 9327 9a3c b3b8 7c3d 4df1 483d
000000f0: d4ec 563d 10e1 c83d 12f0 0ebd 328d 813d
00000100: 4cd3 173d 553f cfbd 0233 953d 8751 ae3d
00000110: 1c5b 65bd a990 e03c 8fd2 0abd 6079 a8bd
00000120: 1227 9f3d bdc8 0e3b 8c8f 9c3d 5ee8 863d
00000130: ceac 813d 9749 9f3d 7b04 df3d 3e9a c93b
00000140: 1b46 883d 23a2 883d 8cf6 243d bf05 22bd
00000150: 2474 2d3d 6a9c c3bc 193e 163d b985 873d
00000160: 8a92 ab3d 19dc 3c3b b3c2 9a3d ceb8 e03c
00000170: 2368 6c3b 8322 9cbd cdb6 463d a740 833d
00000180: d3af 833d e7be d1bd 31c7 debc 3e65 e7bd
00000190: 3339 283b beb5 79bd f744 ecbc 703d 243d
000001a0: 40e8 b1bd d835 683c 9cfe 54bd 3f51 c03d
000001b0: 3dc2 673b 5aa3 ccbb b1d6 eabc da42 4cbc
000001c0: 7734 b33d 5f6a 08bd 29f8 97bd 2d5c 733d
000001d0: 18da 613d 9759 cd3d 0a4e 9b3d 216e bdbc
000001e0: 79d1 803c 40c8 23bc f934 8abd 1214 aabd
000001f0: ae75 933d 55d8 70bd 94a7 423d f6a5 463d
00000200: ea96 3abd d6e0 9e3d 5f9f 7b3b ec2c 02bd
00000210: 30d4 88bc 0651 bf3c 2438 17bc 5bb2 c53d
00000220: b91a 3cbc 4501 c43c f440 813d 27b4 77bd
00000230: 85d5 b53d 0fea 6e3b 7343 64bd fe8d 6e3d
00000240: 2a4c e7b9 3773 423d 65b6 7dbd 67cd 50bd
00000250: 931e ba3d 6cfb 9d3d f05c 7e3d b238 87bd
00000260: 585b ab3c 20fb 12bd 41d3 abbd 6086 883d
00000270: 2645 c93d 68c8 11bd 3bd2 9f3d 4171 d2bd
00000280: 4f8a 463d 405f 8abc 9643 08bd 7fb2 6bbd
00000290: aec7 88bd 1458 35bd f847 29bd b7fe 5dbd
000002a0: f623 e5bc 72d8 153c 7bf1 cbbc bf54 d1bc
000002b0: ccd6 30bd 3b4d 363d 5f91 82bc 5cb2 87bc
000002c0: d5fc d23c 81c4 93bd 39b8 9f3d 2928 a93c
000002d0: a7a5 00bb d59f 0fbe cce5 0ebc 37cb 953d
000002e0: 9f0e 623d 0300 a63c 3c86 4e3d 4c4c 003d
000002f0: b78f 16bd ed63 3ebd e51a 06bd 7971 aabd
00000300: af9a e63d 34f2 463c f53b acbd bd5d 04be
00000310: 6184 b5bd a4d9 f3bc 2d3c 7dba cb73 51bd
00000320: 88ba 243d b3cd 923d f6cd 1a3d bfc4 4bbd
00000330: 89bf d43d 2372 ac3d 37fc 853d dd76 e5bd
00000340: 84ea 71bc 060b 08bc fed9 5dbb dfa9 843c
00000350: d5de 5a3b 84d5 673d b8fc 8ebc 5d4b 2e3d
00000360: 89eb 73bb 4841 cd3d aab8 643d 30e3 b33d
00000370: e7a9 bebd 05a0 d43c bc4c 3abb d4d6 cd3d
00000380: 3f72 28bd 2222 dc3d 287b 08bd e35e 573d
00000390: 70cb 7dbc 0201 1ebd 8702 20bd ddbb 333d
000003a0: e720 c23b d869 25be a071 93bb 0621 583d
000003b0: 89ea be3d d2c6 583d 37d1 e13d f80a f93c
000003c0: 2365 c13c 645b 37bd b0cc eb3d ce6c 133d
000003d0: 3505 8f3d cbf5 be3d e9c1 56bd b970 b93c
000003e0: 4f8a 2b3d df76 aa3c 2ba2 163d 285f b3bc
000003f0: 7fc3 cabc e676 18bd 331e 8dbd a330 abbb

layers.2.bias f4 [128]
-0.0278018 0.049675938 0.06650572 0.09216804 0.023635361 -0.023909038 0.0028093886 0.10555495
0.028171916 -0.017601812 0.002482646 -0.032050017 0.09693591 -0.044631675 0.09357803 0.043454144
0.038980074 0.016587455 -0.057861168 -0.04223791 -0.01302381 0.04075594 -0.06434957 0.0054047797
0.056966733 0.031422835 0.018285107 -0.019787893 0.027086271 0.03198731 0.009669419 0.11635175
0.026695386 -0.07731236 0.059821177 0.054441962 0.08525755 0.056361392 -0.05007874 -0.020369234
-0.03889859 0.07289568 0.08352928 0.003659905 0.08306367 0.06367511 -0.061273053 0.028356805
-0.07299113 -0.01891221 -0.056368995 0.014188622 -0.08976481 0.043935724 0.089464925 -0.049598277
0.03858404 0.058333818 0.011079456 0.06916477 0.0021729746 0.080525815 0.019533124 -0.008643881
-0.044629067 0.025633395 0.047877766 0.00871303 -0.07804103 0.055562977 -0.09193519 0.07616187
0.08381343 0.02803703 0.02281037 -0.054417994 -0.0125383865 0.039485004 0.06997334 -0.034664083
0.07217966 -0.06463022 0.06419315 -0.06282905 0.084513366 -0.014443654 0.03579987 -0.108367056
0.042627543 0.0637051 0.032533206 0.07162476 0.0074486923 -0.018182842 0.055105377 0.06163353
0.09493208 -0.09869766 0.01663687 -0.053371347 0.005729457 -0.07942823 0.039594717 -0.08236385
-0.022011833 0.04334413 0.03280522 -0.006599972 0.01871512 0.041670885 0.09769738 -0.02652234
0.03317136 -0.018984081 0.026459375 -0.041892607 0.01253498 -0.016539508 0.09675155 -0.038828902
-0.048559047 0.010504604 0.006105522 0.044139385 0.052661277 0.049865484 -0.057290684 0.008261604
00000000: 9ac0 e3bc ff78 4b3d 2734 883d 99c2 bc3d
00000010: f29e c13c e3dc c3bc b81d 383b 322d d83d
00000020: cac8 e63c ad31 90bc e3b3 223b e146 03bd
00000030: 5686 c63d b4cf 36bd d7a5 bf3d f9fc 313d
00000040: 92a9 1f3d 6ae2 873c d5ff 6cbd a901 2dbd
00000050: d261 55bc b3ef 263d b5c9 83bd 941a b13b
00000060: f355 693d 3bb5 003d a6ca 953c 381a a2bc
00000070: 07e4 dd3c 2005 033d 7c6c 1e3c d449 ee3d
00000080: 48b0 da3c f155 9ebd 0d07 753d 89fe 5e3d
00000090: 839b ae3d 34db 663d 5d1f 4dbd 61dd a6bc
000000a0: 2154 1fbd 554a 953d 6611 ab3d 04db 6f3b
000000b0: 491d aa3d 1968 823d 74f9 7abd 884c e83c
000000c0: 607c 95bd c7ed 9abc 2de3 66bd 6577 683c
000000d0: 9dd6 b7bd f2f5 333d 6339 b73d 9027 4bbd
000000e0: 4c0a 1e3d 71ef 6e3d 9b86 353c 42a6 8d3d
000000f0: 7768 0e3b b8ea a43d ee03 a03c 119f 0dbc
00000100: f8cc 36bd 20fd d13c 7a1b 443d 19c1 0e3c
00000110: fad3 9fbd 0196 633d 8448 bcbd c1fa 9b3d
00000120: 60a6 ab3d eaad e53c d0dc ba3c 67e5 5ebd
00000130: ce6d 4dbc 07bb 213d 2f4e 8f3d edfb 0dbd
00000140: eed2 933d d95c 84bd b377 833d 84ac 80bd
00000150: 5815 ad3d 13a5 6cbc e2a2 123d 8cef ddbd
00000160: 389a 2e3d d277 823d 8a41 053d 01b0 923d
00000170: 2914 f43b 2ff4 94bc 2db6 613d 7173 7c3d
00000180: c06b c23d 0022 cabd 0c4a 883c ea9b 5abd
00000190: 2bbe bb3b 45ab a2bd 122e 223d 61ae a8bd
000001a0: 2952 b4bc 9d89 313d c45e 063d 9444 d8bb
000001b0: 7450 993c 17af 2a3d 9015 c83d 6145 d9bc
000001c0: b1de 073d 8184 9bbc 55c1 d83c 9597 2bbd
000001d0: 845f 4d3c dd7d 87bc ad25 c63d 0e0b 1fbd
000001e0: dae5 46bd 811b 2c3c d510 c83b 80cb 343d
000001f0: 5ab3 573d c03f 4c3d a3a9 6abd ae5b 073c

layers.3.weight f4 [12, 128]
-0.0025125232 -0.08677512 0.009926567 -0.019003691 -0.024209177 -0.017045546 0.051379498 -0.088968396
-0.01332168 -0.018342286 0.0075960625 0.018827314 -0.066130236 0.13606796 -0.06866935 0.049762648
-0.04221783 0.048249252 0.0368277 0.06286346 -0.02836988 0.09505793 0.070805766 0.019593654
0.094304845 0.05970393 -0.057365883 -0.042362683 0.08575549 0.03307102 0.081891835 -0.058762144
0.081911825 0.046987094 0.0260052 -0.040398482 -0.020789118 -0.032922562 0.14155348 -0.07930366
0.008861566 -0.068446115 -0.037859082 0.015769996 -0.07643515 -0.025605144 0.051083792 0.07446865
0.064137146 0.07847155 0.083633326 0.06767231 -0.067107774 -0.0109135015 0.0069255633 0.097458206
0.0073399167 -0.01640459 0.022252496 0.1280074 0.026758071 0.020928362 -0.013816662 0.090092525
0.12925135 0.101428136 0.029833108 0.01466083 0.100107655 -0.027763847 0.025454218 0.07667587
-0.037114497 -0.08393035 0.0779023 0.011002481 0.039378952 0.025051132 -0.01934514 -0.08179278
0.07260124 0.082569644 -0.08540677 0.05999661 -0.03762779 0.09308305 -0.008317026 0.11022194
-0.07761163 -0.048195597 -0.023136115 -0.05968395 0.02370586 -0.057384595 0.050028417 -0.03388659
-0.06992339 0.056759626 -0.07585841 0.090124674 0.022805288 0.102349386 -0.05061301 -0.11100298
-0.00932329 0.08452772 -0.013686722 -0.058470525 -0.0480508 -0.098615415 0.009766792 0.07102488
0.06944169 -0.02841582 0.013080748 0.022231707 -0.08388256 -0.016298918 -0.016171373 0.08829824
0.08560492 -0.010978618 -0.08044684 0.055999324 -0.042371854 -0.09115678 -0.0036400666 -0.059585802
-0.08457587 -0.051047314 0.09753718 -0.061528157 -0.031468015 -0.067521095 0.0659568 -0.027936546
0.047413822 -0.053495634 -0.0676128 -0.044951145 0.07352488 0.02979151 -0.056414545 0.046211746
0.013604006 0.081475556 -0.07097438 0.061590075 0.04702607 -0.00427468 0.009263447 -0.069846466
0.070671394 -0.09185626 0.016654262 -0.010376116 0.07953768 -0.08613389 -0.044248663 0.05344793
0.006720043 0.072294794 -0.029148214 -0.10908901 0.06698339 0.079161935 -0.0948317 -0.006994681
-0.05822442 -0.045537304 0.06941096 -0.07248302 0.080752164 0.0009564302 0.01584945 -0.113133125
0.011957019 0.011878132 0.034358557 -0.03510031 0.16137856 0.012630915 -0.048805736 0.068688534
-0.040985007 -0.06615323 -0.062223207 -0.11293843 0.01950559 0.05466074 0.023921007 0.036038596
0.097887605 -0.08226558 -0.03307725 -0.0485848 -0.0637291 -0.019391475 -0.01481874 -0.061766148
0.009367286 0.062514536 -0.05107061 -0.05129724 0.07974323 0.021898035 0.051552474 0.07914918
-0.041444167 0.06233161 -0.00014571524 0.043856155 0.06707639 0.04431432 -0.045490198 0.02304772
-0.046459135 0.005617026 0.08486304 0.054939024 0.07862648 0.012516139 -0.032664474 0.031165928
-0.047458235 -0.073179364 0.05141775 -0.027630111 -0.013654075 0.043245543 0.03684622 -0.14331958
0.024390731 0.08206004 0.07539804 0.053051647 0.044898402 0.06369045 -0.063790254 0.056100637
-0.05932109 0.08127255 0.0088311145 0.082712114 -0.056315295 0.0016184946 -0.061674923 0.072408386
0.011776265 -0.009864975 -0.059913132 0.07750708 0.0494581 -0.022343367 -0.08566147 0.0587611
00000000: 25a9 24bb 27b7 b1bd 0aa3 223c a1ad 9bbc
00000010: 5352 c6bc 1aa3 8bbc 4f73 523d 1035 b6bd
00000020: 2d43 5abc 9042 96bc 64e8 f83b bd3b 9a3c
00000030: 4a6f 87bd 6655 0b3e 84a2 8cbd ebd3 4b3d
00000040: 9aec 2cbd 02a1 453d a4d8 163d 8fbe 803d
00000050: f367 e8bc bbad c23d 9d02 913d df82 a03c
00000060: e622 c13d 1c8c 743d 7df8 6abd 7e84 2dbd
00000070: 93a0 af3d 7a75 073d e8b6 a73d 93b0 70bd
00000080: 63c1 a73d 8a75 403d db08 d53c e178 25bd
00000090: f14d aabc cfd9 06bd 65f3 103e f569 a2bd
000000a0: 1a30 113c 7a2d 8cbd 2012 1bbd 1430 813c
000000b0: 088a 9cbd e1c1 d1bc 3d3d 513d 0583 983d
000000c0: 565a 833d b1b5 a03d f347 ab3d c897 8a3d
000000d0: cd6f 89bd 8bce 32bc d6ef e23b 2b98 c73d
000000e0: af83 f03b eb62 86bc de4a b63c 5f14 033e
000000f0: be33 db3c f571 ab3c 485f 62bc 6e82 b83d
00000100: 775a 043e 8eb9 cf3d 9064 f43c fa33 703c
00000110: 3e05 cd3d 0271 e3bc 5d85 d03c 3d08 9d3d
00000120: 5f05 18bd ade3 abbd 3e8b 9f3d c043 343c
00000130: d34b 213d 0838 cd3c b379 9ebc f982 a7bd
00000140: f5af 943d 461a a93d bfe9 aebd 01bf 753d
00000150: 991f 1abd 53a2 be3d 2344 08bc 0abc e13d
00000160: d9f2 9ebd bf68 45bd f387 bdbc 2877 74bd
00000170: cb32 c23c 1c0c 6bbd 99ea 4c3d aacc 0abd
00000180: ff33 8fbd c87c 683d a75b 9bbd 4993 b83d
00000190: 28d2 ba3c 8e9c d13d 964f 4fbd 8855 e3bd
000001a0: b6c0 18bc df1c ad3d 463e 60bc ca7e 6fbd
000001b0: ead0 44bd e1f6 c9bd e504 203c 7e75 913d
000001c0: 7237 8e3d 4bc8 e8bc a250 563c 451f b63c
000001d0: 9fca abbd 4f85 85bc d479 84bc b5d5 b43d
000001e0: a251 af3d a9df 33bc 50c1 a4bd 8c5f 653d
000001f0: 1c8e 2dbd 68b0 babd 2f8e 6ebb 3e10 74bd
00000200: 1d36 adbd fd16 51bd 93c1 c73d f304 7cbd
00000210: 9be4 00bd 8048 8abd 5c14 873d 2fdb e4bc
00000220: ff34 423d 3d1e 5bbd 9478 8abd b11e 38bd
00000230: 3694 963d 530d f43c f012 67bd 8748 3d3d
00000240: 56e3 5e3c a8dc a63d 045b 91bd e045 7c3d
00000250: 699e 403d 9d12 8cbb b6c5 173c aa0b 8fbd
00000260: 2abc 903d 231f bcbd 856e 883c 9600 2abc
00000270: a7e4 a23d f766 b0bd 163e 35bd 37ec 5a3d
00000280: ce33 dc3b 4b0f 943d 3cc8 eebc 0f6a dfbd
00000290: 962e 893d a71f a23d 1f37 c2bd a333 e5bb
000002a0: bb7c 6ebd 5385 3abd 5527 8e3d fa71 94bd
000002b0: 6461 a53d f2b8 7a3a b5d6 813c 57b2 e7bd
000002c0: 5fe7 433c 7f9c 423c 8fbb 0c3d 58c5 0fbd
000002d0: 6c40 253e e6f1 4e3c 86e8 47bd 93ac 8c3d
000002e0: e5df 27bd 587b 87bd c3dd 7ebd 434c e7bd
000002f0: 30ca 9f3c f1e3 5f3d fdf5 c33c 359d 133d
00000300: 4c79 c83d db7a a8bd 037c 07bd db00 47bd
00000310: 6784 82bd dfda 9ebc 4dca 72bc 80fe 7cbd
00000320: 3f79 193c 9f07 803d 6a2f 51bd 0e1d 52bd
00000330: 6b50 a33d 8263 b33c b028 533d f718 a23d
00000340: 5cc1 29bd 6e4f 7f3d 23cb 18b9 83a2 333d
00000350: 595f 893d ef82 353d ee53 3abd 92ce bc3c
00000360: ef4b 3ebd 070f b83b accc ad3d be07 613d
00000370: ec06 a13d 7e10 4d3c 2fcb 05bd b04f ff3c
00000380: 9163 42bd 10df 95bd 6b9b 523d 8b58 e2bc
00000390: 57b5 5fbc 3d22 313d 10ec 163d 5ec2 12be
000003a0: 12cf c73c 180f a83d 4a6a 9a3d af4c 593d
000003b0: 63e7 373d 2370 823d 77a4 82bd c8c9 653d
000003c0: acfa 72bd 3972 a63d 61b0 103c f864 a93d
000003d0: deaa 66bd ab23 d43a d89e 7cbd d94a 943d
000003e0: 3cf1 403c b4a0 21bc 7967 75bd 08bc 9e3d
000003f0: 9494 4a3d 7009 b7bc 486f afbd 7baf 703d

layers.3.bias f4 [12]
-0.14174332 0.046397433 0.08942896 0.07970114 -0.024789793 0.008649821 0.008070626 -0.022239536
-0.118427195 0.051801477 -0.0004083264 0.013239743
00000000: 2925 11be 3c0b 3e3d 8826 b73d 5a3a a33d
00000010: f713 cbbc fbb7 0d3c a93a 043c b02f b6bc
00000020: f589 f2bd c92d 543d a414 d6b9 82eb 583c
