trained_models/G_0_exp.pth (torch_old, 146761 bytes, 8 tensors)

layers.0.weight f4 [128, 13]
0.224913 -0.13025342 0.24868025 -0.24560694 0.30260485 0.080852054 -0.31799954 0.033423632
-0.09441228 0.047061153 0.006555264 -0.18798313 0.34598854 -0.26010123 -0.14807719 -0.14211237
-0.17011665 0.2577538 -0.14136665 0.30065835 0.025400957 0.20268813 -0.13347964 -0.29459715
-0.20681392 0.118188776 -0.2711474 -0.25900716 -0.17234157 0.2081586 0.17578094 0.07924271
-0.056418374 -0.2966732 -0.14223316 0.18809378 0.055419017 -0.049272504 -0.032762583 -0.1521924
0.019101342 0.16108719 -0.022154905 0.14690144 0.016433472 0.15713078 0.27693218 -0.15004686
0.27380154 -0.043810528 -0.033545632 -0.27311963 -0.12700418 -0.0012509789 -0.27220637 -0.20720947
-0.19441557 0.11778778 -0.24826925 0.20120929 -0.18280008 -0.12397018 0.094992705 -0.10671377
0.25275517 0.13474523 0.027795134 0.12023167 -0.20144197 -0.22643182 0.27466616 0.0046022735
0.11019971 0.11820785 0.041980386 -0.3152395 -0.21380495 -0.06863387 -0.20067152 0.2137683
-0.015690552 0.13849638 0.121192776 -0.18751036 0.28486624 0.10621152 0.23190705 -0.19905823
0.23731548 0.3086205 0.2554817 -0.105670296 0.05768194 0.30696493 -0.117600575 0.23689564
0.067768 -0.009947491 0.1925736 0.16206643 -0.1756934 -0.36742377 -0.28199852 -0.005224523
-0.12343358 -0.12826046 -0.23222552 -0.17896387 -0.24541895 0.037377257 -0.06912227 0.104606524
0.27015567 0.034358937 0.26476938 0.04380647 -0.2854069 0.15411955 0.23202 -0.12508452
0.075619906 0.10389869 -0.1340473 0.1609596 -0.16621427 0.027002191 0.24897958 0.27115145
0.2166291 -0.20294489 0.19478157 -0.19224939 -0.15000416 -0.097209685 -0.20178215 0.08545295
-0.3243647 0.09136614 0.020060424 0.16417134 0.03782539 0.016826607 -0.06449563 0.151619
0.09612004 0.24569766 0.2928176 -0.26282647 -0.086563274 0.056086574 -0.15313959 -0.23142585
-0.13442965 -0.24897574 0.2209136 -0.1712948 0.4493301 0.019675871 -0.26316303 0.07091296
-0.12476233 0.17191805 -0.18938716 -0.0022290854 0.032548618 -0.14784765 -0.27219278 0.2397732
-0.057484496 -0.1845845 -0.08932588 0.3308772 -0.23061727 0.27348584 -0.10550762 0.18718892
0.06817655 0.16403632 -0.014231563 -0.25607786 0.05487737 0.07069453 -0.0704178 0.11239009
-0.23260124 0.14091156 -0.15777802 0.18562499 0.066896155 0.1681198 -0.18189488 -0.28501478
-0.16675076 0.30024618 -0.07341476 0.25726804 -0.24798091 0.21726198 -0.057099923 0.17731835
-0.09812936 0.056803282 0.08795432 -0.06630674 -0.08325711 0.041346084 0.0821003 0.20728241
-0.17927371 -0.17600062 0.17416568 -0.11243147 0.12090477 -0.13751376 0.41627294 0.2127706
0.2187814 -0.2246338 0.115604125 0.21652395 0.18126492 -0.24213232 -0.20355786 -0.09010468
-0.25195932 0.23190948 0.15901354 -0.17837988 0.20247671 -0.28003192 0.09266171 0.008740754
-0.14824055 0.2915576 -0.074738316 0.14612362 -0.1622704 0.24284738 -0.15599068 -0.106672145
-0.06408038 -0.33543864 -0.21522775 0.19923449 0.16460522 -0.089522466 -0.25223362 0.23649444
0.25101212 -0.068410434 0.09943685 0.10906836 -0.022621753 -0.009097144 -0.26251882 0.08730626
00000000: 984f 663e 2761 05be 09a6 7e3e 6380 7bbe
00000010: 06ef 9a3e c395 a53d d6d0 a2be 38e7 083d
00000020: 3a5b c1bd 32c3 403d 8acd d63b a67e 40be
00000030: 6925 b13e fd2b 85be 8ca1 17be e885 11be
00000040: 0f33 2ebe 4ef8 833e 6bc2 10be e4ef 993e
00000050: ab15 d03c 7a8d 4f3e e3ae 08be 70d5 96be
00000060: 07c7 53be f50c f23d d5d3 8abe 969c 84be
00000070: 4f7a 30be 8727 553e ebff 333e 004a a23d
00000080: f416 67bd 8de5 97be 92a5 11be a89b 403e
00000090: 0dff 623d f7d1 49bd 0f32 06bd 53d8 1bbe
000000a0: 6b7a 9c3c 0af4 243e 347e b5bc 556d 163e
000000b0: 7d9f 863c e4e6 203e 0eca 8d3e e2a5 19be
000000c0: b72f 8c3e ab72 33bd 2567 09bd 56d6 8bbe
000000d0: 620d 02be e3f7 a3ba a25e 8bbe b82e 54be
000000e0: e014 47be b83a f13d 4b3a 7ebe cf09 4e3e
000000f0: f22f 3bbe 14e4 fdbd 898b c23d c08c dabd
00000100: 2069 813e a7fa 093e 9fb2 e33c 063c f63d
00000110: ce46 4ebe bedd 67be 0ba1 8c3e abce 963b
00000120: 63b0 e13d f516 f23d a0f3 2b3d 1267 a1be
00000130: afef 5abe ea8f 8cbd d67c 4dbe 14e6 5a3e
00000140: 7989 80bc ffd1 0d3e eb33 f83d b702 40be
00000150: fdd9 913e 6d85 d93d 0b79 6d3e ecd5 4bbe
00000160: d402 733e 8203 9e3e 7fce 823e ab69 d8bd
00000170: e643 6c3d 822a 9d3e 92d8 f0bd c594 723e
00000180: f3c9 8a3d cdfa 22bc 0432 453e bef4 253e
00000190: f8e8 33be f81e bcbe 1c62 90be 7a32 abbb
000001a0: bfca fcbd b656 03be 87cc 6dbe 4e42 37be
000001b0: 1b4f 7bbe e518 193d fa8f 8dbd f23b d63d
000001c0: d851 8a3e f5bb 0c3d da8f 873e 6a6e 333d
000001d0: da20 92be 84d1 1d3e a796 6d3e 2816 00be
000001e0: 9cde 9a3d d6c8 d43d b243 09be 98d2 243e
000001f0: 1334 2abe b333 dd3c 81f4 7e3e 5dd4 8a3e
00000200: 05d4 5d3e c9d0 4fbe d274 473e 06dd 44be
00000210: b19a 19be df15 c7bd fb9f 4ebe f501 af3d
00000220: 2113 a6be 2c1e bb3d c255 a43c 881c 283e
00000230: ccee 1a3d f4d7 893c 4916 84bd 0342 1b3e
00000240: 95da c43d 2b98 7b3e 30ec 953e 3191 86be
00000250: 1648 b1bd 09bb 653d a0d0 1cbe e6fa 6cbe
00000260: eda7 09be 7ff3 7ebe 2d37 623e e767 2fbe
00000270: 980e e63e 4b2f a13c 4ebd 86be d03a 913d
00000280: 6483 ffbd 490b 303e b5ee 41be d915 12bb
00000290: b351 053d 6065 17be da5c 8bbe 1b87 753e
000002a0: dd74 6bbd b803 3dbe 7df0 b6bd bd68 a93e
000002b0: ef26 6cbe 5606 8c3e 6114 d8bd 74ae 3f3e
000002c0: 26a0 8b3d 23f9 273e 802b 69bc a31c 83be
000002d0: 18c7 603d 4bc8 903d 3537 90bd c72c e63d
000002e0: 052f 6ebe 1f4b 103e 9090 21be 7a14 3e3e
000002f0: da00 893d 9927 2c3e a742 3abe 75ed 91be
00000300: b6c0 2abe deb9 993e 7a5a 96bd a3b8 833e
00000310: b5ee 7dbe ed79 5e3e 9ce1 69bd f192 353e
00000320: 0cf8 c8bd 8faa 683d 6521 b43d d4cb 87bd
00000330: b482 aabd 835a 293d 3424 a83d d741 543e
00000340: 8793 37be 8239 34be 7d58 323e 7842 e6bd
00000350: ec9c f73d 68d0 0cbe ba21 d53e 89e0 593e
00000360: 3b08 603e 6706 66be dbc1 ec3d 74b8 5d3e
00000370: 839d 393e 89f1 77be 7971 50be cd88 b8bd
00000380: d000 81be ae79 6d3e 72d4 223e 37a9 36be
00000390: 0e56 4f3e 5860 8fbe 6cc5 bd3d 6135 0f3c
000003a0: 5fcc 17be 0a47 953e 6710 99bd 6ea1 153e
000003b0: 362a 26be fcac 783e 05bc 1fbe ed76 dabd
000003c0: 933c 83bd 9dbe abbe aa64 5cbe 2004 4c3e
000003d0: 458e 283e 8e57 b7bd c424 81be 992b 723e
000003e0: a984 803e c51a 8cbd 8ca5 cb3d 3b5f df3d
000003f0: 4151 b9bc 300c 15bc de68 86be a0cd b23d

layers.0.bias f4 [128]
-0.18933447 0.16756094 -0.111799665 -0.25942743 -0.23292571 -0.08781063 -0.03662008 0.1708015
-0.06584627 -0.21690074 0.003599655 0.09906972 -0.099788606 -0.0065051606 -0.2122141 0.1071061
0.035195924 -0.23703215 -0.12829459 0.20152932 -0.12861717 -0.21562353 0.19443643 0.22231114
-0.22295444 0.21275038 -0.19880334 -0.16889521 0.02524392 0.23913288 -0.112679206 0.17193584
0.12689044 0.17555116 -0.09073346 -0.06207414 0.06728264 0.1173116 0.012651347 0.060720228
-0.08042541 -0.07810413 0.17469916 -0.14387824 -0.22385405 -0.25374687 0.08341496 0.26358515
0.098886155 -0.15587522 0.15428606 0.11943799 -0.23882097 0.1905356 0.15727991 -0.054122172
-0.14041568 -0.16513203 -0.18682063 -0.2391638 0.217373 0.07673534 0.03695289 0.038778115
-0.20980293 0.06458194 0.20676912 -0.21359849 0.06892267 -0.16276948 0.12946598 -0.15477914
-0.13202946 0.24253744 -0.009571903 0.007913664 0.0632678 0.30422238 0.22269188 0.21858767
-0.21254702 0.1620623 0.12436189 0.15890318 0.10766384 0.28192997 -0.12912111 -0.1159989
0.028283726 0.23902917 0.040835373 0.28956303 0.026970727 -0.16150403 0.16993442 0.23650421
0.29513103 0.012016806 -0.106530674 0.13255283 -0.23804455 -0.24763617 -0.18547931 0.20728414
-0.15199251 0.19546856 -0.15458764 0.0724297 -0.08464994 0.22362413 0.2205879 0.2900354
0.060106788 -0.17102732 -0.0031021347 0.089900024 -0.19360432 -0.15754016 0.19283228 -0.2050016
-0.07561248 -0.1071867 -0.07168148 0.21106327 -0.24333796 0.24386832 0.026261766 -0.11222307
00000000: e5e0 41be 1895 2b3e 39f7 e4bd acd3 84be
00000010: 1484 6ebe 0fd6 b3bd f0fe 15bd 97e6 2e3e
00000020: 69da 86bd 3a1b 5ebe 31e8 6b3b 11e5 ca3d
00000030: f85d ccbd 3e29 d5bb a74e 59be 715a db3d
00000040: 9a29 103d 8eb8 72be a85f 03be b45d 4e3e
00000050: 38b4 03be 6acc 5cbe 581a 473e 88a5 633e
00000060: 2b4e 64be 3cdb 593e 1a93 4bbe def2 2cbe
00000070: 56cc ce3c 40df 743e 5bc4 e6bd f30f 303e
00000080: 91ef 013e afc3 333e 77d2 b9bd 7441 7ebd
00000090: 7bcb 893d 1041 f03d 9847 4f3c c6b5 783d
000000a0: 14b6 a4bd 0ff5 9fbd 56e4 323e d154 13be
000000b0: ff39 65be 1ceb 81be 76d5 aa3d a2f4 863e
000000c0: d384 ca3d c19d 1fbe 2afd 1d3e e89b f43d
000000d0: 7c8d 74be c41b 433e fc0d 213e 36af 5dbd
000000e0: 21c9 0fbe 5f18 29be e84d 3fbe 5be7 74be
000000f0: 0797 5e3e 6b27 9d3d ea5b 173d cdd5 1e3d
00000100: 94d6 56be 8943 843d 49bb 533e 90b9 5abe
00000110: 5427 8d3d 0bad 26be bb92 043e 6c7e 1ebe
00000120: bb32 07be bc5b 783e 79d3 1cbc 50a8 013c
00000130: 8c92 813d 09c3 9b3e 5709 643e 72d5 5f3e
00000140: eda5 59be a9f3 253e 72b1 fe3d 84b7 223e
00000150: dc7e dc3d 2059 903e 5338 04be d590 edbd
00000160: 46b3 e73c 10c4 743e fe42 273d 9b41 943e
00000170: b7f1 dc3c 5061 25be 4a03 2e3e 292e 723e
00000180: 6a1b 973e 23e2 443c c12c dabd eebb 073e
00000190: f3c1 73be 5694 7dbe 4aee 3dbe 4b42 543e
000001a0: eda3 1bbe e928 483e 394c 1ebe 0656 943d
000001b0: f35c adbd b9fd 643e cbe1 613e 857f 943e
000001c0: 8932 763d c921 2fbe 2f4d 4bbb 811d b83d
000001d0: 3640 46be 3552 21be d375 453e f0eb 51be
000001e0: b7da 9abd b384 dbbd bdcd 92bd f820 583e
000001f0: 962d 79be 9eb8 793e ea22 d73c 35d5 e5bd

layers.1.weight f4 [128, 128]
-0.057771616 0.05752961 -0.066194445 0.013969667 -0.042342752 0.019974131 0.065867335 -0.00239768
-0.08917182 -0.04550241 -0.05553948 -0.021447664 -0.03985441 0.025458787 -0.01709814 0.027036462
0.07357436 0.03302154 -0.081754535 -0.05764471 0.012873101 0.1279777 0.039883997 -0.016494486
-0.014706942 0.004169875 0.108653076 0.014422686 0.0146262385 0.011030112 -0.005250707 -0.03949653
0.059007958 -0.0033171247 -0.0021728508 -0.049738165 0.07140575 0.066871785 0.0056036506 -0.11073172
0.06735592 0.00043235664 -0.10893731 0.0799209 -0.07646978 -0.06725181 0.015690263 -0.03654732
0.047700595 0.020875001 -0.095803626 0.055745352 0.05633929 -0.050214473 -0.037628286 0.03996332
0.14175129 0.057208054 0.047820974 0.02815003 0.04163827 -0.08804095 -0.012522941 0.060107306
0.03175282 -0.11118643 -0.047016345 -0.0090266345 0.14370725 -0.013849504 -0.018390587 0.10738419
-0.079760075 -0.021123776 0.08827238 -0.056413725 -0.01582042 0.024288936 -0.033718005 0.038130622
-0.08157814 0.09316321 -0.03072636 0.098479904 -0.0900045 -0.08161431 -0.024129964 0.08592407
-0.017983189 -0.02465089 0.040428817 -0.09285143 -0.023256546 -0.011462835 -0.0112793045 0.011250908
-0.055303615 0.046166275 -0.037287664 -0.034211535 0.038472563 -0.12062786 -0.009871287 0.09721823
-0.041797627 0.052809764 0.11444559 -0.04580302 0.07103418 -0.05248577 0.09177548 0.10046008
0.012454359 -0.11391697 -0.044828646 0.107389346 0.013044717 -0.06627346 -0.02720813 0.024281796
0.04815269 -0.06624291 -0.07379211 -0.12645979 -0.0658116 -0.036214307 -0.02296397 0.07375126
0.015911743 -0.015839985 0.10603517 0.08933995 0.00584997 -0.08173052 0.092218675 -0.02785932
0.10537646 0.08934539 -0.060328443 -0.09822948 0.036717054 -0.04600012 0.03862651 0.028407997
-0.06034858 -0.04680339 0.07787026 0.010578715 0.10080771 -0.062185794 0.01552132 -0.043371245
0.07515988 0.04790095 -0.041359093 -0.06157911 -0.002853659 -0.02255338 -0.014336187 0.088696085
0.0020566352 -0.0448851 -0.015658414 -0.019204564 0.07853055 -0.1078637 0.016397927 0.11856409
0.0050170347 -0.054823507 -0.063518934 0.049326178 0.14846255 -0.09467783 -0.07320635 -0.029323991
-0.045858875 0.032533143 0.07428059 0.029320111 0.09797527 0.062022526 0.13094033 -0.0842057
-0.10914525 -0.0066836933 0.06601355 0.04722821 0.011378641 0.120195605 -0.0077311685 -0.06285925
0.09476544 0.10314315 0.034042377 -0.022726646 0.05865356 0.09977714 -0.09450045 0.03954673
0.050975274 -0.041457623 0.04014888 0.048852585 -0.02366291 0.004177171 -0.019136945 0.049820174
0.09765475 -0.058220167 0.00523653 -0.04303324 0.041853342 -0.04077301 -0.0044114217 -0.09943484
0.08978942 -0.054354418 -0.018935893 0.06253823 0.04629197 0.02979696 0.032767113 -0.042035956
-0.03499063 -0.016771296 -0.05267374 0.06339493 -0.021721317 0.10009203 0.076600015 -0.030270198
0.069327295 0.056783598 0.011842025 -0.019673618 0.04697409 -0.029170396 0.062230706 -0.011502254
-0.034747183 0.080521695 0.08817755 -0.080562085 -0.107300825 0.030639926 0.056849092 -0.04883191
0.0319116 0.008841194 0.08282553 0.05210859 0.116557196 -0.017665168 0.100498736 -0.024822377
00000000: eea1 6cbd 2ba4 6b3d f490 87bd 08e1 643c
00000010: 986f 2dbd caa0 a33c 74e5 863d 6522 1dbb
00000020: b79f b6bd bc60 3abd 5e7d 63bd 03b3 afbc
00000030: 613e 23bd f28e d03c 6611 8cbc 927b dd3c
00000040: 27ae 963d 9841 073d ec6e a7bd dc1c 6cbd
00000050: b3e9 523c 960c 033e 675d 233d 721f 87bc
00000060: 63f5 70bc 72a3 883b 8185 de3d 214d 6c3c
00000070: e4a2 6f3c a5b7 343c 1f0e acbb 1dc7 21bd
00000080: 54b2 713d 1e64 59bb 6366 0ebb 3fba 4bbd
00000090: 2e3d 923d 13f4 883d d49e b73b 50c7 e2bd
000000a0: e7f1 893d edad e239 861a dfbd 92ad a33d
000000b0: 309c 9cbd 51bb 89bd de88 803c a5b2 15bd
000000c0: b361 433d 0d02 ab3c b134 c4bd 3d55 643d
000000d0: 07c4 663d b1ad 4dbd 1e20 1abd 94b0 233d
000000e0: 4027 113e fe52 6a3d eddf 433d e49a e63c
000000f0: e48c 2a3d d04e b4bd 062d 4dbc 1433 763d
00000100: 3f0f 023d b6b5 e3bd 3694 40bd 73e4 13bc
00000110: fe27 133e 08e9 62bc dba7 96bc 3eec db3d
00000120: 4059 a3bd c50b adbc 26c8 b43d 1412 67bd
00000130: d399 81bc 97f9 c63c e41b 0abd db2e 1c3d
00000140: 7112 a7bd 5acc be3d d9b5 fbbc d5af c93d
00000150: 4754 b8bd 6725 a7bd 34ac c5bc f5f8 af3d
00000160: 7b51 93bc aaf0 c9bc b098 253d e428 bebd
00000170: 8384 bebc 9dce 3bbc d5cc 38bc ba55 383c
00000180: 0b86 62bd d918 3d3d f3ba 18bd 6521 0cbd
00000190: 6895 1d3d bd0b f7bd 2ebb 21bc 5a1a c73d
000001a0: fd33 2bbd 0d4f 583d 7362 ea3d f39b 3bbd
000001b0: 5e7a 913d 52fb 56bd c8f4 bb3d 04be cd3d
000001c0: 5e0d 4c3c 4d4d e9bd 3e9e 37bd f2ee db3d
000001d0: 82b9 553c 61ba 87bd 96e3 debc 9eea c63c
000001e0: c13b 453d 5daa 87bd 5120 97bd ad7e 01be
000001f0: 3bc8 86bd 7455 14bd f01e bcbc e70a 973d
00000200: 5859 823c dbc2 81bc f828 d93d ddf7 b63d
00000210: 1bb1 bf3b 5562 a7bd 25dd bc3d 3b39 e4bc
00000220: 9dcf d73d b7fa b63d f51a 77bd 8a2c c9bd
00000230: 9f64 163d 9f6a 3cbd d536 1e3d e3b7 e83c
00000240: 1330 77bd e9b4 3fbd 717a 9f3d 5952 2d3c
00000250: 4674 ce3d 88b6 7ebd 224d 7e3c 0ca6 31bd
00000260: 6ced 993d c933 443d 2768 29bd 603a 7cbd
00000270: 7404 3bbb dec1 b8bc 54e2 6abc 4ba6 b53d
00000280: 9dc8 063b 70d9 37bd 1346 80bc e452 9dbc
00000290: a0d4 a03d a5e7 dcbd f254 863c bbd1 f23d
000002a0: f065 a43b 9d8e 60bd 3716 82bd 3f0a 4a3d
000002b0: 9106 183e 73e6 c1bd 36ed 95bd de38 f0bc
000002c0: 84d6 3bbd 7941 053d 6c20 983d bb30 f03c
000002d0: 42a7 c83d 550b 7e3d 3915 063e 0a74 acbd
000002e0: 8b87 dfbd e202 dbbb 1d32 873d 5e72 413d
000002f0: 7b6d 3a3c 1d29 f63d be55 fdbb 5abc 80bd
00000300: 6214 c23d b73c d33d 0570 0b3d 3b2d babc
00000310: b73e 703d f557 cc3d 7489 c1bd c1fb 213d
00000320: 73cb 503d 78cf 29bd 2773 243d a619 483d
00000330: b8d8 c1bc a6e0 883b 15c5 9cbc 3d10 4c3d
00000340: 37ff c73d 4578 6ebd 3397 ab3b 9f43 30bd
00000350: 696e 2b3d 9a01 27bd b08d 90bb 7ea4 cbbd
00000360: 84e3 b73d bda2 5ebd 721f 9bbc 0b14 803d
00000370: a69c 3d3d c118 f43c cf36 063d e52d 2cbd
00000380: 5652 0fbd f563 89bc 6bc0 57bd 33d5 813d
00000390: e7f0 b1bc 0dfd cc3d 78e0 9c3d 35f9 f7bc
000003a0: 78fb 8d3d eb95 683d 0e05 423c 912a a1bc
000003b0: e767 403d c1f6 eebc a0e5 7e3d f373 3cbc
000003c0: 1053 0ebd 8fe8 a43d 6e96 b43d bcfd a4bd
000003d0: 89c0 dbbd 9500 fb3c 98da 683d f803 48bd
000003e0: bdb5 023d a8da 103c 6ea0 a93d d16f 553d
000003f0: 8ab5 ee3d 8bb6 90bc 48d2 cd3d 4c58 cbbc

layers.1.bias f4 [128]
0.062133066 -0.048828702 -0.0011152659 -0.0056153988 0.0014515574 -0.03737253 0.02367481 -0.061880633
-0.023093542 0.06348926 -0.012387744 -0.108072095 -0.026635682 -0.058963522 -0.026719121 -0.034237295
0.07716284 -0.05824368 -0.00020444275 0.02943509 -0.062937096 0.037437234 -0.014136598 0.08070092
0.041340716 -0.045544717 0.004602602 -0.011748696 -0.025359288 -0.019356826 0.03453852 -0.0011273355
-0.08337523 -0.07902997 0.06260136 0.06638767 0.050979078 -0.07680355 0.057314143 0.014511025
0.0038532226 -0.09004576 -0.024796763 -0.04755589 -0.07468097 0.025776817 -0.035187297 0.067338444
0.018757636 0.053791553 0.023030972 0.062046304 -0.004250324 -0.048983436 -0.032388296 0.09567548
-0.07449002 -0.07032507 -0.047564685 -0.0022166602 0.028831027 0.05877036 -0.01585235 -0.0421746
-0.008018481 0.11132083 0.009400534 0.054416303 0.08390721 -0.059576105 0.025987016 -0.011661028
-0.009262579 0.030106563 0.039415 0.009111917 -0.04366669 -0.03247689 0.05963496 -0.054567654
-0.030089507 -0.030616043 -0.06385498 0.044865977 0.023169314 0.041440986 -0.079172194 0.03473528
0.06757626 -0.05819587 -0.0732318 -0.034232035 0.081661984 0.03198198 0.09119318 0.04412485
-0.041845582 0.021422794 0.054015808 0.10374868 -0.029019278 0.054795187 -0.030602414 -0.03258286
0.059258267 0.06894051 0.101787835 -0.062123906 0.056414697 -0.01676135 0.032101125 -0.046363402
0.050401434 -0.10167661 0.03276376 -0.023840511 -0.018548395 -0.0025164124 0.07074423 0.016489854
-0.025954887 0.07327209 0.08724819 0.016955603 0.08998577 -0.059766207 -0.041420348 0.047179222
00000000: 3e7f 7e3d 9b00 48bd 1d2e 92ba 6101 b8bb
00000010: 2f42 be3a f013 19bd adf1 c13c 8c76 7dbd
00000020: ab2e bdbc a806 823d f7f5 4abc e754 ddbd
00000030: 1333 dabc bc83 71bd 0fe2 dabc 683c 0cbd
00000040: 8d07 9e3d ed90 6ebd af5f 56b9 dc21 f13c
00000050: 2ae5 80bd c957 193d 319d 67bc 8646 a53d
00000060: e254 293d 198d 3abd 6dd1 963b 9a7d 40bc
00000070: 48be cfbc 3592 9ebc 4378 0d3d 1ac3 93ba
00000080: a2c0 aabd 77da a1bd 2435 803d 42f6 873d
00000090: 70cf 503d 2e4b 9dbd 3cc2 6a3d a6bf 6d3c
000000a0: 5986 7c3b e969 b8bd 9522 cbbc f7c9 42bd
000000b0: 56f2 98bd e729 d33c 8e20 10bd bde8 893d
000000c0: 9da9 993c 8854 5c3d 73ab bc3c 4424 7e3d
000000d0: 4d46 8bbb dba2 48bd 97a9 04bd 82f1 c33d
000000e0: 398e 98bd 9706 90bd 30d3 42bd 6345 11bb
000000f0: 0c2f ec3c 30b9 703d cadc 81bc 46bf 2cbd
00000100: f25f 03bc 2dfc e33d b304 1a3c a1e3 5e3d
00000110: 8bd7 ab3d 1306 74bd b9e2 d43c e50d 3fbc
00000120: 12c2 17bc 0aa2 f63c 9f71 213d 264a 153c
00000130: d8db 32bd 7d06 05bd ca43 743d 5582 5fbd
00000140: 457e f6bc 7fce fabc 66c6 82bd 63c5 373d
00000150: 93cd bd3c 06be 293d 0825 a2bd 9546 0e3d
00000160: 6c65 8a3d cb5e 6ebd 8efa 95bd e436 0cbd
00000170: 663e a73d 89ff 023d 7dc3 ba3d 42bc 343d
00000180: 4666 2bbd db7e af3c ae3f 5d3d 307a d43d
00000190: d6b9 edbc eb70 603d eab1 fabc 9b75 05bd
000001a0: ccb8 723d af30 8d3d 2476 d03d a375 7ebd
000001b0: 1913 673d 194f 89bc 787c 033d 8de7 3dbd
000001c0: bc71 4e3d d43b d0bd 4b33 063d 2d4d c3bc
000001d0: cef2 97bc 65ea 24bb 5ae2 903d bb15 873c
000001e0: 589f d4bc ad0f 963d 2eaf b23d 7ae6 8a3c
000001f0: 764a b83d 69cd 74bd 62a8 29bd 003f 413d

layers.2.weight f4 [128, 128]
0.1458422 -0.09496546 0.045937736 0.05860639 -0.023127299 0.051463604 -0.0124008125 0.0925426
0.034382932 0.023424175 0.033108164 -0.03509298 -0.051229108 0.0022515077 0.04636959 0.026286636
0.066601045 -0.060513586 -0.027143063 -0.060448136 0.030799627 0.060118847 -0.052393153 0.06013371
0.026303947 -0.035609215 0.12363631 -0.117271885 -0.13988954 0.061084457 0.07485294 -0.068918295
-0.04159315 0.08164172 -0.014375679 -0.035363097 0.1467941 -0.06373411 0.034193166 -0.0022479293
0.009397091 0.017362278 -0.0022941304 -0.10523753 -0.06488034 -0.05741067 0.053477217 -0.042921845
0.053434957 -0.062200665 0.15624426 0.0528554 0.0319041 0.13608877 -0.0360653 0.02007404
-0.054148287 -0.010535317 -0.06709501 -0.05367274 -0.078383245 -0.04088721 0.0048495433 -0.086307906
0.043266132 -0.021015523 0.03465515 0.031839516 -0.064110644 0.10533211 -0.099071816 -0.047242206
0.0037331674 0.037107322 -0.097084224 0.025419014 -0.004556929 -0.04667573 0.017501747 -0.0011094476
0.039195012 -0.04533655 -0.037785392 0.06823975 0.050346904 -0.04258972 -0.08344238 -0.040433697
0.031048104 0.01055274 -0.19117056 0.07062383 -0.0152710555 -0.022679962 -0.050196234 0.069617875
-0.07044335 -0.11101491 0.087041475 -0.037745778 -0.069775335 0.0487578 -0.003986661 -0.04985509
0.04475844 0.05774277 -0.064232506 -0.111603476 -0.0196933 0.09407197 -0.029360952 -0.053721014
-0.010880171 0.06671846 -0.0702738 0.030038716 0.08150385 0.08855679 -0.06959337 0.057686742
-0.08958322 0.038414817 0.04022871 0.11598934 -0.024178723 0.0013402556 0.014564357 -0.08376188
0.008439654 0.13557735 0.06970044 0.037750874 0.029204357 -0.049273975 0.04918456 -0.053575985
0.13782865 -0.06476177 -0.059762374 0.15249008 -0.03904733 0.112982795 -0.02223103 -0.025824027
-0.009730003 0.093736716 0.06890656 0.035164427 0.053620618 0.06426778 -0.013446548 -0.06306695
0.023404596 -0.034381896 -0.15964775 -0.013323509 -0.035324313 0.061887637 -0.082578145 -0.08545465
0.022495313 0.06470542 -0.03077043 0.09588859 0.050599083 -0.019516427 0.09318152 0.05900128
0.02621794 0.11436067 0.05679349 0.04040945 0.09475264 0.032246623 -0.050975982 0.033981238
0.05465037 -0.041482307 0.03690486 0.08682519 0.10437896 -0.02465775 0.07069061 0.0410816
-0.01676476 -0.0245913 0.074287176 0.04156527 -0.009653899 -0.049867786 0.08430253 0.09582925
-0.003444361 0.06766862 0.06639932 0.017038325 0.056538913 -0.06025792 0.018217936 -0.0931564
0.10226289 0.12315607 0.042062666 0.09089153 -0.08920561 0.09728789 0.10053467 -0.037699204
-0.01621805 0.06396282 0.0533838 -0.01293341 0.082545236 -0.0062773027 0.0874856 0.056869723
0.05715381 0.109485544 0.04522682 0.1171371 0.08839134 -0.021930268 -0.004208288 -0.09533811
0.0380662 -0.0013708723 0.039175197 0.011858945 0.05196753 -0.13632447 -0.0264846 0.11181911
0.0086343195 0.033886638 -0.07161309 0.05528282 0.12016786 -0.0551575 0.060075358 0.050069526
0.004093232 0.0064692693 0.10630711 0.06522369 -0.035478182 0.09588289 0.04545678 -0.062140156
0.0943183 -0.029738117 0.011495573 -0.028009195 -0.005920685 -0.032642893 -0.048591826 0.05042977
00000000: a857 153e 407d c2bd 3529 3c3d 410d 703d
00000010: 7675 bdbc 80cb 523d c72c 4bbc fa86 bd3d
00000020: 1ed5 0c3d 0ee4 bf3c 6d9c 073d a8bd 0fbd
00000030: 9dd5 51bd 088e 133b 0aee 3d3d 1257 d73c
00000040: 2166 883d 18dd 77bd 215b debc 7798 77bd
00000050: 804f fc3c 2e3f 763d 349a 56bd c44e 763d
00000060: 607b d73c f8da 11bd 0935 fd3d 3e2c f0bd
00000070: 343f 0fbe b233 7a3d 804c 993d 0925 8dbd
00000080: 945d 2abd c633 a73d f887 6bbc e5d8 10bd
00000090: 3151 163e 0787 82bd 220e 0c3d ff51 13bb
000000a0: 42f6 193c 563b 8e3c 1f59 16bb c686 d7bd
000000b0: fcdf 84bd 7327 6bbd ed0a 5b3d d1ce 2fbd
000000c0: 9dde 5a3d 20c6 7ebd 7ffe 1f3e e77e 583d
000000d0: e0ad 023d db5a 0b3e 35b9 13bd 5072 a43c
000000e0: 98ca 5dbd 529c 2cbc 1c69 89bd f2d7 5bbd
000000f0: 6587 a0bd 5979 27bd ebe8 9e3b 33c2 b0bd
00000100: d437 313d bf28 acbc 8ff2 0d3d 276a 023d
00000110: 714c 83bd 5cb8 d73d 2ae6 cabd 0b81 41bd
00000120: 28a8 743b d9fd 173d 18d4 c6bd 893b d03c
00000130: 4b52 95bb 0d2f 3fbd d35f 8f3c e26a 91ba
00000140: f38a 203d d1b2 39bd dbc4 1abd 48c1 8b3d
00000150: 8e38 4e3d 8f72 2ebd d7e3 aabd ce9d 25bd
00000160: 9858 fe3c 66e5 2c3c 37c2 43be 3aa3 903d
00000170: 7333 7abc 54cb b9bc 919a 4dbd d193 8e3d
00000180: 9a44 90bd c95b e3bd cd42 b23d 519b 1abd
00000190: 5fe6 8ebd 42b6 473d 89a2 82bb da34 4cbd
000001a0: a054 373d af83 6c3d 558c 83bd 5d90 e4bd
000001b0: d853 a1bc cea8 c03d 6186 f0bc 910a 5cbd
000001c0: bf42 32bc b0a3 883d b6eb 8fbd c113 f63c
000001d0: 7eeb a63d 435d b53d f886 8ebd ef48 6c3d
000001e0: 6877 b7bd db58 1d3d dcc6 243d d28b ed3d
000001f0: 7512 c6bc 84ab af3a 579f 6e3c 598b abbd
00000200: 7946 0a3c cad4 0a3e 1bbf 8e3d a9a0 1a3d
00000210: fa3d ef3c 82d3 49bd c075 493d 7e72 5bbd
00000220: f422 0d3e d2a1 84bd 64c9 74bd 5c26 1c3e
00000230: 18f0 1fbd 8663 e73d d91d b6bc e98c d3bc
00000240: 976a 1fbc 09f9 bf3d e21e 8d3d 9308 103d
00000250: 4ba1 5b3d d39e 833d e94e 5cbc 3f29 81bd
00000260: ffba bf3c 08d4 0cbd b37a 23be d94a 5abc
00000270: 3ab0 10bd e47d 7d3d bb1e a9bd d902 afbd
00000280: 1748 b83c 4684 843d 4512 fcbc 3d61 c43d
00000290: fc40 4f3d eae0 9fbc f4d5 be3d 54ab 713d
000002a0: 01c7 d63c ed35 ea3d 4aa0 683d 6184 253d
000002b0: ac0d c23d 0915 043d 31cc 50bd e92f 0b3d
000002c0: 11d9 5f3d 5ae9 29bd 8d29 173d 68d1 b13d
000002d0: a3c4 d53d 0dff c9bc 3dc6 903d 2e45 283d
000002e0: 4056 89bc b273 c9bc e023 983d 5840 2a3d
000002f0: 632b 1ebc 2a42 4cbd cea6 ac3d 2042 c43d
00000300: caba 61bb d895 8a3d 5efc 873d f593 8b3c
00000310: 5995 673d 02d1 76bd c83d 953c c8c8 bebd
00000320: 356f d13d 4039 fc3d e749 2c3d 5725 ba3d
00000330: 6eb1 b6bd e03e c73d 1fe5 cd3d 7b6a 1abd
00000340: b7db 84bc f0fe 823d f9a8 5a3d a7e6 53bc
00000350: 7a0d a93d d5b1 cdbb a62b b33d 3af0 683d
00000360: 1d1a 6a3d f539 e03d c23f 393d 93e5 ef3d
00000370: 8506 b53d 1ba7 b3bc aee5 89bb a140 c3bd
00000380: 4eeb 1b3d d7ae b3ba 2c76 203d 054c 423c
00000390: e8db 543d a498 0bbe 3bf6 d8bc 6b01 e53d
000003a0: f676 0d3c b7cc 0a3d e2a9 92bd 3d70 623d
000003b0: 911a f63d d5ec 61bd 9411 763d b415 4d3d
000003c0: 8520 863b 2afc d33b 8bb7 d93d ff93 853d
000003d0: 9251 11bd 405e c43d e330 3a3d ad86 7ebd
000003e0: f429 c13d 5a9d f3bc ee57 3c3c 8a73 e5bc
000003f0: 4e02 c2bb 8eb4 05bd 3908 47bd 728f 4e3d

layers.2.bias f4 [128]
-0.0033700974 -0.044942625 0.01518839 0.085252665 0.06604528 -0.07803227 0.057794504 -0.011627801
-0.045831736 0.006345181 0.03884578 0.060945924 0.035291083 0.011112361 0.01709745 0.024249174
0.068294056 0.03052119 0.034408405 0.026156034 0.052211914 -0.056200795 0.036668584 0.005140236
0.033123873 0.025719522 -0.027695525 0.105225325 -0.0015999 0.11756795 0.05210237 0.02478921
0.016517032 0.0035784526 0.031515446 0.01526442 0.03320763 -0.035835568 0.095659025 0.013665557
-0.024223281 -0.050784484 -0.041260704 -0.023338623 0.1471399 0.0024101178 0.05486484 -0.032859266
-0.016447684 -0.051506888 0.07410151 0.039675772 0.018962162 -0.07945445 0.05507646 0.027278844
-0.004691749 -0.1171705 -0.04564282 0.049492445 -0.042600766 -0.0819929 -0.030110667 -0.07124127
-0.07770026 0.014789982 -0.07281092 -0.0076483134 -0.045715142 0.10749924 0.011946591 0.08063858
0.11238965 -0.008354456 -0.023320206 -0.0057859207 0.057786483 0.11428487 -0.056063406 -0.04679542
0.007515755 0.08735286 -0.059637133 0.01981149 0.027732076 -0.022938186 0.07522842 -0.014325737
0.032544512 -0.03603218 -0.015427996 0.019898064 0.042037237 0.024693608 0.089033045 0.06998205
0.10106637 0.083484225 -0.11063501 -0.050791215 0.04693712 -0.051517162 -0.05912046 0.003522839
-0.050561894 0.038155045 -0.015299376 0.059460975 0.067169785 0.12701452 0.015396237 0.03297404
0.043351576 -0.04422923 0.018701633 -0.06858274 0.0074395216 0.042973775 0.0018865777 0.09899349
0.05498894 0.10504691 -0.049738687 0.12994446 -0.0298348 0.033094924 0.014064048 0.013821373
00000000: dadc 5cbb c215 38bd bad8 783c f398 ae3d
00000010: bf42 873d 62cf 9fbd eeb9 6c3d 8882 3ebc
00000020: 0fba 3bbd 3ceb cf3b c11c 1f3d 6fa2 793d
00000030: 628d 103d 9f10 363c f40f 8c3c 34a6 c63c
00000040: c1dd 8b3d 9307 fa3c d4ef 0c3d 2e45 d63c
00000050: 29dc 553d ce32 66bd cc31 163d 6d6f a83b
00000060: e6ac 073d bfb1 d23c bae1 e2bc 6080 d73d
00000070: bcb3 d1ba 77c7 f03d 4b69 553d be12 cb3c
00000080: ba4e 873c 7984 6a3b 5716 013d 9e17 7a3c
00000090: b904 083d 51c8 12bd e1e8 c33d 80e5 5f3c
000000a0: e76f c6bc 6403 50bd fc00 29bd a430 bfbc
000000b0: d8ab 163e 11f3 1d3b f4b9 603d 7097 06bd
000000c0: 4bbd 86bc e3f8 52bd 88c2 973d 1083 223d
000000d0: 8956 9b3c 04b9 a2bd db97 613d e277 df3c
000000e0: 3ebd 99bb 16f7 efbd f7f3 3abd 97b8 4a3d
000000f0: 247e 2ebd e5eb a7bd a5aa f6bc f1e6 91bd
00000100: 5021 9fbd ae51 723c e41d 95bd b49e fabb
00000110: cd3f 3bbd 9028 dc3d a2bb 433c d725 a53d
00000120: 8b2c e63d 21e1 08bc 040a bfbc d297 bdbb
00000130: 85b1 6c3d 300e ea3d bea2 65bd 8eac 3fbd
00000140: b946 f63b 0ee6 b23d 1146 74bd b54b a23c
00000150: 612e e33c dde8 bbbc 5c11 9a3d 7fb6 6abc
00000160: 654d 053d 7b96 13bd b5c5 7cbc 4401 a33c
00000170: 3d2f 2c3d 404a ca3c f556 b63d c052 8f3d
00000180: e3fb ce3d c7f9 aa3d 9c94 e2bd 730a 50bd
00000190: 2341 403d a903 53bd 4c28 72bd 6edf 663b
000001a0: fd19 4fbd 7748 1c3d 3caa 7abc 5a8d 733d
000001b0: 5090 893d 1810 023e 8040 7c3c c90f 073d
000001c0: 6c91 313d b629 35bd 2b34 993c 1c75 8cbd
000001d0: 3bc7 f33b 4505 303d 0b47 f73a 19bd ca3d
000001e0: 153c 613d d622 d73d cbba 4bbd 2910 053e
000001f0: 1c68 f4bc 8b8e 073d e56c 663c 0a73 623c

layers.3.weight f4 [12, 128]
0.022673275 0.057774447 -0.054426122 0.033464245 -0.08540079 0.09067918 -0.061247822 0.064767525
0.10994011 0.035281364 -0.04932391 -0.06804096 0.023616182 -0.0356875 0.1376257 -0.09330234
-0.045770075 0.050233975 0.06249672 0.00031860734 0.05222014 -0.039358266 0.006686458 -0.08669995
-0.026562411 -0.0034222628 -0.0634449 -0.052735236 -0.047501206 -0.08968096 -0.0610216 -0.047788087
-0.0121240895 0.013032501 -0.0818417 -0.09125709 -0.017846866 0.01755157 0.008508932 0.0685366
-0.03675921 0.010805038 -0.0004198198 -0.07018634 -0.0045557558 0.009423636 0.087491564 -0.059850965
0.08684438 -0.088301495 -0.09443673 0.095362104 0.004869783 0.04566692 0.0031244855 0.015149825
0.06337552 -0.01248616 -0.08966252 -0.068281494 -0.0008117618 -0.032069217 0.06437792 -0.09700701
-0.06498373 -0.046795465 -0.01607548 0.017656064 -0.007868781 0.040479027 0.09408071 -0.088080525
-0.06131537 0.009940711 -0.04441235 0.0013392317 -0.06298766 -0.079122946 0.051573694 -0.059226923
0.034146905 -0.09871578 -0.015307387 -0.055876397 -0.027376426 0.024360977 -0.023882234 0.12148296
-0.045609962 0.061087716 -0.008164469 -0.020472523 -0.07866535 -0.07274378 -0.003071005 -0.027387464
0.07733746 0.09349296 0.104518965 0.061903216 -0.06287091 0.095094055 0.107760005 0.007317388
0.070574075 0.05591071 0.026963342 -0.0013715476 0.032566383 -0.026945619 -0.07443057 -0.05952388
0.025116049 -0.0648607 0.06315628 0.06941566 0.09160185 -0.00775401 0.027662126 0.016099714
-0.026784495 0.045827437 0.05334631 -0.02997083 -0.044953242 0.06006905 -0.035524268 0.0014949186
0.023620741 0.008959108 0.05977219 0.083174184 0.028242053 -0.038862064 0.062585145 -0.06263858
0.049475454 0.013744829 -0.06223615 0.038269587 0.0580371 -0.026902689 -0.03937325 -0.0040209596
-0.013771789 0.05951722 0.027482975 -0.075452685 0.082457215 -0.10105028 0.03184668 0.07448799
-0.018502982 -0.0039601475 -0.052013073 -0.0024662549 0.045879032 0.047567166 -0.021996422 -0.010944221
-0.031304587 -0.0007713279 -0.03677707 -0.00063586823 -0.08788535 -0.07582943 0.07201043 -0.048158485
-0.070402235 0.04526471 -0.060898367 0.07058266 0.008480859 -0.17609507 -0.01890001 -0.01960979
0.021397186 0.077478126 0.067748666 0.067004696 0.0016557104 0.008277634 0.01730665 -0.028456671
-0.1252904 -0.02987727 0.018309474 0.01873811 -0.018137336 -0.08779921 0.032153938 -0.02984122
-0.027414272 -0.049575444 -0.12210862 0.057984244 0.036163524 -0.023686329 0.035289183 -0.06141766
0.002483597 -0.025586614 -0.008280183 0.0807822 0.061517145 -0.0021577359 0.044941086 -0.012832362
0.002958296 0.0028940265 -0.10290364 -0.026619775 -0.034391478 -0.09885527 0.069310755 -0.06623472
0.057023775 -0.015008796 -0.050867155 -0.0127133755 0.033929385 -0.0656975 -0.056538723 -0.057996288
0.03853557 0.0076338365 -0.18841004 -0.04740509 0.04625962 -0.007133428 -0.085045986 0.03389469
0.028637996 -0.039473496 -0.16092415 -0.044506982 0.013563914 -0.016557427 0.073255695 0.04713369
0.033453174 0.0022973449 -0.06413119 0.02011328 0.010187766 -0.018407753 -0.0138522815 0.0034689147
0.059386224 0.057593893 -0.09631585 0.019641824 -0.0178026 -0.05278461 -0.06575875 0.007971674
00000000: 4ebd b93c e6a4 6c3d eded 5ebd ce11 093d
00000010: 9ce6 aebd 02b6 b93d ffde 7abd d6a4 843d
00000020: 4828 e13d 3183 103d de07 4abd 0f59 8bbd
00000030: b976 c13c 0e2d 12bd c0ed 0c3e 4c15 bfbd
00000040: 6779 3bbd 24c2 4d3d 90fc 7f3d c10a a739
00000050: c9e4 553d 2236 21bd 131a db3b be8f b1bd
00000060: 6a99 d9bc 0b48 60bb 66ef 81bd e700 58bd
00000070: a090 42bd a7aa b7bd c9f1 79bd 71bd 43bd
00000080: 1ea4 46bc 4586 553c 9f9c a7bd ffe4 babd
00000090: 9733 92bc 4fc8 8f3c 0c69 0b3c eb5c 8c3d
000000a0: d390 16bd 9d07 313c 421b dcb9 dbbd 8fbd
000000b0: 7348 95bb 9865 1a3c c72e b33d 4926 75bd
000000c0: 77db b13d 6ad7 b4bd 0b68 c1bd 354d c33d
000000d0: b392 9f3b 3c0d 3b3d 2bc4 4c3b f936 783c
000000e0: 06cb 813d c092 4cbc fca0 b7bd 2bd7 8bbd
000000f0: 6acc 54ba 035b 03bd 92d8 833d 9cab c6bd
00000100: 3116 85bd 9aac 3fbd bab0 83bc 73a3 903c
00000110: 0fec 00bc 56cd 253d 63ad c03d 9063 b4bd
00000120: d325 7bbd 5dde 223c b9e9 35bd 2989 af3a
00000130: adff 80bd 360b a2bd f03e 533d ee97 72bd
00000140: a0dd 0b3d 802b cabd d6cb 7abc a6de 64bd
00000150: 8744 e0bc ac90 c73c ada4 c3bc 0fcc f83d
00000160: 83d1 3abd 1d37 7a3d 44c4 05bc feb5 a7bc
00000170: 4d1b a1bd b1fa 94bd ea42 49bb ad5b e0bc
00000180: 1a63 9e3d 3d79 bf3d 0a0e d63d 3a8e 7d3d
00000190: 77c2 80bd acc0 c23d 47b1 dc3d b3c6 ef3b
000001a0: 2489 903d a102 653d 3ae2 dc3c 80c5 b3ba
000001b0: 5464 053d 0fbd dcbc 0e6f 98bd 50cf 73bd
000001c0: 2cc0 cd3c b0d5 84bd 1458 813d cc29 8e3d
000001d0: c099 bb3d 5a15 febb af9b e23c 8ce3 833c
000001e0: 286b dbbc 8db5 3b3d a981 5a3d 6385 f5bc
000001f0: e420 38bd f70a 763d e581 11bd 25f1 c33a
00000200: 4980 c13c 39c9 123c afd3 743d 3a57 aa3d
00000210: e15b e73c d42d 1fbd a42c 803d a848 80bd
00000220: c6a6 4a3d fe31 613c 55eb 7ebd 92c0 1c3d
00000230: 4fb8 6d3d 0763 dcbc d845 21bd 41c2 83bb
00000240: 12a3 61bc 54c8 733d fa23 e13c f086 9abd
00000250: 54df a83d 73f3 cebd aa71 023d 298d 983d
00000260: 9193 97bc 20c4 81bb a90b 55bd e4a0 21bb
00000270: a7eb 3b3d cad5 423d d731 b4bc 644f 33bc
00000280: 3d39 00bd f032 4aba 8ea3 16bd 65b0 26ba
00000290: 3cfd b3bd 764c 9bbd 347a 933d d541 45bd
000002a0: 0c2f 90bd 7d67 393d 9170 79bd a48d 903d
000002b0: 4df3 0a3c 4452 34be 32d4 9abc b6a4 a0bc
000002c0: 2749 af3c daac 9e3d d0bf 8a3d c239 893d
000002d0: 6c04 d93a ea9e 073c adc6 8d3c f71d e9bc
000002e0: 204c 00be 2dc1 f4bc c0fd 953c aa80 993c
000002f0: c094 94bc 12d0 b3bd d9b3 033d 9375 f4bc
00000300: e593 e0bc 9f0f 4bbd 1614 fabd e380 6d3d
00000310: 3420 143d d509 c2bc 648b 103d 1691 7bbd
00000320: d8c3 223b 059b d1bc 9ba9 07bc 2371 a53d
00000330: 67f9 7b3d cd68 0dbb 2514 383d d43e 52bc
00000340: f9df 413b b5a9 3d3b 25bf d2bd b711 dabc
00000350: 14de 0cbd a274 cabd ccf2 8d3d 12a6 87bd
00000360: c391 693d 74e7 75bc 145a 50bd c34b 50bc
00000370: 8af9 0a3d 698c 86bd 2695 67bd 848d 6dbd
00000380: 79d7 1d3d 4325 fa3b 90ee 40be d72b 42bd
00000390: ba7a 3d3d 88bf e9bb 972c aebd 29d5 0a3d
000003a0: 3b9a ea3c f6ae 21bd 4dc9 24be f44c 36bd
000003b0: 2e3b 5e3c 71a3 87bc 1507 963d 420f 413d
000003c0: 3206 093d 0d8f 163b 3757 83bd 9bc4 a43c
000003d0: 96ea 263c dbcb 96bc aef4 62bc bb56 633b
000003e0: f83e 733d 93e7 6b3d 3f41 c5bd e4e7 a03c
000003f0: c2d6 91bc ad34 58bd 86ac 86bd a09b 023c

layers.3.bias f4 [12]
0.03589647 0.09826878 -0.09932202 -0.095212415 -0.030659338 -0.013339133 -0.0054261116 -0.100198515
-0.07709497 -0.05829109 -0.09139126 -0.011108143
00000000: 2d08 133d 2441 c93d 5869 cbbd bafe c2bd
00000010: 4b29 fbbc 618c 5abc 86cd b1bb e134 cdbd
00000020: f8e3 9dbd a3c2 6ebd 572b bbbd eefe 35bc
