trained_models/G_1_cps.pth (torch_old, 139548 bytes, 7 tensors)

layers.0.weight f4 [128, 10]
0.11735715 -0.3016052 0.046781033 -0.13194832 0.019077862 -0.09357402 -0.2569887 0.20272905
0.02947082 0.3286783 0.026060093 0.06342071 0.29117012 -0.200839 -0.13157158 -0.25083476
0.28418174 -0.07202198 0.20810638 0.09671363 -0.2347796 -0.10253483 0.17293757 0.06036319
-0.27636674 0.2925961 -0.11794506 -0.066205494 -0.14081581 -0.0583549 0.096420944 0.32096258
0.16101794 0.29049104 -0.26116604 -0.14577885 -0.20515624 -0.25967935 -0.02918858 0.28071833
0.114636 -0.25451443 -0.3185136 -0.064317904 0.042444486 0.008852298 0.25076553 0.26979947
-0.27827427 -0.22048435 0.2187021 -0.20500638 0.054992046 0.10736395 -0.14294739 -0.06591453
-0.22118838 0.008440232 -0.31224748 0.18267994 -0.3771616 0.14666204 -0.14956418 0.11687852
0.19968961 0.28385606 0.20242096 0.21450724 0.07877794 0.16585366 -0.3013707 -0.09597676
-0.27500802 0.076771244 0.19689655 0.030560723 -0.11441576 0.11267281 0.08159475 0.21581149
-0.3026447 -0.1259156 0.013681365 0.110265136 -0.17750187 -0.0518628 0.13439323 0.28149644
0.33646685 -0.13039735 0.19705947 0.1796973 -0.10558495 -0.100688264 -0.32290196 -0.17187415
-0.023906507 -0.30827838 0.13958912 0.03137912 -0.058122758 -0.25832847 -0.15285829 0.060359564
0.0010252447 -0.19592728 0.03878322 -0.12929207 0.19943497 0.19155303 0.041601148 -0.041717757
-0.26930714 0.34124845 -0.2518676 0.21289405 -0.17393543 0.2762623 -0.31126466 0.24206874
0.028359078 0.17375924 -0.16338596 -0.005483074 -0.06992863 -0.31407478 -0.16213241 0.25390914
-0.16519491 -0.22702193 0.30568817 -0.32638338 -0.26274452 0.2654945 0.3314704 -0.18270107
0.13010274 0.30211192 -0.08874512 -0.2752055 0.24002615 0.09077953 -0.165828 -0.21405369
-0.104189314 -0.043634813 -0.27770516 0.21020421 -0.10323707 -0.18054438 -0.12420086 0.18039146
0.18707365 0.10878775 0.058084384 0.07624263 0.02789894 -0.12535809 -0.08110003 -0.09717776
-0.16376741 -0.14766076 0.13766474 0.29415342 0.21035087 0.25697887 0.2917367 0.11602334
-0.21070968 0.056411784 -0.19601263 -0.2333359 0.21388699 -0.21152765 0.12412082 0.1879688
0.12224617 0.27656555 -0.0469847 -0.21917257 0.130426 0.13200402 0.11774746 -0.029623495
-0.0023868373 -0.31944838 -0.33644053 0.21465276 0.14514124 0.042889096 -0.27074865 -0.024461677
0.28618002 -0.2472884 -0.097946845 0.23114158 -0.13456374 -0.09935285 -0.08372524 0.13624044
-0.21666598 0.31010297 -0.055281647 -0.25899374 -0.015176044 0.19239062 0.13061848 0.13600504
-0.25502524 0.2450744 -0.14207381 0.15267865 0.1887642 -0.19208579 -0.15805793 -0.18401669
-0.31541845 0.14023522 0.10818392 -0.27806002 0.270315 -0.059574097 -0.16454226 -0.22691461
0.18754281 0.09034562 0.16206345 -0.22080001 -0.1618279 -0.13318494 -0.2395494 -0.067342244
-0.21330422 -0.01347391 0.119467825 -0.0039437716 0.08947872 -0.085596055 0.31642112 -0.117919065
0.29215735 -0.28295314 -0.26007992 -0.25523558 0.23087084 0.07424611 0.12641382 -0.112876624
0.19763882 0.039995693 -0.24303699 0.071420014 0.28261027 -0.23896761 0.07625166 -0.27220902
00000000: f258 f03d ff6b 9abe 789d 3f3d 761d 07be
00000010: 2d49 9c3c bca3 bfbd 0694 83be 3498 4f3e
00000020: ca6c f13c 8648 a83e fa7b d53c b8e2 813d
00000030: 4014 953e bda8 4dbe b3ba 06be 6a6d 80be
00000040: 4580 913e 4380 93bd d719 553e cc11 c63d
00000050: 106a 70be c8fd d1bd 8c16 313e 643f 773d
00000060: f17f 8dbe 28cf 953e 2e8d f1bd bf96 87bd
00000070: 0532 10be 8c05 6fbd 5878 c53d 3555 a43e
00000080: e3e1 243e 3ebb 943e 8eb7 85be 0d47 15be
00000090: 7a14 52be b1f4 84be e41c efbc 50ba 8f3e
000000a0: 47c6 ea3d b74f 82be 3714 a3be 1bb9 83bd
000000b0: 45da 2d3d 3b09 113c 5764 803e 2823 8a3e
000000c0: f779 8ebe a6c6 61be 71f3 5f3e 31ed 51be
000000d0: 573f 613d a1e1 db3d cd60 12be 32fe 86bd
000000e0: 357f 62be e648 0a3c e7de 9fbe 7310 3b3e
000000f0: 531b c1be 932e 163e 5a27 19be 015e ef3d
00000100: 6f7b 4c3e 9555 913e 7147 4f3e c9a7 5b3e
00000110: 5456 a13d 8bd5 293e 434d 9abe 778f c4bd
00000120: dacd 8cbe 3e3a 9d3d 409f 493e 7b5a fa3c
00000130: cf52 eabd 01c1 e63d 261b a73d b0fd 5c3e
00000140: 3ff4 9abe 05f0 00be ce27 603c b0d2 e13d
00000150: 0dc3 35be 166e 54bd 619e 093e 4d20 903e
00000160: 6245 ac3e e286 05be f5c9 493e 9202 383e
00000170: ec3c d8bd a635 cebd 6853 a5be c7ff 2fbe
00000180: 94d7 c3bc aad6 9dbe 73f0 0e3e 6487 003d
00000190: 2112 6ebd a143 84be e286 1cbe 973b 773d
000001a0: 8161 863a 29a1 48be 27db 1e3d 2465 04be
000001b0: ae38 4c3e 7a26 443e f765 2a3d 3de0 2abd
000001c0: a0e2 89be 1eb8 ae3e caf4 80be e600 5a3e
000001d0: 211c 32be 4172 8d3e 155e 9fbe dee0 773e
000001e0: 4c51 e83c f1ed 313e a64e 27be 5cab b3bb
000001f0: be36 8fbd 69ce a0be 0a06 26be 6100 823e
00000200: db28 29be 7078 68be 2983 9c3e b91b a7be
00000210: 7386 86be e5ee 873e 7db6 a93e fd15 3bbe
00000220: a739 053e 6aae 9a3e 00c0 b5bd bce7 8cbe
00000230: 6ac9 753e 9eea b93d d1ce 29be e430 5bbe
00000240: 3561 d5bd 6bba 32bd 5f2f 8ebe c63f 573e
00000250: f56d d3bd a0e0 38be 055d febd 8ab8 383e
00000260: 3c90 3f3e 1dcc de3d e4e9 6d3d 1925 9c3d
00000270: 518c e43c df5d 00be c617 a6bd 2205 c7bd
00000280: a5b2 27be 6234 17be fcf7 0c3e 479b 963e
00000290: 3866 573e bc92 833e 835e 953e a59d ed3d
000002a0: 47c4 57be 0b10 673d 89b7 48be 9bef 6ebe
000002b0: 3105 5b3e b49a 58be 0e33 fe3d e57a 403e
000002c0: 335c fa3d 009a 8d3e 0773 40bd c66e 60be
000002d0: 658e 053e 102c 073e 9525 f13d f9ac f2bc
000002e0: 7c6c 1cbb bd8e a3be ef41 acbe efcd 5b3e
000002f0: e89f 143e 7aac 2f3d 919f 8abe db63 c8bc
00000300: 3086 923e 2c39 7dbe 5b98 c8bd 61b0 6c3e
00000310: 14cb 09be 8279 cbbd 2378 abbd 9d82 0b3e
00000320: b0dd 5dbe d1c5 9e3e 026f 62bd d49a 84be
00000330: f1a4 78bc 0c02 453e dac0 053e e844 0b3e
00000340: ab92 82be c9f4 7a3e cc7b 11be cb57 1c3e
00000350: 674b 413e 23b2 44be f0d9 21be df6e 3cbe
00000360: 877e a1be d299 0f3e 888f dd3d e25d 8ebe
00000370: ba66 8a3e f803 74bd c47d 28be 4e5c 68be
00000380: 390b 403e 2007 b93d f6f3 253e 6619 62be
00000390: 37b6 25be a261 08be 704c 75be bbea 89bd
000003a0: 6c6c 5abe adc1 5cbc 8cab f43d c13a 81bb
000003b0: 9f40 b73d fc4c afbd f301 a23e 8d7f f1bd
000003c0: a695 953e 3cdf 90be 3229 85be 3dae 82be
000003d0: 6869 6c3e 580e 983d a072 013e dc2b e7bd
000003e0: d561 4a3e 86d2 233d b0de 78be a844 923d
000003f0: 4bb2 903e edb3 74be d529 9c3d fb5e 8bbe

layers.0.bias f4 [128]
-0.24521281 -0.2513993 -0.24348783 0.2733507 -0.007227816 -0.15854461 -0.23549019 -0.25887802
-0.09745018 0.07161069 -0.012172394 0.061803482 0.21657354 -0.17390443 0.19498652 -0.07537132
0.027845927 0.18144333 -0.2070874 0.24771036 -0.09268385 -0.15420407 -0.009195313 -0.1919837
0.25545338 0.15042315 -0.18445672 -0.17544664 0.079120725 0.11448145 -0.19155781 -0.09578408
0.30181342 0.20362538 -0.34126046 -0.16062249 -0.08989428 0.06408274 -0.1378394 0.15659362
-0.116860144 -0.03412038 0.124454185 0.02145166 0.22142659 0.056830306 -0.10876316 -0.07165737
-0.049139082 -0.023645857 0.17589095 0.13571951 0.0049676374 0.33218154 -0.04867352 -0.23271395
-0.106876396 -0.09606418 0.021923855 -0.11862086 0.21807809 0.0911973 0.2076583 0.2105003
-0.049904175 -0.2318223 -0.06093675 0.1873972 0.2776376 -0.095628686 0.20411398 0.23263632
-0.0019380287 -0.04874601 -0.30411 0.0115919225 0.25953808 -0.10168601 -0.16685319 0.17349891
-0.21762365 -0.054046027 0.24380906 0.2270482 0.15413275 0.1828025 0.14269486 -0.11110739
0.14750618 0.048906624 0.2971303 0.13457513 0.18705554 -0.28284645 -0.24530281 0.11841567
0.14794405 0.08042124 0.155179 0.17745751 -0.15382528 -0.31328264 0.2985543 -0.12830755
-0.21012992 -0.124184586 0.2415265 -0.043890465 -0.19293004 -0.19828558 0.1676239 -0.23473571
0.13526714 0.30082896 0.06284408 -0.15357219 -0.3063169 0.13509932 -0.032168746 -0.032234006
0.007394678 -0.1011904 0.18863685 0.046005517 -0.124621615 0.11347101 0.120389216 0.09766306
00000000: 1119 7bbe 69b7 80be e054 79be 9ff4 8b3e
00000010: 51d7 ecbb 8559 22be 5724 71be a98b 84be
00000020: f693 c7bd a0a8 923d b96e 47bc a625 7d3d
00000030: 74c5 5d3e 0114 32be 8caa 473e 475c 9abd
00000040: 241d e43c 48cc 393e b80e 54be c9a7 7d3e
00000050: 08d1 bdbd ace7 1dbe f0a7 16bc 6097 44be
00000060: c9ca 823e 8708 1a3e 39e2 3cbe 49a8 33be
00000070: 0c0a a23d 4075 ea3d bb27 44be 722a c4bd
00000080: 4a87 9a3e 2c83 503e b1b9 aebe 397a 24be
00000090: 7e1a b8bd d03d 833d c625 0dbe 145a 203e
000000a0: 5f54 efbd d0c1 0bbd d6e1 fe3d 64bb af3c
000000b0: a7bd 623e e5c6 683d 38bf debd 19c1 92bd
000000c0: 1046 49bd f5b4 c1bc c21c 343e 0efa 0a3e
000000d0: 90c7 a23b b313 aa3e e35d 47bd 914c 6ebe
000000e0: 03e2 dabd 4cbd c4bd a899 b33c 7eef f2bd
000000f0: dd4f 5f3e a6c5 ba3d 61a4 543e 648d 573e
00000100: 5268 4cbd d362 6dbe d098 79bd 0de5 3f3e
00000110: 8426 8e3e f9d8 c3bd 4103 513e 3738 6e3e
00000120: 7405 feba e5a9 47bd 4eb4 9bbe 0cec 3d3c
00000130: 2de2 843e c140 d0bd 90db 2abe b3a9 313e
00000140: bcd8 5ebe 5e5f 5dbd 15a9 793e 537f 683e
00000150: fad4 1d3e 9430 3b3e 9a1e 123e 458c e3bd
00000160: dc0b 173e 5052 483d 7621 983e 10ce 093e
00000170: 7d8b 3f3e 40d1 90be a930 7bbe ea83 f23d
00000180: a57e 173e e4b3 a43d 3ee7 1e3e 6cb7 353e
00000190: 6084 1dbe 9566 a0be 1cdc 983e 0e63 03be
000001a0: 4c2c 57be 7d54 febd b952 773e 7dc6 33bd
000001b0: 748f 45be 600b 4bbe 9aa5 2b3e 8f5e 70be
000001c0: 7883 0a3e 4106 9a3e 66b4 803d 0742 1dbe
000001d0: 92d5 9cbe 7a57 0a3e 60c3 03bd ce07 04bd
000001e0: 0e4f f23b ea3c cfbd 052a 413e 4870 3c3d
000001f0: 9e39 ffbd 7d63 e83d 9f8e f63d 9203 c83d

layers.1.weight f4 [128, 128]
0.08668698 -0.04116734 0.0078764 -0.017774988 0.09370664 0.09506048 0.041012723 0.08246917
-0.0012292537 -0.02157972 -0.036735453 -0.011559892 -0.069419354 0.020482626 -0.03775889 -0.019282278
0.014682753 -0.05666129 -0.034893442 0.049811743 -0.005819857 0.0070557147 0.0763154 0.025192516
0.09186926 -0.054221805 0.06147729 -0.037642192 0.045710985 0.012605486 0.031239204 0.014575779
0.019376619 -0.024358962 0.019767107 0.018329516 0.07734219 0.010160495 -0.009198999 -0.05938483
-0.03154294 -0.010332588 0.095269404 -0.07548673 0.060809486 0.06529546 0.046372663 0.060544524
-0.044492256 0.0031505239 -0.042887326 -0.036980193 0.0139751015 -0.058148433 -0.008772715 -0.022778695
0.024809001 -0.019981433 0.052944083 -0.023108054 0.08347016 0.04983247 -0.008831141 0.029795693
-0.031374622 -0.009781245 0.033071466 -0.0019994045 0.042533662 -0.009055213 -0.037812207 0.04225579
0.09621463 -0.043944016 0.0076135807 0.07564054 0.043397576 -0.052324638 0.060604468 -0.044756267
-0.050827704 -0.06795495 -0.027419273 0.086671084 0.02337518 -0.07259358 0.0704816 0.07178384
-0.045711 0.024547372 0.0018998256 -0.032854594 0.016561095 0.00011955699 -0.03701272 -0.027894529
0.088691555 0.07972819 0.06786934 -0.05635457 -0.0996117 -0.074706905 -0.07626336 0.032747854
-0.05945713 -0.030797528 0.05742179 0.046758987 -0.06325033 -0.041613154 -0.010088914 -0.07528071
-0.05935645 -0.05910596 -0.07873916 0.056990765 -0.012335222 0.07495884 -0.018753223 0.09359566
0.09829899 0.00076353765 0.08876628 0.07698588 0.08419243 0.074540004 0.07880729 -0.06479305
-0.066417426 0.08555439 -0.047464028 -0.032199547 0.014083014 0.088298686 -0.04249413 0.0022091665
0.0666329 0.0805975 0.03952916 0.08794567 0.08272786 -0.035711348 0.0856574 -0.019335702
0.06384455 -0.06520534 0.0530932 -0.03532895 -0.03839944 0.019393858 -0.052399192 0.041238803
0.095249645 -0.02071688 0.08114288 -0.062411338 -0.04912699 0.05588686 -0.024284486 -0.07002197
0.0029500828 0.04331889 -0.05080246 -0.064391665 0.050780326 -0.0020649529 0.05908113 -0.06359818
0.08255132 0.04781952 0.027192233 0.08648141 0.066737264 0.08676171 -0.0029306293 0.019955989
-0.052819233 0.07760991 0.023594553 0.035214946 0.028353129 0.01952726 0.040871717 -0.097230054
-0.0039460864 -0.048543625 -0.035428327 0.037631657 0.034206316 0.027804771 -0.049650114 0.06473096
0.07932703 0.07859998 0.05034533 0.03186061 0.009498319 0.04436261 0.048736632 -0.01981556
0.08966994 -0.0372796 -0.09160344 0.011614776 -0.07278348 -0.08483049 0.09125782 0.06968246
-0.0046966453 0.056576904 0.0069202534 0.027904222 0.09334935 -0.0791045 -0.041211627 -0.07464713
0.03612463 -0.050684523 0.06458009 0.014387225 0.06429552 0.0547246 -0.0029097402 -0.037315346
-0.045558356 -0.053109333 -0.0031036446 0.0063617937 -0.06069492 0.023955999 -0.05992756 -0.049479976
0.060509343 -0.03717646 0.026347134 0.056452345 -0.06969716 -0.06373839 0.016824799 0.059057534
0.0033752094 -0.0868335 0.015673436 -0.013089941 0.05732194 -0.06242844 -0.061962925 -0.0742807
-0.0451622 0.040024072 -0.050329987 0.0385339 -0.009656203 0.04744199 -0.038438138 0.07006799
00000000: f288 b13d 169f 28bd 040c 013c da9c 91bc
00000010: 44e9 bf3d 12af c23d f5fc 273d 99e5 a83d
00000020: e91e a1ba f4c7 b0bc ea77 16bd b465 3dbc
00000030: bc2b 8ebd 2ecb a73c 11a9 1abd def5 9dbc
00000040: ee8f 703c ab15 68bd 6dec 0ebd 6607 4c3d
00000050: 80b4 bebb a033 e73b 404b 9c3d 8960 ce3c
00000060: f325 bc3d af17 5ebd 9ccf 7b3d b32e 1abd
00000070: 713b 3b3d 3e87 4e3c 5ce9 ff3c 40cf 6e3c
00000080: b7bb 9e3c 728c c7bc a1ee a13c c827 963c
00000090: 9565 9e3d 3478 263c 66b7 16bc 823d 73bd
000000a0: 2b33 01bd 044a 29bc 9b1c c33d c998 9abd
000000b0: 5e13 793d a0b9 853d 43f1 3d3d 89fd 773d
000000c0: 833d 36bd 0579 4e3b 9faa 2fbd 8b78 17bd
000000d0: d3f7 643c 0d2d 6ebd 6fbb 0fbc 639a babc
000000e0: 3f3c cb3c 1ab0 a3bc e5db 583d 1a4d bdbc
000000f0: 67f2 aa3d 221d 4c3d 7db0 10bc 1916 f43c
00000100: ad82 00bd 8441 20bc f275 073d 7108 03bb
00000110: c737 2e3d 515c 14bc f9e0 1abd 6814 2d3d
00000120: 2d0c c53d a4fe 33bd 587b f93b 6de9 9a3d
00000130: a8c1 313d 5c52 56bd 643c 783d 5952 37bd
00000140: b630 50bd f72b 8bbd 629e e0bc 9c80 b13d
00000150: 4e7d bf3c f1ab 94bd a858 903d 6803 933d
00000160: 753b 3bbd 9217 c93c 9203 f93a 8a92 06bd
00000170: 22ab 873c acba fa38 a69a 17bd 1183 e4bc
00000180: eba3 b53d 8948 a33d 15ff 8a3d 0dd4 66bd
00000190: 3801 ccbd efff 98bd f72f 9cbd 9d22 063d
000001a0: 5289 73bd 194b fcbc 1c33 6b3d 5a86 3f3d
000001b0: 6489 81bd 8e72 2abd f94b 25bc c62c 9abd
000001c0: c01f 73bd 1719 72bd ff41 a1bd 266f 693d
000001d0: ac19 4abc 0584 993d 5ca0 99bc 15af bf3d
000001e0: fb50 c93d 2528 483a 18cb b53d c6aa 9d3d
000001f0: 156d ac3d 6ea8 983d b765 a13d 38b2 84bd
00000200: dc05 88bd 2437 af3d a469 42bd ace3 03bd
00000210: 71bc 663c f1d5 b43d 530e 2ebd aac7 103b
00000220: d476 883d 4d10 a53d 54e9 213d dc1c b43d
00000230: 396d a93d 1046 12bd 266d af3d e865 9ebc
00000240: eec0 823d 618a 85bd 4178 593d 17b5 10bd
00000250: bb48 1dbd dedf 9e3c 89a0 56bd 05ea 283d
00000260: 3f12 c33d 72b6 a9bc 3d2e a63d 08a3 7fbd
00000270: 6239 49bd 9fe9 643d 42f0 c6bc ae67 8fbd
00000280: 2d56 413b 266f 313d 3e16 50bd c7df 83bd
00000290: 08ff 4f3d 2954 07bb 0eff 713d c33f 82bd
000002a0: ab10 a93d 67de 433d 3fc2 de3c 2a1d b13d
000002b0: 8cad 883d 20b0 b13d cd0f 40bb be7a a33c
000002c0: fb58 58bd f2f1 9e3d 5d49 c13c 8c3d 103d
000002d0: d244 e83c a2f7 9f3c 1a69 273d 8d20 c7bd
000002e0: 2c4e 81bb aed5 46bd 4b1d 11bd a723 1a3d
000002f0: ec1b 0c3d d5c6 e33c eb5d 4bbd aa91 843d
00000300: 3676 a23d 07f9 a03d e836 4e3d 4580 023d
00000310: d69e 1b3c 91b5 353d 10a0 473d 3e54 a2bc
00000320: e0a4 b73d 7eb2 18bd 969a bbbd e74b 3e3c
00000330: 810f 95bd 9cbb adbd 61e5 ba3d adb5 8e3d
00000340: 51e6 99bb 2fbd 673d 4bc3 e23b 6597 e43c
00000350: f22d bf3d 8a01 a2bd 86cd 28bd 98e0 98bd
00000360: 6cf7 133d 939a 4fbd 9142 843d 65b8 6b3c
00000370: 5fad 833d e726 603d 57b1 3ebb fad7 18bd
00000380: 669b 3abd 2c89 59bd 8466 4bbb 9876 d03b
00000390: 3d9b 78bd 5f3f c43c 9a76 75bd 84ab 4abd
000003a0: a5d8 773d 5846 18bd f2d5 d73c 933a 673d
000003b0: 62bd 8ebd 4689 82bd 29d4 893c 50e6 713d
000003c0: 9e32 5d3b c3d5 b1bd 9465 803c 3177 56bc
000003d0: 69ca 6a3d f7b4 7fbd d6cc 7dbd 7b20 98bd
000003e0: 00fc 38bd 48f0 233d d126 4ebd b9d5 1d3d
000003f0: 0d35 1ebc 8852 423d 4f71 1dbd ce7f 8f3d

layers.1.bias f4 [128]
-0.01153531 -0.024802107 0.03150543 -0.012847365 -0.06562222 -0.039260525 0.023121402 0.054782916
-0.07700974 0.06236211 0.066058755 -0.048127573 -0.07223938 -0.08163769 -0.0051889378 -0.015199853
-0.07506553 0.012689698 0.059658814 0.0040173084 -0.033456266 0.08092648 -0.055392068 -0.07401011
-0.07735453 0.06551904 -0.050751925 0.05112002 0.020105839 -0.031760085 0.067530826 0.019773824
0.0684462 -0.030491106 0.027873684 0.0031085117 0.005700358 -0.06683959 -0.07076076 0.075100645
0.06114317 0.07604398 0.09137186 0.00031101285 -0.04980524 0.035380207 0.084883496 -0.014653672
0.01819606 0.01882087 -0.023547815 0.06274785 -0.034283623 -0.04726963 0.05025004 0.06712281
0.034275927 -0.050932087 0.0050512967 -0.048576314 -0.022662692 0.07953677 -0.030533897 0.041415356
-0.0052398187 0.03812945 0.03104458 0.09266651 -0.06333131 -0.028658116 -0.0024757818 -0.024160093
-0.02892166 0.065953664 -0.032118108 -0.002424945 -0.04871039 -0.06905444 -0.04454672 -0.049904723
0.020434694 0.015834652 0.049123395 0.054836802 0.020789905 -0.03687301 -0.05034907 0.05045755
-0.0090462 0.035267208 -0.07553366 -0.06774671 0.035056945 -0.04659706 0.063841574 -0.046535484
0.04034494 0.049902912 -0.04810233 0.08557264 0.03855494 -0.034277115 -0.05671156 0.053265594
0.0032475581 0.046030924 -0.012608385 0.10511336 0.092581905 -0.040434226 0.08248754 0.08571891
0.08626054 -0.008229714 -0.05418776 0.037790075 0.06336798 -0.07105662 0.0027269225 0.02931229
-0.023485914 0.020079985 0.0422842 -0.04705665 -0.056308683 0.017258048 0.05783736 0.087208174
00000000: 99fe 3cbc ca2d cbbc d60b 013d c17d 52bc
00000010: f164 86bd a5cf 20bd 1869 bd3c 0d64 603d
00000020: 48b7 9dbd 696f 7f3d d049 873d 6b21 45bd
00000030: 3df2 93bd a931 a7bd f707 aabb ce08 79bc
00000040: f5bb 99bd 73e8 4f3c cd5c 743d a0a3 833b
00000050: 7009 09bd c8bc a53d cbe2 62bd 9d92 97bd
00000060: 0d6c 9ebd d92e 863d 40e1 4fbd 3a63 513d
00000070: 00b5 a43c dd16 02bd 9a4d 8a3d b7fc a13c
00000080: 852d 8c3d 7cc8 f9bc 5a57 e43c 2cb8 4b3b
00000090: 12ca ba3b 32e3 88bd 04eb 90bd 5ece 993d
000000a0: 4371 7a3d f2bc 9b3d 2b21 bb3d 700f a339
000000b0: 9400 4cbd d6ea 103d 66d7 ad3d f515 70bc
000000c0: e70f 953c 3a2e 9a3c 59e7 c0bc f281 803d
000000d0: fc6c 0cbd cd9d 41bd fcd2 4d3d af77 893d
000000e0: ea64 0c3d 2a9e 50bd 5985 a53b f5f7 46bd
000000f0: 1ca7 b9bc 2de4 a23d 3922 fabc 26a3 293d
00000100: c9b2 abbb a02d 1c3d 3451 fe3c f0c7 bd3d
00000110: d9b3 81bd 6dc4 eabc ba40 22bb 63eb c5bc
00000120: 1eed ecbc b712 873d 478e 03bd d3eb 1ebb
00000130: 8c84 47bd 6a6c 8dbd 9f76 36bd e568 4cbd
00000140: a966 a73c acb7 813c 9d35 493d 8e9c 603d
00000150: 974f aa3c 2708 17bd d43a 4ebd 93ac 4e3d
00000160: 8336 14bc 5974 103d 64b1 9abd c9be 8abd
00000170: df97 0f3d 8fdc 3ebd 5fbf 823d fe9b 3ebd
00000180: bc40 253d ff66 4c3d f306 45bd b540 af3d
00000190: c9eb 1d3d 2966 0cbd 614a 68bd 062d 5a3d
000001a0: fcd4 543b ec8a 3c3d 6693 4ebc ac45 d73d
000001b0: 959b bd3d 5c9e 25bd 3aef a83d 658d af3d
000001c0: 5ea9 b03d ecd5 06bc fcf3 5dbd c4c9 1a3d
000001d0: 12c7 813d 2286 91bd 2bb6 323b 5420 f03c
000001e0: 8865 c0bc c87e a43c 3332 2d3d 79be 40bd
000001f0: efa3 66bd c060 8d3c dee6 6c3d 339a b23d

layers.2.weight f4 [128, 128]
0.023392506 -0.060108677 -0.0045738355 0.0735802 -0.05361891 0.041873354 -0.019208912 0.0750682
-0.009548185 -0.054685656 0.09008679 0.05251493 -0.06511528 -0.07870412 -0.0953828 -0.09047804
-0.066778556 0.12634979 0.0032330714 -0.02307342 0.016084457 -0.069227204 0.0005789946 -0.0072591156
0.018644663 0.0077383723 0.014762005 0.015765911 -0.04638252 0.05509001 -0.05844044 -0.0032619576
0.095385626 -0.027162746 -0.0110640805 -0.019272165 0.040092945 0.06421294 -0.076435365 0.018987106
-0.037305478 -0.008316763 -0.005522113 -0.08556023 0.07036841 -0.055160694 0.020252073 -0.02012236
-0.038433712 0.013945105 0.071699485 0.07306661 0.049749337 -0.049012505 0.010440329 -0.0031964655
0.006629162 -0.08975321 0.043122776 -0.0322692 0.11127109 -0.042992976 0.041219484 0.014217132
0.043707505 0.0044649024 0.045208823 -0.03463413 -0.050867613 -0.065288156 -0.019690007 -0.012305473
0.09220167 0.009155842 0.0086430125 0.023834141 -0.04665792 0.012267629 -0.060250584 -0.030367024
-0.010830708 -0.014901212 0.026499158 0.057388905 0.025255254 0.021952558 -0.002728291 -0.04149568
0.012719453 -0.021892712 -0.0019294855 -0.017311882 -0.011634742 -0.067960456 -0.07226717 0.07726327
-0.060548563 -0.11449036 -0.015410474 0.056556996 -0.024963036 -0.012679984 -0.0019074801 -0.10581934
-0.06498236 0.05581701 -0.043871026 0.07996195 0.07687074 0.0028968975 -0.032924302 0.0514129
-0.06453951 -0.0063725044 0.02194832 0.083599515 -0.00010458236 0.06794643 -0.0005835114 0.027397607
0.06269564 -0.0696224 0.08101371 0.07174976 0.07666561 -0.094512954 0.023068003 -0.014249694
0.09533033 0.02715142 -0.07044189 -0.0202154 -0.1372345 -0.13284528 0.03631478 -0.11273547
-0.021901868 -0.0730612 -0.077776 0.018942317 -0.042682502 0.06352438 -0.0610471 -0.05699035
0.041909445 -0.15159455 -0.086106785 0.05168489 -0.12804878 -0.090638 0.029636206 0.045900453
-0.025162464 -0.051411968 0.011159067 -0.028532451 -0.07896313 0.032754 0.07748235 -0.04217281
-0.10487778 -0.014074375 0.043180633 -0.07064185 -0.008020023 -0.008436784 0.07074148 -0.11243491
0.08094059 -0.0011860321 -0.05052336 0.065354206 -0.02706863 0.08965439 0.06928197 -0.08609107
0.047636416 0.06403776 0.061708074 -0.011451529 0.052475218 -0.031297173 0.041678257 0.056741208
0.019475956 0.011482549 -0.09158029 -0.043159418 0.057673648 -0.0641399 0.053258885 0.03214305
-0.055045206 0.018883955 -0.038705513 -0.009935801 0.08616376 0.07314568 -0.0021961932 0.049214132
-0.14064871 0.08038498 -0.056154255 -0.055425312 -0.06358267 0.07562487 0.06396968 0.12145463
-0.084185 -0.016744897 -0.075126566 -0.010741212 -0.034622215 -0.13183026 -0.02152147 -0.08542595
-0.004034173 0.039547823 -0.036010295 0.059992343 0.05517438 -0.029696092 -0.031831257 0.0797165
0.04567764 0.028685872 -0.02814555 0.037572723 -0.028714275 0.08840146 0.07661575 -0.003434068
0.071660675 -0.061522156 -0.007606043 -0.04572967 -0.07625878 -0.022051353 0.09427631 0.04988522
-0.1168739 0.022436107 0.057526845 0.014523954 -0.11121318 -0.00086092297 0.092148826 -0.016136449
-0.08797194 0.0663484 -0.10547778 -0.10562267 -0.082463846 0.07693632 -0.08705046 -0.07473771
00000000: a4a1 bf3c 8434 76bd 1de0 95bb 37b1 963d
00000010: 819f 5bbd 6583 2b3d 025c 9dbc 5bbd 993d
00000020: fe6f 1cbc 11fe 5fbd 6c7f b83d e519 573d
00000030: 295b 85bd a02f a1bd 0f58 c3bd 8d4c b9bd
00000040: 32c3 88bd d761 013e f0e1 533b 7804 bdbc
00000050: 8dc3 833c fec6 8dbd abc7 173a e0dd edbb
00000060: b1bc 983c 2c92 fd3b 56dc 713c 8327 813c
00000070: 99fb 3dbd 10a6 613d 3e5f 6fbd 91c6 55bb
00000080: 8a59 c33d 6884 debc 1e46 35bc a9e0 9dbc
00000090: 8038 243d 1382 833d 258a 9cbd d98a 9b3c
000000a0: a1cd 18bd 0843 08bc d7f2 b4bb 343a afbd
000000b0: 501d 903d 2ef0 61bd ade7 a53c a6d7 a4bc
000000c0: ab6c 1dbd 027a 643c 2ed7 923d f2a3 953d
000000d0: f6c5 4b3d 56c1 48bd ea0d 2b3c cb7b 51bb
000000e0: 7139 d93b 88d0 b7bd 82a1 303d b52c 04bd
000000f0: 19e2 e33d 6719 30bd c3d5 283d f9ee 683c
00000100: a406 333d 514e 923b e32c 393d 84dc 0dbd
00000110: 8f5a 50bd ccb5 85bd f04c a1bc e59c 49bc
00000120: 3bd4 bc3d 6202 163c 6c9b 0d3c d13f c33c
00000130: 601c 3fbd 2afe 483c 51c9 76bd 44c4 f8bc
00000140: 4873 31bc 3724 74bc c314 d93c a110 6b3d
00000150: 1be4 ce3c dad5 b33c 21cd 32bb 60f7 29bd
00000160: 4165 503c 5858 b3bc cae6 fcba a6d1 8dbc
00000170: a59f 3ebc da2e 8bbd cf00 94bd 353c 9e3d
00000180: c501 78bd ec79 eabd 367c 7cbc 4fa8 673d
00000190: 487f ccbc b5bf 4fbc 6904 faba cfb7 d8bd
000001a0: 7915 85bd 61a0 643d 1bb2 33bd 17c3 a33d
000001b0: 686e 9d3d e0d9 3d3b a2db 06bd 5596 523d
000001c0: 4a2d 84bd 71d0 d0bb f7cc b33c 3936 ab3d
000001d0: 3a53 dbb8 7f27 8b3d caf6 18ba f270 e03c
000001e0: 9266 803d 3096 8ebd 84ea a53d 8af1 923d
000001f0: dc02 9d3d 0290 c1bd 1cf9 bc3c 8c77 69bc
00000200: 8c3c c33d a86c de3c d643 90bd c49a a5bc
00000210: 3387 0cbe 9808 08be cfbe 143d dbe1 e6bd
00000220: 8c6b b3bc 1ca1 95bd 0649 9fbd eb2c 9b3c
00000230: d9d3 2ebd 1219 823d 860c 7abd b76e 69bd
00000240: 3da9 2b3d 9a3b 1bbe c158 b0bd 89b3 533d
00000250: 381f 03be 6aa0 b9bd a1c7 f23c 1d02 3c3d
00000260: 8321 cebc 5b95 52bd 85d4 363c e3bc e9bc
00000270: 6cb7 a1bd 0f29 063d 11af 9e3d 65bd 2cbd
00000280: 29ca d6bd 3598 66bc 2dde 303d adac 90bd
00000290: 6a66 03bc 703a 0abc e9e0 903d 4644 e6bd
000002a0: 2ec4 a53d a274 9bba 95f1 4ebd 6dd8 853d
000002b0: 08bf ddbc b99c b73d b5e3 8d3d 8450 b0bd
000002c0: 671e 433d 3b26 833d 9bc1 7c3d 329f 3bbc
000002d0: 41f0 563d 7731 00bd d2b6 2a3d 7869 683d
000002e0: 0a8c 9f3c 4d21 3c3c 728e bbbd eec7 30bd
000002f0: 343b 6c3d c85b 83bd fd25 5a3d 6ea8 033d
00000300: 1577 61bd 86b2 9a3c ac89 1ebd c5c9 22bc
00000310: a076 b03d 67cd 953d 02ee 0fbb c294 493d
00000320: 3706 10be e1a0 a43d 0102 66bd a705 63bd
00000330: a237 82bd 36e1 9a3d 8902 833d 34bd f83d
00000340: 2f69 acbd 982c 89bc f5db 99bd e9fb 2fbc
00000350: 06d0 0dbd 83fe 06be cb4d b0bc cdf3 aebd
00000360: 1931 84bb e6fc 213d 887f 13bd 88ba 753d
00000370: 88fe 613d 3845 f3bc 7e61 02bd 6842 a33d
00000380: 7a18 3b3d a2fe ea3c 7f91 e6bc dbe5 193d
00000390: 333a ebbc d30b b53d b8e8 9c3d 1a0e 61bb
000003a0: d5c2 923d a8fe 7bbd 1d3c f9bb 094f 3bbd
000003b0: 902d 9cbd 0aa5 b4bc f013 c13d 7254 4c3d
000003c0: 955b efbd edcb b73c 45a1 6b3d e1f5 6d3c
000003d0: bcc3 e3bd 90af 61ba 86b8 bc3d 9630 84bc
000003e0: a22a b4bd ace1 873d bc04 d8bd b350 d8bd
000003f0: cee2 a8bd ca90 9d3d 8347 b2bd 1610 99bd

layers.2.bias f4 [128]
-0.018424466 -0.0764543 -0.07986361 0.0024813358 0.08374667 0.08595285 -0.03400646 -0.0682157
0.034998942 0.039010674 0.049521 0.050804712 0.031793933 -0.0030677838 0.08886028 -0.061223507
-0.014114312 0.06259168 0.063935086 0.08602938 0.049218014 0.026226826 0.08425022 0.041807733
-0.01777439 -0.044786524 0.012293408 -0.044603515 0.046562444 -0.0046997266 -0.0385036 0.024809798
0.04025648 -0.019086247 -0.00553538 0.034884524 0.0036860155 0.013702957 -0.022029286 -0.016803484
-0.01890938 0.037708268 0.0032757923 0.064674765 0.013677405 0.048420463 -0.06141774 0.025924878
-0.071026154 0.07226055 -0.064670034 -0.06043723 0.060618583 0.06229193 0.07658588 0.07134869
-0.07611102 0.0768251 -0.0044270046 0.0487511 0.070524774 0.046313096 -0.01720963 -0.0427439
0.07551495 0.02366926 0.025606848 0.038560577 0.0026432453 0.043774284 0.04144332 0.093248755
0.06249468 0.08680936 0.04024494 -0.020687934 -0.010335475 -0.040595043 -0.076404214 0.03242462
0.076005496 -0.030291855 -0.011958335 0.0652132 0.046321273 -0.060475543 -0.0646884 -0.07140421
-0.07853689 0.08387641 0.0950874 0.06667555 -0.042613424 0.081759624 0.056012377 -0.008470873
0.08727972 -0.057905935 0.07944714 0.093607575 0.06150736 -0.04406532 -0.07295815 0.06170499
0.020385545 0.026687533 -0.04527951 -0.005237638 0.05451934 0.022829968 0.071135975 -0.050396632
0.07507324 -0.031170445 -0.016023165 0.08614034 0.097240426 0.049689192 0.093645535 0.030744983
0.023541199 0.08739286 -0.059834614 -0.04313521 -0.0570577 0.09245267 0.07125096 -0.06681365
00000000: e8ee 96bc 1294 9cbd 888f a3bd e89d 223b
00000010: 6083 ab3d 0c08 b03d 5c4a 0bbd acb4 8bbd
00000020: 0d5b 0f3d a8c9 1f3d 88d6 4a3d 9a18 503d
00000030: 5b3a 023d df0c 49bb 61fc b53d 80c5 7abd
00000040: b73f 67bc 1130 803d 66f0 823d 2c30 b03d
00000050: d498 493d a4d9 d63c 618b ac3d 963e 2b3d
00000060: 999b 91bc 1372 37bd 4a6a 493c 2db2 36bd
00000070: 43b8 3e3d 2a00 9abb f3b5 1dbd eb3d cb3c
00000080: fbe3 243d c35a 9cbc 2262 b5bb 13e3 0e3d
00000090: 1491 713b 5e82 603c c376 b4bc 76a7 89bc
000000a0: d8e7 9abc fc73 1a3d adae 563b 3474 843d
000000b0: 3217 603c 8954 463d 2b91 7bbd 6960 d43c
000000c0: 2976 91bd 57fd 933d b971 84bd 078d 77bd
000000d0: 314b 783d d325 7f3d 0fd9 9c3d 431f 923d
000000e0: 18e0 9bbd 7a56 9d3d 6810 91bb 3caf 473d
000000f0: 4b6f 903d cdb2 3d3d 36fb 8cbc 3a14 2fbd
00000100: 95a7 9a3d 09e6 c13c 74c5 d13c b2f1 1d3d
00000110: 4c3a 2d3b aa4c 333d 79c0 293d 34f9 be3d
00000120: 6cfa 7f3d 1bc9 b13d e1d7 243d be79 a9bc
00000130: 2056 29bc fd46 26bd d079 9cbd aecf 043d
00000140: c5a8 9b3d a026 f8bc e4ec 43bc 808e 853d
00000150: 60bb 3d3d 34b5 77bd 5a7b 84bd 5f3c 92bd
00000160: f3d7 a0bd 65c7 ab3d 2fbd c23d 318d 883d
00000170: 6a8b 2ebd 9771 a73d 3c6d 653d 6bc9 0abc
00000180: b6bf b23d c62e 6dbd 2fb5 a23d 54b5 bf3d
00000190: 24ef 7b3d d67d 34bd 156b 95bd 5fbe 7c3d
000001a0: 96ff a63c d09f da3c 0277 39bd 7ea0 abbb
000001b0: ac4f 5f3d ea05 bb3c bdaf 913d b36c 4ebd
000001c0: 00c0 993d 2959 ffbc 0343 83bc 596a b03d
000001d0: fd25 c73d e586 4b3d 3bc9 bf3d e7dc fb3c
000001e0: 79d9 c03c 07fb b23d 2415 75bd 8cae 30bd
000001f0: 56b5 69bd d357 bd3d 06ec 913d 98d5 88bd

layers.3.weight f4 [1, 128]
-0.09232094 -0.12065192 0.013441538 0.09176806 -0.059629194 0.027836408 0.10350219 -0.062772885
-0.08697359 0.10000579 -0.019242467 -0.09941071 -0.03217644 -0.09160814 0.013117249 -0.100649245
0.07111907 0.027657235 0.012930758 0.070974916 0.025967114 -0.09705481 0.014934904 -0.0555307
0.09261517 0.041842934 -0.09721588 -0.04786591 -0.07787043 0.04461693 0.07549268 -0.08415631
-0.024750644 0.065780066 -0.093840614 -0.18395932 -0.07313973 0.022084756 -0.07227492 0.06231519
-0.019946901 -0.20818041 -0.021021565 0.017712476 0.080300994 -0.0497314 -0.045012202 0.022111813
-0.09940334 -0.08000964 -0.11270889 -0.041449092 -0.030321788 0.046885297 -0.08143352 -0.043519333
-0.068322115 -0.07194644 -0.048620332 -0.05446655 0.09157981 -0.059013978 0.022382353 -0.06630437
0.047832903 0.026948374 0.053822488 -0.10277687 0.051032756 -0.011120512 -0.094995126 -0.09977861
0.08247637 0.03099264 -0.07223109 -0.10067255 -0.068885125 0.092782244 -0.14807448 -0.107021496
0.03496991 -0.083001226 -0.0892731 0.087370485 -0.047547664 -0.053720135 -0.12013539 -0.09578459
-0.03937566 -0.03883071 0.05240513 -0.03848861 0.03736246 0.033345032 -0.077724114 0.08376746
0.051117796 -0.07604036 0.06812878 -0.103522845 0.08065597 -0.066758685 -0.027303426 0.0109409345
0.056812152 0.07527163 -0.06475052 0.04348564 0.016979048 0.065496616 0.09981152 0.09546463
0.09349413 0.052355897 -0.059366375 -0.12237072 0.09926509 -0.030108146 0.081355006 -0.042124264
0.04885279 0.070327245 0.042064805 -0.048492044 -0.033833206 0.055249337 -0.083642825 -0.06577014
00000000: c312 bdbd 5b18 f7bd e639 5c3c e5f0 bb3d
00000010: be3d 74bd 2e09 e43c f5f8 d33d 128f 80bd
00000020: 361f b2bd d6cf cc3d 61a2 9dbc d897 cbbd
00000030: 71cb 03bd 0c9d bbbd bbe9 563c 3121 cebd
00000040: e0a6 913d 6d91 e23c 88db 533c 4c5b 913d
00000050: fcb8 d43c acc4 c6bd 87b1 743c 2974 63bd
00000060: 06ad bd3d 7f63 2b3d 1f19 c7bd 0b0f 44bd
00000070: 887a 9fbd 3ec0 363d e89b 9a3d 255a acbd
00000080: ddc1 cabc b3b7 863d 822f c0bd d55f 3cbe
00000090: 48ca 95bd 17eb b43c e004 94bd 363e 7f3d
000000a0: af67 a3bc 3f2d 55be 6b35 acbc c119 913c
000000b0: d974 a43d 27b3 4bbd b75e 38bd d523 b53c
000000c0: fa93 cbbd 18dc a3bd ebd3 e6bd 86c6 29bd
000000d0: 6665 f8bc cc0a 403d 9ec6 a6bd 5441 32bd
000000e0: 77ec 8bbd a858 93bd 1d26 47bd 5118 5fbd
000000f0: 328e bb3d a4b8 71bd 325b b73c 96ca 87bd
00000100: 6fec 433d d6c2 dc3c f874 5c3d ae7c d2bd
00000110: b907 513d cf32 36bc ce8c c2bd ba58 ccbd
00000120: 5fe9 a83d 47e4 fd3c e5ed 93bd 692d cebd
00000130: a513 8dbd 9e04 be3d d6a0 17be 162e dbbd
00000140: 9c3c 0f3d 8cfc a9bd d1d4 b6bd 4cef b23d
00000150: 57c1 42bd a509 5cbd 8b09 f6bd b62a c4bd
00000160: 5f48 21bd f30c 1fbd c3a6 563d 3ca6 1dbd
00000170: 6109 193d cd94 083d d22d 9fbd 468e ab3d
00000180: e560 513d 0cbb 9bbd 1a87 8b3d c903 d4bd
00000190: f52e a53d c7b8 88bd 6fab dfbc 9b41 333c
000001a0: dcb3 683d 0328 9a3d ec9b 84bd 001e 323d
000001b0: a517 8b3c 1723 863d fb69 cc3d f682 c33d
000001c0: da79 bf3d 2373 563d 282a 73bd 809d fabd
000001d0: 7f4b cb3d 5ca5 f6bc 749d a63d 7e8a 2cbd
000001e0: dd19 483d bb07 903d 254c 2c3d 989f 46bd
000001f0: b094 0abd 214d 623d ee4c abbd 7fb2 86bd
