trained_models/G_1_psid.pth (torch_old, 139548 bytes, 7 tensors)

layers.0.weight f4 [128, 10]
0	0xbe671dc6	-0.22569951
1	0x3d846e0c	0.06466302
2	0x3dee723f	0.116428845
3	0x3e6e3033	0.23260574
4	0xbe50c986	-0.20389375
5	0x3da154a6	0.078774735
6	0xbd383b5b	-0.04497848
7	0x3d406d2e	0.046979122
8	0xbe339edf	-0.17541073
9	0xbe9a62db	-0.30153546
10	0xbdd7b1d0	-0.10531962
11	0xbcdcc0ce	-0.026947405
12	0x3e8fc270	0.28078032
13	0x3e9bf612	0.30461174
14	0x3e765c0e	0.24058554
15	0xbe064468	-0.13112032
16	0xbdc31584	-0.09525588
17	0xbea7230a	-0.3264392
18	0xbbc889e1	-0.006119952
19	0x3e4efd1a	0.20213738
20	0xbe61f357	-0.22065483
21	0x3ea4467a	0.3208502
22	0xbe044769	-0.12917866
23	0xbe0221bf	-0.12708186
24	0x3e6da509	0.23207487
25	0x3da67c2c	0.08129153
26	0xbe05820a	-0.13037887
27	0xbdefdbbf	-0.11711835
28	0xbe24e2c2	-0.16102126
29	0x3e0f58f6	0.1399878
30	0x3e20bcc4	0.15697008
31	0xbe8a26b4	-0.26982653
32	0x3e8eb7cc	0.278746
33	0x3e2f621a	0.17127267
34	0xbd3b5643	-0.045736562
35	0xbe4980e6	-0.19678077
36	0xbc394e98	-0.011310242
37	0x3e595bef	0.21226476
38	0xbc97854a	-0.018496174
39	0x3db27055	0.08712832
40	0x3de60dce	0.11233102
41	0x3c4ed0ea	0.012623051
42	0x3ea0e603	0.31425485
43	0x3e45e7bc	0.19326681
44	0xbe6c34db	-0.23067038
45	0x3da3b151	0.07992805
46	0x3d4b3d5c	0.049619064
47	0xbe0a80f3	-0.13525753
48	0x3cf98977	0.030461056
49	0xbe9e0894	-0.3086592
50	0x3ea01109	0.31262997
51	0xbe8092af	-0.2511191
52	0x3dab33c0	0.0835948
53	0x3d9b9c17	0.07598131
54	0x3cc8ed4c	0.024527214
55	0x3e9e90ec	0.30969942
56	0xbbf0b256	-0.007345478
57	0xbe2333df	-0.15937756
58	0xbe8991b4	-0.26868975
59	0xbe76a64a	-0.24086872
60	0x3ea8467a	0.3286627
61	0xbe2b20cc	-0.1671173
62	0xbe915264	-0.28383172
63	0xbd488566	-0.048955344
64	0x3e82b6f2	0.255302
65	0x3de504e3	0.11182573
66	0x3d7c6aaf	0.06162518
67	0x3e68ec04	0.22746283
68	0xbdd8140d	-0.105506994
69	0x3e0a9599	0.1353363
70	0xbe3ddc35	-0.18541034
71	0x3d9a49d7	0.07533615
72	0x3ce76765	0.028247545
73	0xbe42bd03	-0.19017415
74	0xbdc220f9	-0.09478945
75	0xbe096889	-0.13418783
76	0x3d56320b	0.05229382
77	0xbd9edb4a	-0.0775667
78	0x3e486234	0.19568712
79	0x3e8038ca	0.25043327
80	0x3e5dd0fc	0.21661752
81	0x3dc66ddd	0.096889235
82	0x3e8f8a88	0.28035378
83	0xbe773a5a	-0.24143353
84	0xbe4cb26f	-0.19989942
85	0x3e4d1bf9	0.20030202
86	0x3e85959f	0.26090714
87	0xbdcc5c62	-0.09978558
88	0x3d24f4ba	0.040272452
89	0x3ddd33ab	0.108008705
90	0x3c4f272c	0.012643617
91	0x3dd283c5	0.10279039
92	0xbe9b43a0	-0.3032503
93	0xbe2e12cb	-0.16999356
94	0x3d15720d	0.03648572
95	0xbc81a506	-0.01582576
96	0xbe8c1189	-0.27357128
97	0x3dc3d707	0.095624976
98	0xbc299790	-0.010351077
99	0xbe949a42	-0.2902394
100	0x3de54576	0.11194889
101	0x3ddb546d	0.10709462
102	0xbea43ed6	-0.3207919
103	0xbe380320	-0.17969942
104	0xbe9294a0	-0.28629017
105	0xbe2df0a4	-0.16986328
106	0x3e09a8f3	0.13443355
107	0xbdf03f04	-0.11730769
108	0x3e355541	0.17708303
109	0x3dd6334e	0.10459004
110	0xbe75b96f	-0.23996519
111	0xbe25d01e	-0.16192672
112	0xbd011505	-0.031514186
113	0x3e4b342b	0.19844119
114	0xbdf6abb1	-0.12044466
115	0xbe44bd9e	-0.19212958
116	0x3e9a243f	0.3010578
117	0x3ba74a8c	0.005105322
118	0x3e8cdab4	0.27510607
119	0xbdff5e66	-0.12469177
120	0xbe5dd222	-0.2166219
121	0xbe8bc625	-0.2729961
122	0xbe96637a	-0.2937277
123	0xbdfb30cd	-0.122651674
124	0xbe5dd83a	-0.21664515
125	0xbd4189be	-0.0472505
126	0x3e41f171	0.18939759
127	0x3e838faa	0.25695544
128	0xbe02f4ac	-0.12788647
129	0xbc4d8f14	-0.0125463195
130	0xbcb686c1	-0.022281053
131	0x3e633d4f	0.22191356
132	0x3c80046d	0.01562711
133	0x3dc22d20	0.09481263
134	0xbd90f5c9	-0.0707813
135	0xbe9c885c	-0.30572784
136	0x3e95441b	0.29153523
137	0xbe96ec9c	-0.29477394
138	0xbdf16375	-0.11786548
139	0xbd9a86e5	-0.0754526
140	0xbdc20ee7	-0.09475499
141	0x3db307ca	0.0874172
142	0xbeb8a6ac	-0.3606466
143	0xbd925556	-0.07145183
144	0xbe90f82d	-0.28314343
145	0x3d8297ef	0.06376635
146	0xbbe80205	-0.007080319
147	0x3e3ca946	0.18423948
148	0x3c218b56	0.00985988
149	0xbe7ddfd4	-0.24792415
150	0xbdd82fd8	-0.105560005
151	0x3e35143c	0.176835
152	0xbe2ac32d	-0.16676016
153	0xbe15606a	-0.1458756
154	0xbcbfc72f	-0.023410408
155	0x3e829c09	0.2550967
156	0xbd7874cd	-0.060658265
157	0x3d92ac31	0.07161749
158	0xbe5b51e8	-0.21417964
159	0xbdc1362d	-0.09434161
160	0xbcb91aa8	-0.022595719
161	0xbc2a7680	-0.010404229
162	0x3ea05abb	0.31319222
163	0x3e04d5dc	0.12972206
164	0x3e5ef39f	0.21772622
165	0x3da1a317	0.07892435
166	0x3dffa99c	0.12483522
167	0xbe57b28f	-0.21064208
168	0x3e485293	0.1956275
169	0xbc96dd93	-0.018416202
170	0xbae3867f	-0.0017358809
171	0x3e8bd6b9	0.27312258
172	0xbd32dfbd	-0.043670405
173	0xbe5bb9f3	-0.21457653
174	0x3e9ea757	0.30987045
175	0xbe4d4ba0	-0.2004838
176	0x3df22c26	0.11824827
177	0xbd2339aa	-0.039849915
178	0x3d80d3b1	0.06290377
179	0x3d8e4275	0.069462694
180	0xbd6d88fa	-0.05799196
181	0x3df6169c	0.12016031
182	0x3e931cfc	0.2873305
183	0xbd56ed01	-0.05247212
184	0x3e20de7d	0.15709873
185	0xbc58836f	-0.01321493
186	0x3ddd1e71	0.10796822
187	0x3ca39705	0.019969473
188	0x3dddf94f	0.108385675
189	0x3e9ea52a	0.30985385
190	0xbe080826	-0.13284358
191	0xbdfca54a	-0.12336214
192	0xbe8a47ee	-0.27008003
193	0x3e80ba68	0.25142217
194	0xbd8760e6	-0.06610279
195	0xbd012cf0	-0.031536996
196	0xbe6e4b0a	-0.23270813
197	0x3d744e0a	0.059644736
198	0x3e2929f0	0.16519904
199	0x3e90bd63	0.2826949
200	0x3eaa53dd	0.33267108
201	0x3d3d5a00	0.04622841
202	0x3d80df04	0.06292537
203	0x3d7919f7	0.060815778
204	0x3e6b61aa	0.22986475
205	0xbe67369f	-0.2257943
206	0x3e097492	0.13423374
207	0x3e400102	0.18750384
208	0xb9a48bdd	-0.00031384724
209	0x3db61f1c	0.088926524
210	0x3df5f422	0.12009455
211	0x3e0cba2f	0.13742898
212	0xbe83c221	-0.25734046
213	0x3d9effd7	0.07763641
214	0xbe77c9ab	-0.24198024
215	0xbd6d48d0	-0.057930768
216	0xbe8f856f	-0.2803149
217	0x3dda5fc3	0.10662796
218	0xbda3b283	-0.07993033
219	0xbe18d64b	-0.14925496
220	0x3dcae713	0.09907355
221	0x3e88f375	0.26748243
222	0x3dcb8194	0.099368244
223	0xbea79f35	-0.32738653
224	0x3dac882d	0.08424411
225	0xbea56265	-0.32301632
226	0x3e765d52	0.24059036
227	0xbe86b673	-0.26311073
228	0x3e07402e	0.13208076
229	0x3e788eff	0.24273299
230	0x3d97fcae	0.07421242
231	0xbe7eb044	-0.24871927
232	0xbd2ba89f	-0.041908856
233	0x3e9cb779	0.3060873
234	0x3e6fbd40	0.23412037
235	0x3e8e14d5	0.2775027
236	0xbe95bff3	-0.29248008
237	0x3e7f8c8c	0.24955958
238	0x3e180820	0.1484685
239	0x3e876815	0.26446596
240	0xbe14ae95	-0.14519723
241	0x3e375046	0.17901716
242	0xbd9e8f9e	-0.077422366
243	0x3d56582d	0.052330185
244	0x3df76a54	0.12080827
245	0xbe8a5477	-0.27017567
246	0x3d8f9b26	0.07012014
247	0x3d03ab29	0.032145653
248	0x3ce6f4e9	0.028192954
249	0x3d69856e	0.057012014
250	0xbc96e686	-0.018420469
251	0xbdc35ce5	-0.095392026
252	0xbd39646e	-0.045261793
253	0x3d8f74bc	0.07004687
254	0xbe5ed134	-0.21759492
255	0xbe7aa74e	-0.24477884

layers.0.bias f4 [128]
0	0xbe4f884e	-0.2026684
1	0x3da9d22d	0.08292041
2	0x3e60b145	0.21942623
3	0xbdeded06	-0.11617474
4	0xbe9a5325	-0.3014156
5	0xbe9b3c39	-0.30319384
6	0x3e2ca01d	0.16857953
7	0xbc6ade45	-0.01433522
8	0xbe0b6098	-0.13611066
9	0xbceb82ad	-0.028748835
10	0xbe884a69	-0.2661927
11	0x3e852cb0	0.26010656
12	0xbd77994a	-0.060448922
13	0x3e9e13d6	0.3087451
14	0xbe0d4af1	-0.13798119
15	0x3e61626f	0.22010206
16	0xbe5a948b	-0.21345727
17	0xb9578487	-0.00020553368
18	0xbe106ef5	-0.14104827
19	0xbe04ef74	-0.12981969
20	0x3e9538f9	0.2914503
21	0x3c35a0c7	0.011085696
22	0xbe010f89	-0.12603582
23	0xbe384e09	-0.17998518
24	0xbd33600f	-0.04379278
25	0x3c5949fa	0.013262266
26	0xbe4d59f3	-0.20053844
27	0xbd91111b	-0.07083341
28	0x3e2fbb93	0.17161398
29	0x3e9053d7	0.28188965
30	0x3e53912e	0.2066085
31	0xbe719a03	-0.23593907
32	0xbd55d796	-0.052207552
33	0x3dc8a77f	0.09797572
34	0x3e7e255f	0.24818943
35	0xbd872d8d	-0.06600485
36	0x3e345026	0.17608699
37	0x3e90c4d5	0.2827517
38	0x3e89a520	0.26883793
39	0x3d48dd10	0.049038947
40	0xbcc807ff	-0.024417875
41	0x3e9b15b4	0.30289996
42	0xbea2ee30	-0.31822348
43	0x3de320cc	0.1109024
44	0xbdfdfe12	-0.12401976
45	0xbe86443c	-0.26223934
46	0xbd92d1d9	-0.071689315
47	0xbd9ac17d	-0.07556436
48	0xbd2c38be	-0.0420463
49	0xbb84d7da	-0.004054052
50	0x3deb0434	0.11475411
51	0xbe85ea87	-0.26155493
52	0x3d69d0ad	0.057083774
53	0xbdfdc607	-0.12391286
54	0xbe729fea	-0.23693815
55	0xbe7c979e	-0.24667212
56	0xbe99d5f1	-0.30046037
57	0x3dd1c401	0.10242463
58	0x3e0c4d01	0.1370125
59	0xbe78afec	-0.24285859
60	0xbe9ae735	-0.30254522
61	0x3ea5f110	0.3241048
62	0x3e3e268a	0.18569389
63	0x3d51a4db	0.05118261
64	0xbe945784	-0.2897302
65	0xbe1ea9b5	-0.15494426
66	0x3e36ae66	0.17839965
67	0xbe7f626b	-0.24939887
68	0x3e75d452	0.24006775
69	0x3e8586b7	0.26079342
70	0x3e9bccea	0.30429775
71	0xbbbf7dd2	-0.0058438564
72	0x3e483da1	0.1955476
73	0x3e66114b	0.22467534
74	0xbc34ae8b	-0.011027942
75	0x3d81cfe7	0.06338482
76	0xbe7e2839	-0.24820031
77	0xbe6b9bf4	-0.2300871
78	0x3e86701a	0.26257402
79	0xbded1f12	-0.11578192
80	0xbd871991	-0.06596673
81	0x3df5212b	0.11969217
82	0x3b9c978a	0.004778807
83	0xbc3418c1	-0.01099223
84	0xbd668113	-0.05627544
85	0xbe3e9492	-0.18611363
86	0xbced3727	-0.028956963
87	0xbe504847	-0.20340072
88	0xbddf5642	-0.10905124
89	0xbce559ff	-0.027997015
90	0x3e92bd2a	0.28659946
91	0xbe4ef381	-0.20210077
92	0xbe087cf0	-0.1332891
93	0x3e0b6552	0.1361287
94	0x3e8babf8	0.2727964
95	0x3e346e0a	0.17620102
96	0x3e7b3190	0.24530625
97	0xbe9485a1	-0.290082
98	0x3e876a13	0.26448116
99	0x3e8f5105	0.279915
100	0xbd21a324	-0.039462224
101	0x3e121e2c	0.14269322
102	0xbdcb1760	-0.09916568
103	0x3e19936a	0.1499764
104	0x3e07711f	0.13226746
105	0x3e8e8f51	0.27843717
106	0xbc43bba9	-0.011946597
107	0x3e9b65ab	0.30351004
108	0x3e09d5ca	0.1346046
109	0x3e66a60d	0.22524281
110	0x3e05cbd9	0.13066043
111	0xbe6e0578	-0.23244274
112	0xbe655a2b	-0.22397678
113	0x3e03a9d0	0.12857747
114	0xbcb3206e	-0.02186605
115	0xbdd9580e	-0.10612498
116	0xbbac32e8	-0.005255092
117	0x3e71b5b3	0.23604469
118	0x3e308d32	0.17241362
119	0xbe5c659a	-0.21523133
120	0x3e370375	0.17872413
121	0x3dd297e8	0.1028288
122	0x3db11fda	0.08648653
123	0x3e7ac167	0.2448784
124	0x3dfba0b5	0.12286512
125	0x3e0a9425	0.13533075
126	0xbe025513	-0.12727766
127	0x3e030af1	0.12797143

layers.1.weight f4 [128, 128]
0	0xbda0c96d	-0.07850919
1	0xbcfd4665	-0.030917356
2	0xbd431891	-0.04763085
3	0x3cba6ed1	0.02275792
4	0x3a3dd9cd	0.00072422327
5	0xbcec4669	-0.028842168
6	0x3d1dc8af	0.038521465
7	0xbd6ab4b9	-0.057301257
8	0x3d69e6d5	0.057104904
9	0xbd85cde2	-0.0653341
10	0xbda88007	-0.08227544
11	0xbd8a71fc	-0.06760022
12	0xbc8eff7f	-0.017455814
13	0x3d11cae9	0.0355939
14	0xbb5d21dc	-0.0033742106
15	0x3d87d39c	0.06632158
16	0x3d9f9028	0.077911675
17	0xbd7f4e0d	-0.062330294
18	0x3ccae420	0.024766982
19	0xbd6be2e7	-0.057589438
20	0x3dbff8ee	0.093736514
21	0x3cf2a30f	0.029618768
22	0x3c4140ae	0.011795206
23	0xbcc7492b	-0.024326881
24	0x3d008377	0.031375375
25	0x3bb347dc	0.005471213
26	0x3d8aaace	0.0677086
27	0xbc5b4b8e	-0.013384713
28	0xbd41789d	-0.047234166
29	0xbdbfbeb8	-0.093625486
30	0x3ccdfdd0	0.025145441
31	0xbd36507e	-0.044510357
32	0xbd2e039b	-0.042483907
33	0xbda5e76e	-0.08100782
34	0x3c8a555a	0.016886402
35	0xbd957e8f	-0.0729953
36	0x3cfbf552	0.030756626
37	0x3d3dc75c	0.046332702
38	0x3ce4ef11	0.027946027
39	0x3d02983a	0.031883456
40	0xbd82496e	-0.06361662
41	0xbd06a123	-0.032868516
42	0xbd0a2308	-0.033724815
43	0xbc5b38d7	-0.013380251
44	0xbd3beb7a	-0.045878865
45	0x3d4d895a	0.050179817
46	0x3dc04eca	0.09390028
47	0x3d66b9b6	0.05632945
48	0xbd3de129	-0.046357308
49	0x3db71188	0.08938891
50	0xbb52da79	-0.0032173677
51	0xbd0a28b5	-0.033730228
52	0xbd72e3dc	-0.059299335
53	0xbce3f4e7	-0.02782674
54	0x3cf78556	0.030214947
55	0x3d6b4af9	0.057444546
56	0xbca4ca5e	-0.020116027
57	0xbd5a0c2c	-0.053234264
58	0xbd80909d	-0.06277583
59	0x3d3f4283	0.04669429
60	0xbd6f3c95	-0.058407385
61	0x3c61708c	0.013759743
62	0xbd07745c	-0.033069953
63	0x3cada15b	0.021195104
64	0xbd131562	-0.035909064
65	0xbd7fbb52	-0.062434502
66	0xbd874f23	-0.06606891
67	0x3d7f211b	0.06228743
68	0xbda8a3bd	-0.082343556
69	0xbdab4aaa	-0.083638504
70	0xbbde7198	-0.006788444
71	0xbba63f09	-0.0050734323
72	0xbd5c170f	-0.053732928
73	0xbd1bc650	-0.038030922
74	0xbc80aac8	-0.015706435
75	0x3d9a98a2	0.07548644
76	0x3d62a411	0.055332247
77	0x3cb4a5bd	0.022051686
78	0x3d675d9b	0.056485754
79	0xbdccd65c	-0.10001823
80	0x3d8c6ed9	0.0685708
81	0x3b28e41f	0.0025770736
82	0x3dcd9a5f	0.100392096
83	0xbd245b45	-0.040126104
84	0xbd0b619f	-0.034028646
85	0xbcb2f3a9	-0.021844702
86	0x3d9a9692	0.0754825
87	0x3b8b3699	0.004248452
88	0x3c556768	0.013025142
89	0xba6464f0	-0.00087125506
90	0xbd0a4032	-0.033752628
91	0x3d9f976f	0.077925555
92	0x3d083137	0.03325006
93	0xbc1bc1d2	-0.00950666
94	0xbc906e40	-0.017630696
95	0x3d834ccb	0.064111315
96	0xbd62cf04	-0.055373207
97	0xbcc4be22	-0.024016444
98	0x3dafde9d	0.08587382
99	0xbd20cc3d	-0.039257277
100	0x3d2c2ccb	0.042034905
101	0xbd43ccbb	-0.047802668
102	0x3ca1733d	0.01970827
103	0x3d2c2ae4	0.04203309
104	0x3c187c01	0.009306909
105	0xbda0df18	-0.07855052
106	0x3d3a5d3b	0.045499068
107	0x3d90033f	0.07031869
108	0x3d52b762	0.05144442
109	0xbdb7a146	-0.08966307
110	0x3cb1bcce	0.021696474
111	0x3c47a7df	0.01218602
112	0x3d56e624	0.052465573
113	0x3ba31fb7	0.004978146
114	0xbdcfca95	-0.10146061
115	0x3cad3966	0.021145534
116	0x3daab887	0.08335977
117	0x3daa00de	0.08300947
118	0xbd915d6f	-0.07097899
119	0x3da66014	0.08123794
120	0xbc76b5da	-0.015058005
121	0x3d913361	0.07089878
122	0xbd58a1c6	-0.052888654
123	0x3d62b3c1	0.055347208
124	0x3d87fb68	0.06639749
125	0xbcb513e5	-0.022104213
126	0xbd3f87f4	-0.046760514
127	0xbc951bba	-0.018201698
128	0xbc711997	-0.014715574
129	0x3d989aee	0.074514255
130	0xbd7b7e0a	-0.061399497
131	0x3ded68de	0.115922675
132	0x3dce5b95	0.10076062
133	0x3da24323	0.079229616
134	0xbd95d2d9	-0.073156066
135	0xbcbfbacd	-0.023404503
136	0x3c8160fd	0.015793318
137	0x3ce2a3c8	0.027665988
138	0xbc233640	-0.009961665
139	0xbd944830	-0.07240331
140	0xbbfef730	-0.007780932
141	0xbc36b458	-0.011151396
142	0x3cc9825b	0.024598291
143	0x3d912990	0.070880055
144	0x3d38aedb	0.04508863
145	0xbd2fcbd5	-0.042919
146	0x3da72477	0.08161252
147	0x3c9ca170	0.019119948
148	0xbd916dda	-0.07101031
149	0x3d7438d4	0.059624508
150	0x3dc8aec0	0.09798956
151	0xbd9c562b	-0.07633623
152	0x3be4f4ba	0.0069871815
153	0x3dd08f85	0.10183624
154	0xbc8dc411	-0.017305406
155	0x3d1afe3f	0.037840124
156	0xbc839172	-0.016060565
157	0x3c03b93d	0.00803977
158	0xbd77343a	-0.06035254
159	0xbd6d8047	-0.057983663
160	0xbd773e07	-0.06036189
161	0x3d55cbab	0.052196186
162	0x3c80e6ca	0.015735049
163	0xbce1bf29	-0.027556973
164	0xbbd11e6a	-0.0063817995
165	0x3cb3432b	0.021882614
166	0xba82f185	-0.0009990191
167	0xbd6a3390	-0.05717808
168	0xbd0d8a06	-0.034555458
169	0x3b876320	0.0041316897
170	0xbdac0eff	-0.08401298
171	0xbd386685	-0.045019645
172	0x3d131837	0.035911765
173	0x3d579874	0.052635625
174	0xbd739a34	-0.05947323
175	0xbdd84d24	-0.105615884
176	0xbd042aaa	-0.03226725
177	0x3bf77056	0.0075512333
178	0xbd210780	-0.039313793
179	0xbda76172	-0.08172883
180	0x3dd77dd7	0.10522049
181	0x3ceed66e	0.029154982
182	0x3c231d29	0.009955683
183	0xbd61f406	-0.05516436
184	0x3d1056bf	0.035238978
185	0x3dc624cc	0.09674987
186	0xbd91b785	-0.07115082
187	0xbd35b92f	-0.044366058
188	0x3db511ec	0.08841309
189	0xbd655e36	-0.05599805
190	0x3d01ae00	0.03166008
191	0xbd3eff4f	-0.0466302
192	0x3ce148b9	0.027500497
193	0x3df4ae31	0.11947287
194	0xbba0476d	-0.004891327
195	0x3db029b4	0.08601704
196	0x3d9fce3f	0.0780301
197	0xbcf3e7f9	-0.0297737
198	0x3bdc663f	0.006726056
199	0xbdb7f97a	-0.08983131
200	0xbbd16416	-0.006390105
201	0x3dc4320e	0.0957986
202	0x3d25689b	0.040382963
203	0x3d4d2dca	0.050092496
204	0x3c3bf6dc	0.01147243
205	0x3c37cee0	0.011218756
206	0x3cc29e6d	0.023757184
207	0x3bf17666	0.0073688505
208	0x3d59cc07	0.05317309
209	0xbd489868	-0.04897347
210	0x3da6ac89	0.08138377
211	0x3d973903	0.07383921
212	0x3d62ffac	0.05541961
213	0xbda37ac3	-0.07982399
214	0xbbc2e767	-0.0059479955
215	0xbacaab7a	-0.0015462481
216	0xbd8b6571	-0.06806458
217	0xbd15e555	-0.03659566
218	0x3db965b6	0.09052603
219	0x3cb60594	0.022219457
220	0xbd491e8c	-0.049101397
221	0xbd9ad71e	-0.075605616
222	0xbd1367b3	-0.035987567
223	0x3dcdd7fe	0.10050963
224	0xbd04288a	-0.032265224
225	0xbd894f5e	-0.06704591
226	0xbdb35c13	-0.08757796
227	0x3dcbd10b	0.09951981
228	0xbd56f7fe	-0.052482598
229	0xbca221b7	-0.019791467
230	0xbd92290d	-0.07136736
231	0xbd85d62c	-0.06534991
232	0xbd9fbac4	-0.077992946
233	0xbd3989f1	-0.045297567
234	0x3c9ab238	0.01888381
235	0x3c3ebfec	0.011642437
236	0xbca1ea70	-0.019765109
237	0xbc99354e	-0.018702175
238	0x3d8fd6d1	0.07023395
239	0x3d7cb844	0.061699167
240	0x3d303cac	0.04302661
241	0x3d75013b	0.059815627
242	0x3c29dd88	0.010367759
243	0x3cd86414	0.026414908
244	0xbcd516fd	-0.026011938
245	0xbd4c63ef	-0.04989999
246	0xbc378d3e	-0.011203108
247	0x3d322111	0.043488566
248	0x3d7f270f	0.06229311
249	0x3db88148	0.090090334
250	0xbd74a7b2	-0.05973024
251	0xbc64626e	-0.013939483
252	0x3da30a88	0.07960993
253	0xbd354694	-0.04425676
254	0xbd763a59	-0.06011424
255	0xbc5ec34d	-0.013596368

layers.1.bias f4 [128]
0	0x3b8bf4dc	0.004271133
1	0x3d9bca2e	0.07606922
2	0x3db1d6ec	0.08683571
3	0x3db9d211	0.0907327
4	0xbd39124e	-0.045183472
5	0x3d00272f	0.03128737
6	0x3d42ebdf	0.047588225
7	0x3d943ca9	0.072381325
8	0x3d435fbd	0.047698725
9	0xbd907765	-0.07054023
10	0x3d66eda9	0.056378994
11	0xbd56907d	-0.05238389
12	0x3cb0dc1b	0.02158933
13	0xbd73eadc	-0.05955015
14	0x3b6d8a96	0.0036245934
15	0x3c93ee96	0.018058103
16	0xbca38437	-0.019960506
17	0x3cbc7fb7	0.023010118
18	0x3d60eb1e	0.054911725
19	0x3cd7c63f	0.026339648
20	0xbd135521	-0.035969857
21	0xbcaadf72	-0.0208585
22	0x3d5dbed6	0.054137073
23	0x3d748458	0.059696525
24	0xbc9ec479	-0.019380795
25	0x3cd03e7d	0.025420422
26	0xbc36b929	-0.011152544
27	0xbd55b5f4	-0.052175477
28	0x3d8907eb	0.06690963
29	0xbbce0b93	-0.006288001
30	0x3d7ae0b3	0.061249446
31	0x3d5e5eee	0.05428975
32	0xbcc0d156	-0.02353732
33	0xbd2fee84	-0.042952076
34	0xbccb2e48	-0.024802342
35	0x3d13ed12	0.03611476
36	0xbd629d3f	-0.055325743
37	0x3d87c51b	0.06629392
38	0xbcad3e06	-0.02114774
39	0x3c44bf72	0.012008535
40	0x3db401ba	0.08789392
41	0xbd4b90ce	-0.049698643
42	0x3d2cdf89	0.042205367
43	0x3db0d56c	0.08634457
44	0x3d8b8da3	0.068141244
45	0xbcc534fc	-0.024073116
46	0xbcf6877a	-0.030093897
47	0x3c8dc20d	0.017304445
48	0x3d29afc1	0.041427378
49	0xbd5afd61	-0.053464297
50	0xbd53585b	-0.051597934
51	0x3d95cf7e	0.073149666
52	0xbc4d6ce5	-0.0125381695
53	0x3bcf0e24	0.0063188244
54	0x3bb1246d	0.0054059536
55	0xbd836f27	-0.06417685
56	0x3d836f9d	0.06417773
57	0x3dc20873	0.09474268
58	0x3d9b1577	0.075724535
59	0x3dc09311	0.09403051
60	0x3cb108b6	0.021610599
61	0xbd345262	-0.04402388
62	0xbcec0f98	-0.02881603
63	0x3d626b93	0.055278372
64	0x3db3991e	0.08769439
65	0x3d562792	0.05228383
66	0xbda6fc54	-0.081535965
67	0x3d9ebd0e	0.07750903
68	0x3caa22ab	0.020768484
69	0xbd9271c6	-0.07150607
70	0x3d5a5773	0.053306054
71	0x3d48da35	0.049036223
72	0x3c313694	0.010816235
73	0x3d23d5a2	0.039998658
74	0xbc9f460e	-0.019442584
75	0x3db4a7d0	0.0882107
76	0x3c70d517	0.014699242
77	0x3d0ffdac	0.03515403
78	0xbd9f9b04	-0.07793239
79	0x3dc5922d	0.096470214
80	0x3dd4936d	0.10379682
81	0xbb13e5eb	-0.0022567462
82	0x3d57f276	0.052721463
83	0xbda11ce6	-0.0786684
84	0x3d0c0d37	0.03419229
85	0x3db3c23c	0.08777282
86	0x3d58565d	0.052816737
87	0xbd4f0d32	-0.050549693
88	0x3ccade13	0.024764096
89	0xbc7493bb	-0.0149278
90	0x3d18f147	0.037339475
91	0x3da0a0cf	0.07843172
92	0xbd8cacc4	-0.0686889
93	0xbc077b3d	-0.008269128
94	0x3d15e3ee	0.036594324
95	0xbd5f5345	-0.05452277
96	0x3d9d5590	0.076823354
97	0x3cf904f6	0.030397873
98	0x3cc606e5	0.02417321
99	0xbd281cbb	-0.041043025
100	0xbd9a6aa2	-0.0753987
101	0x3bdc7700	0.006728053
102	0x3d871e01	0.0659752
103	0x3db293a7	0.08719569
104	0xbc14141d	-0.0090379985
105	0x3d00987e	0.031395428
106	0xbd7a995f	-0.061181422
107	0x3bef86e4	0.0073097814
108	0x3d8c3f36	0.06847994
109	0x3dbb6da0	0.09151769
110	0xbc74f1fd	-0.014950273
111	0xbd940f4a	-0.07229479
112	0xbc7ea42d	-0.015542072
113	0x3b74bfa8	0.0037345681
114	0x3c8c02dc	0.017091207
115	0xbd3ddc44	-0.04635264
116	0x3d40e0ef	0.047089513
117	0xbc9ae2b1	-0.018906923
118	0xbc91a7c0	-0.017780185
119	0x3cbdb8bd	0.02315938
120	0x3dcd3f3c	0.100218266
121	0x3d9d1188	0.076693594
122	0x3d779edd	0.06045424
123	0x3c939b36	0.018018346
124	0xbd2a845a	-0.041630127
125	0xbd112614	-0.035436705
126	0x3ca081d7	0.019593162
127	0xbb18d9d5	-0.0023323197

layers.2.weight f4 [128, 128]
0	0x3d042696	0.03226336
1	0x3ddef789	0.10887057
2	0x3d8059b2	0.06267108
3	0x3dbb8835	0.09156839
4	0x3db481c8	0.08813816
5	0xbd5a3edd	-0.053282607
6	0xbd244f03	-0.040114414
7	0xbcd2e26b	-0.02574273
8	0xbd57ae3c	-0.052656397
9	0xbd13ec9c	-0.03611432
10	0x3d98f0a3	0.07467773
11	0xbd22cddf	-0.039747115
12	0x3d01e489	0.03171209
13	0x3d387585	0.04503395
14	0xbd567e55	-0.052366573
15	0x3d17a7ff	0.037025448
16	0xbd870c3e	-0.06594132
17	0x3d2a77c6	0.04161813
18	0x3c02fce4	0.007994864
19	0xbd3f48c1	-0.046700243
20	0x3d80ab33	0.06282654
21	0x3da227bc	0.07917735
22	0x3d36e4d2	0.044651814
23	0x3d69d94d	0.057092
24	0xbd906cf2	-0.0705203
25	0xbdb5a9a0	-0.08870244
26	0x3d69cee7	0.057082083
27	0x3da07234	0.078342825
28	0xbd057c87	-0.03258946
29	0xbbdef38d	-0.006803936
30	0x3cfbd1e4	0.030739732
31	0x3ccd0789	0.025028007
32	0xbd458972	-0.04822678
33	0xbd0a17e8	-0.033714205
34	0xbd1848bc	-0.03717874
35	0x3ccbcaeb	0.024877032
36	0x3bcbcd3b	0.0062195337
37	0x3d7581b7	0.05993816
38	0x3bb6f845	0.0055837953
39	0x3c015023	0.007892641
40	0xbd4b619e	-0.049653642
41	0x3d474eea	0.048659243
42	0x3da3f71f	0.08006119
43	0x3d223434	0.039600566
44	0xbd1cda79	-0.03829429
45	0x3da482b6	0.08032744
46	0x3bb77647	0.0055988166
47	0x3c88d7ad	0.016704405
48	0xbda02149	-0.07818849
49	0xbd8509ab	-0.06495985
50	0x3d909e0c	0.07061395
51	0xbd28cef5	-0.041212995
52	0x3d6ef3df	0.058338042
53	0x3d7ae2a6	0.061251305
54	0x3c0c02c9	0.008545586
55	0xbcc3e9ec	-0.023915254
56	0x3db5e9ff	0.08882522
57	0xbd8be426	-0.06830625
58	0xbceb2bac	-0.028707348
59	0x3d2d203a	0.04226706
60	0xbd3571e2	-0.04429806
61	0x3d22bd6a	0.03973142
62	0xbc34e027	-0.01103977
63	0xb941ae13	-0.00018470762
64	0x3d2799d9	0.040918205
65	0xbcfd6cd3	-0.03093568
66	0xbcb54637	-0.022128208
67	0xbd3c371c	-0.045950994
68	0x3d95237b	0.07282158
69	0xbd32e084	-0.043671146
70	0xbd826dc0	-0.063685894
71	0xbbb79474	-0.005602414
72	0x3d21b6ff	0.03948116
73	0xbc9bc61f	-0.01901537
74	0xbd9eefd6	-0.07760589
75	0x3c43caed	0.011950237
76	0x3dbe52a7	0.092931084
77	0x3c313374	0.01081549
78	0xbd83c8e5	-0.06434802
79	0xbd8cd4ca	-0.06876524
80	0xbdc441ab	-0.09582838
81	0x3da2a363	0.0794132
82	0x3c47439c	0.012162115
83	0x3c1fd4ea	0.0097553525
84	0x3ca9f3b0	0.020746082
85	0xbcfa756f	-0.030573575
86	0x3d685f4c	0.056731507
87	0xbdb96bca	-0.09053762
88	0x3d9f395d	0.07774613
89	0x3d8fa14e	0.07013188
90	0xbd5a283d	-0.05326103
91	0x3d990757	0.07472103
92	0x3d107f79	0.035277817
93	0x3c97cb1d	0.01852947
94	0xbda1bf00	-0.078977585
95	0x3bcffab1	0.0063470234
96	0xbb82c89a	-0.0039911987
97	0xbd128b2e	-0.035777263
98	0x3d77926d	0.060442377
99	0xbd3e4cad	-0.046459842
100	0xbd82e0fb	-0.06390568
101	0xba77f8e0	-0.00094593875
102	0xbd6d9d49	-0.058011327
103	0xbd1dfcb5	-0.03857108
104	0xbd362ff5	-0.04447933
105	0xbd2475a1	-0.040151242
106	0xbddf5ca0	-0.10906339
107	0xbd7562e6	-0.05990877
108	0xbc4692c3	-0.012119952
109	0x3a191901	0.00058402127
110	0x3dc69419	0.09696216
111	0x3dbbd229	0.09170944
112	0xbd079a84	-0.033106342
113	0xbcf23adc	-0.029569082
114	0xbcb63463	-0.022241777
115	0x3d597e94	0.05309923
116	0x3ceddc9f	0.029035864
117	0x3d13b412	0.0360604
118	0xbd0345c3	-0.03204895
119	0x3cbc84ed	0.023012603
120	0xbc6130b9	-0.013744527
121	0x3cb22a99	0.021748828
122	0xbc6b8c51	-0.014376716
123	0x3da4cf15	0.0804731
124	0x3d3bee97	0.045881834
125	0xbd9318d8	-0.07182473
126	0x3d5d1126	0.053971432
127	0x3c867f55	0.016418139
128	0x3e1506ad	0.14553328
129	0x3e1106c2	0.14162734
130	0x3d9419bd	0.07231472
131	0xbdda8c10	-0.10671246
132	0xbc8eb9d0	-0.017422587
133	0xbdf217a7	-0.118209176
134	0xbd50973e	-0.050925486
135	0xbc811f07	-0.015761865
136	0xbdd64bde	-0.10463689
137	0x3ce458af	0.027874319
138	0x3d8b12c8	0.067906916
139	0xbd65d220	-0.056108594
140	0x3d9506f0	0.07276714
141	0xbd9728c0	-0.07380819
142	0x3a651acf	0.00087396515
143	0xbc9f7f5f	-0.019469915
144	0x3c3158b6	0.010824373
145	0x3cfd898e	0.03094938
146	0x3d90a972	0.07063569
147	0xbca969a7	-0.020680262
148	0x3d0c7c74	0.034298375
149	0xbd9d35eb	-0.076763
150	0xbd9d51e3	-0.07681634
151	0x3d3cfd4a	0.046139993
152	0xbb30c291	-0.002697144
153	0xbd8e1327	-0.06937247
154	0xbc676781	-0.014123798
155	0x3d404237	0.046938147
156	0xbd2f25ee	-0.042760782
157	0xbd2aaf8c	-0.04167132
158	0xba6b753f	-0.00089820096
159	0xbd58c6f7	-0.052924123
160	0x3d09f49b	0.03368054
161	0xbc05b592	-0.0081609655
162	0xbdbd4a0f	-0.09242641
163	0xbdb4c169	-0.088259526
164	0x3d59ec45	0.05320384
165	0x3da20191	0.07910455
166	0xbd0c37ea	-0.03423301
167	0xbd7006bb	-0.05860017
168	0xbd63a2c4	-0.055575147
169	0x3d5bcecb	0.05366401
170	0xbd0c23ec	-0.034213945
171	0x3dc32a81	0.09529591
172	0x3cfb960c	0.030711196
173	0xbd4ef18a	-0.05052332
174	0xbd47ccc7	-0.048779275
175	0x3d2cc5d9	0.04218087
176	0xbd6fcf05	-0.05854704
177	0x3de0babf	0.10973119
178	0x3b284ae0	0.0025679395
179	0x3db45245	0.08804754
180	0x3dae9399	0.08524246
181	0x3cb854d1	0.022501381
182	0x3ccf5a4b	0.02531161
183	0xbd96c340	-0.0736146
184	0x3b98c461	0.004662082
185	0xbc35e1ea	-0.011101225
186	0x3d180d18	0.037121862
187	0x3d8069e0	0.06270194
188	0xbcd00ce6	-0.025396775
189	0x3db0fad7	0.08641594
190	0x3e07f969	0.13278736
191	0xbd151c34	-0.03640385
192	0xbd913402	-0.07089998
193	0xbcdeef57	-0.027213736
194	0xbd8d21d0	-0.06891215
195	0x3d300f97	0.042983618
196	0x3c974b6b	0.01846858
197	0x3d4db54c	0.050221726
198	0x3d9fadab	0.077967964
199	0xbc371be7	-0.011176086
200	0x3e13617e	0.14392659
201	0xbd28dc9d	-0.04122602
202	0x3d496698	0.049170107
203	0xbdbe0f4b	-0.09280261
204	0xba698644	-0.0008908252
205	0xbd635caf	-0.05550831
206	0xbba449fb	-0.005013702
207	0xbd2b3d80	-0.041806698
208	0xbb57ba53	-0.0032917454
209	0x3d1f445a	0.038883545
210	0xbd45b6cc	-0.04827003
211	0xbd5df8f0	-0.054192483
212	0xbd85c348	-0.065313876
213	0xbda862d4	-0.08221975
214	0xbd84f613	-0.064922474
215	0xbcf08bb0	-0.029363483
216	0x3d9326c8	0.07185131
217	0xbd84b077	-0.064789705
218	0x3c9cf37d	0.019159073
219	0x3c57fef3	0.013183343
220	0xbd35c6c8	-0.044379026
221	0x3dfa73ed	0.12229142
222	0x3d0a6641	0.033788923
223	0xbc8eb91d	-0.017422253
224	0x3d440b8d	0.04786258
225	0x3a0fbefe	0.0005483477
226	0xbd08bdb5	-0.033384044
227	0x3bf5e360	0.007503912
228	0x3d55789e	0.052116983
229	0x3d655724	0.055991307
230	0xbcf32e86	-0.02968527
231	0xbd16b9ff	-0.036798473
232	0x3d49cbf2	0.049266763
233	0x3cf34680	0.029696703
234	0xbc8d12ae	-0.017220821
235	0xbdba7f4b	-0.091063105
236	0xbbaaabdb	-0.005208475
237	0xbd427201	-0.047472004
238	0xbcd18d6b	-0.025580129
239	0x3cdd301a	0.027000476
240	0xbd2c548b	-0.042072814
241	0xbbf3166c	-0.0074184444
242	0xbcd47ee2	-0.025939409
243	0x3d13ac21	0.036052827
244	0x3e09805f	0.13427876
245	0x3d50bd8c	0.050962016
246	0x3d4c5faf	0.04989594
247	0xbd12182c	-0.035667583
248	0xbd26c44a	-0.04071454
249	0x3d07ee1c	0.033186063
250	0x3d1e3632	0.038625903
251	0x3cfa8fe6	0.030586194
252	0xbc858637	-0.01629935
253	0xbc17c98a	-0.009264359
254	0xbda9f514	-0.08298698
255	0xbdbd95c9	-0.09257085

layers.2.bias f4 [128]
0	0xbd6a6744	-0.057227388
1	0x3d0a5876	0.03377577
2	0xbd0a2892	-0.033730097
3	0x3d9ce4bc	0.07660815
4	0xbd1a8c63	-0.03773154
5	0xbd8bd471	-0.06827629
6	0x3d37e9c0	0.044900656
7	0x3d55a10b	0.052155536
8	0x3d2e6a12	0.042581625
9	0x3d88cbdf	0.0667951
10	0x3da4e273	0.08051004
11	0x3cdeebd2	0.027212057
12	0xbd9b3679	-0.07578749
13	0x3bc313e2	0.005953298
14	0xbd9989d4	-0.07496992
15	0x3d9b7ee0	0.07592559
16	0x3da234cd	0.07920227
17	0x3d307bcf	0.043086823
18	0xbce4c666	-0.027926635
19	0x3da92cdd	0.0826051
20	0x3d32de02	0.043668754
21	0x3c7e1d96	0.0155099835
22	0x3d603820	0.054741025
23	0xbd4509be	-0.048104994
24	0x3dbba50a	0.09162338
25	0xbdb21d7c	-0.0869703
26	0x3d38f97a	0.045159794
27	0x3d044bb1	0.032298747
28	0x3d9e9ab0	0.07744348
29	0xbd3f65ea	-0.046728052
30	0xbd3eaa16	-0.046548925
31	0x3d8f3744	0.06992963
32	0xbc18687f	-0.009302258
33	0xbb072437	-0.002062095
34	0xbbc5cd43	-0.006036432
35	0x3cdfb07d	0.027305836
36	0x3bbb629c	0.0057185423
37	0x3d7912a0	0.060808778
38	0x3c887ce0	0.016661108
39	0x3c200ec0	0.009769142
40	0x3d264606	0.040594123
41	0xbd61ec07	-0.055156734
42	0x3b67cc9d	0.0035369762
43	0x3d8ad24f	0.067783944
44	0x3cc4e6ea	0.02403589
45	0x3d4a8015	0.049438555
46	0xbd13a136	-0.036042415
47	0x3d05061e	0.032476537
48	0xbd062a77	-0.03275534
49	0xbd52a57a	-0.051427342
50	0x3d7695b6	0.06020137
51	0x3cef71af	0.029229013
52	0x3d802965	0.062578954
53	0x3db2a327	0.08722525
54	0xbd626c82	-0.055279262
55	0xbbd27606	-0.006422761
56	0xbd8f240a	-0.06989296
57	0x3ba5a288	0.0050547756
58	0xbbb098cf	-0.00538931
59	0xbd9097a3	-0.070601724
60	0xbd36e799	-0.044654462
61	0x3da07732	0.07835235
62	0xbcbed2ad	-0.023293817
63	0xbd3c5bc4	-0.045985952
64	0x3c987263	0.018609231
65	0xbda9836a	-0.08277018
66	0x3d1bcd85	0.038037796
67	0xbd758c60	-0.059948325
68	0xbb3eac6d	-0.0029094473
69	0xbdafda67	-0.08586579
70	0xbcbc7839	-0.023006545
71	0x3cad9fb1	0.02119431
72	0x3d8c8b3d	0.06862495
73	0x3d4d6e81	0.050154213
74	0x3d94472a	0.07240136
75	0x3c892086	0.016739141
76	0x3d6e3177	0.058152642
77	0x3bece612	0.007229575
78	0xbd43a0bd	-0.047760714
79	0x3dad10cc	0.084504694
80	0x3d7be36d	0.061496187
81	0x3ccdbae8	0.025113538
82	0xbd4aa392	-0.0494724
83	0x3db8f785	0.090315856
84	0x3c76cf03	0.015064004
85	0xbd2f3d76	-0.042783223
86	0x3da0a7f5	0.07844535
87	0x3d79b665	0.06096496
88	0x3d86f792	0.06590189
89	0x3b2d5375	0.002644745
90	0xbd144c99	-0.03620586
91	0xbd032f89	-0.032027755
92	0xbd3251c1	-0.043534998
93	0x3c5c6782	0.013452413
94	0x3d6cbeb1	0.057799045
95	0x3c82aecd	0.015952492
96	0x3d78ca48	0.060739785
97	0xb9bf416d	-0.00036479105
98	0xbcd72010	-0.026260406
99	0xbd80a758	-0.06281918
100	0x3d36eb96	0.044658266
101	0x3d0bba42	0.034113176
102	0x3d6967ed	0.056983877
103	0x3d8cd65b	0.068768226
104	0x3d52c6ec	0.051459238
105	0x3d835650	0.06412947
106	0xbda944b9	-0.08265061
107	0x3ce4a85b	0.02791231
108	0x3cbc793e	0.023007032
109	0x3c688f18	0.014194272
110	0x3d912bbc	0.0708842
111	0xbb4671cb	-0.0030280228
112	0x3db02aea	0.08601935
113	0x3da19c64	0.07891157
114	0x3dbf7aa7	0.09349566
115	0x3d372c44	0.04471995
116	0x3db480bb	0.08813616
117	0xbd326e59	-0.043562267
118	0x3d0a66f0	0.033789575
119	0xbd24c160	-0.04022348
120	0x3d7679d6	0.060174786
121	0x3d65a829	0.056068573
122	0xbd3ccc88	-0.046093494
123	0xbd95d4b4	-0.073159605
124	0xbd86d624	-0.06583813
125	0xbcc1d5e1	-0.023661556
126	0xbd9d7b60	-0.076895475
127	0x3c8a5bd8	0.016889498

layers.3.weight f4 [1, 128]
0	0xbd6d444a	-0.057926454
1	0x3de579db	0.11204883
2	0x3cf51356	0.029916447
3	0xbbe88632	-0.0070960755
4	0x3dc9e716	0.09858529
5	0xbdb0e0bb	-0.08636614
6	0x3dc08b9e	0.0940163
7	0x3d7a5afe	0.061121933
8	0x3da2b3a0	0.07944417
9	0x3cf63da0	0.030058682
10	0x3dab2040	0.083557606
11	0x3da8d2ce	0.08243333
12	0x3d9068e7	0.070512585
13	0xbdac737f	-0.08420467
14	0x3d8c05f4	0.06837073
15	0x3be76655	0.0070617595
16	0x3d362d56	0.04447683
17	0x3dbb0942	0.09132625
18	0x3d4cab50	0.049968064
19	0xbd64eb29	-0.05588833
20	0x3cffd7d9	0.031230854
21	0xbd69cc63	-0.057079684
22	0x3d9b510c	0.07583818
23	0xbcb40b55	-0.02197806
24	0xbdabd4ef	-0.08390223
25	0x3d54f65c	0.05199276
26	0x3d776003	0.0603943
27	0x3db0904a	0.08621271
28	0x3d3b4e01	0.045728687
29	0x3d9b73f0	0.07590473
30	0x3d8d91ab	0.069125496
31	0x3d1669f6	0.036722146
32	0xbdba958b	-0.09110554
33	0x3df20dce	0.11819039
34	0x3dc603e6	0.09668712
35	0x3da7bc7e	0.08190249
36	0x3cda5484	0.026651628
37	0x3db0fca5	0.08641938
38	0xbd171c73	-0.036892366
39	0xbe1592b6	-0.14606747
40	0x3d657ed3	0.056029152
41	0x3d56f02b	0.052475136
42	0x3c08d61c	0.008351829
43	0x3dbccae0	0.09218383
44	0xbdb10d49	-0.08645112
45	0x3d9b2603	0.075756095
46	0x3c8d27df	0.017230926
47	0x3db5e6e5	0.0888193
48	0x3ce5e289	0.028062122
49	0xbda7dcad	-0.081963874
50	0x3db1a22c	0.0867351
51	0xbd354c40	-0.04426217
52	0x3d839487	0.06424814
53	0xbda73fc3	-0.081664585
54	0xbd82f87d	-0.06395052
55	0x3db6da7a	0.0892839
56	0x3df04caf	0.11733376
57	0x3d64dbd5	0.05587371
58	0x3d5198e8	0.051171213
59	0x3d150dcc	0.03639011
60	0x3ccc8f43	0.024970656
61	0x3dbb4583	0.09144118
62	0xbdd75937	-0.10515063
63	0xbe1f1a98	-0.15537488
64	0x3db895c6	0.09012942
65	0x3e0d55d6	0.13802275
66	0x3dd4042a	0.10352357
67	0x3d12a67b	0.0358033
68	0x3c208078	0.009796254
69	0xbd7b9e91	-0.061430518
70	0xbdadbc8e	-0.084832296
71	0xbd950f7d	-0.07278345
72	0xbd7e47e9	-0.062080298
73	0x3dcc5681	0.09977437
74	0xbcb3aa9b	-0.021931937
75	0xbca48d76	-0.020086985
76	0xbcf875f0	-0.030329674
77	0x3d28f188	0.041245967
78	0x3e275c7e	0.16343877
79	0xbd33bb22	-0.043879636
80	0x3dabc970	0.083880305
81	0xbc9294c3	-0.0178932
82	0x3d689c76	0.056789838
83	0xbd907343	-0.070532344
84	0xbbae0f2c	-0.005311867
85	0xbd1ef98c	-0.038812205
86	0x3e0e4e1d	0.13896985
87	0xbd9057c2	-0.070479885
88	0x3d06a6a6	0.032873772
89	0x3d66bff3	0.0563354
90	0xbde520d6	-0.111879036
91	0xbd83f400	-0.06443024
92	0xbdcb48f3	-0.09926023
93	0x3d36986c	0.044578955
94	0x3c361463	0.011113259
95	0x3d6aed80	0.057355404
96	0x3cf100f4	0.0294194
97	0x3e17b6a3	0.14815764
98	0x3dd50cbb	0.10402819
99	0xbdd09e92	-0.10186495
100	0x3e020d25	0.12700327
101	0x3d3bafd2	0.045821972
102	0xbdb3fdbb	-0.087886296
103	0xbde2d986	-0.110766456
104	0xbd9c0b5a	-0.07619353
105	0xbd755133	-0.05989189
106	0xbd86e9de	-0.065875754
107	0xbce78dfe	-0.02826595
108	0x3e20f1fd	0.15717311
109	0x3d8d5126	0.069002435
110	0x3e6bccb0	0.23027301
111	0xbdca67c3	-0.09883072
112	0xbd62043c	-0.05517982
113	0x3d778803	0.060432445
114	0xbdd616ec	-0.10453591
115	0xbd7bcbb5	-0.061473567
116	0xbd66926a	-0.056291975
117	0x3dbaeba5	0.09126977
118	0x3dc83f98	0.097777545
119	0xbd65528d	-0.05598693
120	0xbdbb02e4	-0.09131411
121	0x3da673cc	0.08127555
122	0xbdbcec2d	-0.092247345
123	0xbd9524ea	-0.072824314
124	0xbd9fb506	-0.07798199
125	0xbc3f804e	-0.011688305
126	0xbe00d70d	-0.12582035
127	0xbd6017d0	-0.05471021
