trained_models/G_1_exp.pth (torch_old, 139548 bytes, 7 tensors)

layers.0.weight f4 [128, 10]
0	0xbe550525	-0.20802744
1	0x3e561d9b	0.20909731
2	0x3e96c2ee	0.29445595
3	0xbdd5bf3c	-0.10436866
4	0xbe9e6482	-0.30936056
5	0xbdef23b1	-0.116767295
6	0xbd8d9b42	-0.06914379
7	0xbe558fc9	-0.20855631
8	0xbe7a20c3	-0.2442656
9	0x3c3df6a3	0.011594447
10	0x3dfc55a5	0.12321023
11	0x3e553f36	0.20824894
12	0x3e567311	0.20942332
13	0x3dadd793	0.08488383
14	0x3b0eb98a	0.002177807
15	0xbe1a8125	-0.15088327
16	0xbb5df467	-0.00338676
17	0x3e53014f	0.20605968
18	0xbde95ddc	-0.113948554
19	0xbd8d94ba	-0.06913133
20	0x3e337ebf	0.17528819
21	0xbd9c3fc2	-0.07629348
22	0xbe0d4260	-0.13794851
23	0x3e83b388	0.2572291
24	0x3d21db8f	0.039516028
25	0xbea1a551	-0.3157144
26	0xbe29c6cb	-0.1657974
27	0xbeb83a1f	-0.35981843
28	0x3e964152	0.2934671
29	0x3c8b9c5f	0.017042337
30	0x3d9efe2f	0.077633254
31	0xbe924929	-0.28571442
32	0x3e9a14e2	0.30094057
33	0xbd82383d	-0.06358383
34	0xbebb1a75	-0.36543623
35	0x3bc98c99	0.0061507937
36	0xbdfb47ef	-0.122695796
37	0xbde06f1e	-0.10958694
38	0xbd9210e8	-0.07132131
39	0xbc96269f	-0.018328963
40	0xbc313f10	-0.010818258
41	0x3e882ab2	0.26595074
42	0xbe9650f2	-0.2935863
43	0x3e43572a	0.19076219
44	0x3e10bc80	0.14134407
45	0x3dbdc9a0	0.092669725
46	0xbe9134eb	-0.28360686
47	0xbe3ec2d3	-0.18629007
48	0xbdcf8343	-0.10132458
49	0x3cec8803	0.02887345
50	0x3e5ad93e	0.21371934
51	0x3e784200	0.24243927
52	0x3e954a81	0.29158404
53	0x3c0bd8b9	0.008535557
54	0x3e7da0cc	0.2476837
55	0xbe25146e	-0.16121075
56	0x3b5380e6	0.0032272874
57	0x3e5f98d0	0.21835637
58	0xbc16008f	-0.009155407
59	0xbdf04737	-0.11732333
60	0x3e8d1d67	0.27561495
61	0x3c9207a3	0.017825907
62	0xbd8525a9	-0.06501324
63	0x3e921c24	0.28537095
64	0xbd100d33	-0.035168838
65	0xbeaf8fc7	-0.3428938
66	0x3d991691	0.07475007
67	0xbe65b02c	-0.22430485
68	0xbe5d05a9	-0.2158419
69	0x3ea8e48d	0.3298687
70	0xbdcf03b2	-0.10108127
71	0xbe2861e8	-0.16443598
72	0xbe39024a	-0.1806728
73	0xbe8dbadb	-0.27681622
74	0x3e860ea7	0.26183054
75	0xbe8889e3	-0.266677
76	0xbd2f4ebc	-0.042799696
77	0x3c9cb328	0.019128397
78	0x3e9563cf	0.2917771
79	0xbe8f8c78	-0.28036857
80	0xbbf949dd	-0.007607682
81	0xbeb58e70	-0.35460234
82	0x3cb9ba7e	0.022671934
83	0xbeb91472	-0.3614841
84	0x3e01fff1	0.1269529
85	0x3e078a55	0.13236363
86	0x3db5b0f7	0.08871644
87	0xbb5974c8	-0.003318118
88	0xbe3c3f6e	-0.18383572
89	0x3e0b26f5	0.1358908
90	0x3d435891	0.047691885
91	0xbe8152fe	-0.2525863
92	0x3d673a13	0.05645187
93	0x3e439f43	0.19103722
94	0xbe6a91aa	-0.22907129
95	0xbc96e12b	-0.018417915
96	0x3c180b49	0.009280034
97	0xbd9bf6da	-0.076154426
98	0x3e23b7b3	0.15988044
99	0xbbbdbd49	-0.005790387
100	0xbd85550a	-0.065103605
101	0x3e16ebdb	0.14738409
102	0xbddf9ca3	-0.10918548
103	0x3e91b728	0.2846005
104	0x3e860a1a	0.26179582
105	0xbdcd8379	-0.10034842
106	0xbe3a417b	-0.18189041
107	0xbe1cf7e4	-0.15328938
108	0x3e9cbb4b	0.30611643
109	0x3def32f2	0.11679639
110	0xbe9d7ca4	-0.30759156
111	0x3e9aa209	0.30201748
112	0x3e4abe80	0.19799232
113	0xbd945901	-0.07243539
114	0xbe068bc2	-0.13139251
115	0xbd3749cc	-0.044748113
116	0x3e429e8a	0.1900579
117	0xbe8f6fd6	-0.28015012
118	0xbe24993e	-0.16074082
119	0x3e3fb885	0.18722732
120	0x3e23822c	0.15967625
121	0x3e4dd4e4	0.20100743
122	0xbe03a943	-0.12857537
123	0x3e8bb867	0.27289125
124	0xbd78ca89	-0.060740028
125	0x3e41b4f6	0.18916687
126	0xbe083366	-0.13300857
127	0x3e81f96a	0.253856
128	0xbe562e9d	-0.20916219
129	0xbe03a8e7	-0.128574
130	0xbdfe590b	-0.12419327
131	0x3dc7e154	0.09759775
132	0x3eb5aea5	0.35484806
133	0xbea37b17	-0.31929848
134	0x3ce251b8	0.027626857
135	0x3e808ff2	0.25109822
136	0xbda2ef5e	-0.07955812
137	0xbd9f05df	-0.07764792
138	0xbe939251	-0.28822568
139	0xbd80b32e	-0.06284176
140	0xbe9abd80	-0.30222702
141	0xbd8ed11c	-0.06973478
142	0x3e655a88	0.22397816
143	0xbe9459fa	-0.28974897
144	0xbe70a23e	-0.2349939
145	0x3db885d5	0.090099014
146	0x3e94ee5b	0.290881
147	0x3da6afe1	0.08139015
148	0x3e19aa7a	0.15006438
149	0xbd1499df	-0.036279555
150	0xbe29dff2	-0.16589335
151	0x3da0fb07	0.0786038
152	0xbddef7ee	-0.108871326
153	0x3ebd39ae	0.3695807
154	0xbe21f153	-0.15814714
155	0xbeb7d9bf	-0.35908315
156	0x3e8c4551	0.27396634
157	0xbdaf48fa	-0.08558841
158	0x3d5e89ca	0.054330625
159	0x3e285ab7	0.16440855
160	0x3e65552a	0.22395769
161	0xbdc06522	-0.093942896
162	0xbebbf354	-0.36709082
163	0xbdf105a4	-0.11768654
164	0x3e5868e1	0.21133758
165	0xbe271c82	-0.16319469
166	0x3d80b48d	0.06284437
167	0x3c76e165	0.015068387
168	0x3bd63f8e	0.006538338
169	0xbe049050	-0.12945676
170	0xbdfbf4aa	-0.12302525
171	0x3db3ad23	0.087732576
172	0x3e916acc	0.28401792
173	0x3e268c75	0.16264518
174	0x3e9300ee	0.28711647
175	0x3d11b46e	0.03557246
176	0xbe2f8cbb	-0.17143528
177	0xbe922c56	-0.2854945
178	0x3e8fec4f	0.28109977
179	0xbdafb796	-0.08579938
180	0xbe6e40b5	-0.23266871
181	0xbe93477d	-0.2876548
182	0xbe9060cb	-0.28198847
183	0x3e9661c0	0.29371452
184	0xbe324bdb	-0.17411749
185	0x3e803789	0.2504237
186	0x3e606792	0.21914509
187	0xbe9d4537	-0.3071687
188	0x3e9edb5a	0.31026727
189	0xbdb9dbd0	-0.09075129
190	0xbe6637f1	-0.22482277
191	0xbe80e607	-0.25175497
192	0x3d9988ff	0.07496833
193	0x3cb2b7d8	0.02181618
194	0xbe37bba2	-0.1794267
195	0x3d264180	0.04058981
196	0xbd80597c	-0.06267068
197	0xbea0153c	-0.312662
198	0xbe6f5ac4	-0.23374468
199	0x3e1518ff	0.14560317
200	0x3e9423b2	0.28933483
201	0x3cd0fa0c	0.025509857
202	0xbe834cf0	-0.25644636
203	0xbe0777f4	-0.13229352
204	0xbe0635cf	-0.13106464
205	0x3e7d24c5	0.24721058
206	0xbe170aa6	-0.14750156
207	0x3d68c095	0.056824286
208	0x3e0ad9b6	0.13559613
209	0x3ebc525e	0.3678159
210	0x3ad64e02	0.0016350152
211	0x3df306a8	0.11866504
212	0x3e871831	0.26385644
213	0xbdbc8314	-0.09204689
214	0x3d460fe1	0.048354987
215	0x3e84d401	0.25942996
216	0x3e80914f	0.25110862
217	0xbeaed7a3	-0.34148893
218	0xbe593153	-0.21210222
219	0x3e9d4755	0.30718485
220	0xbc9643b5	-0.018342832
221	0x3dab5414	0.08365646
222	0xbc655315	-0.013996859
223	0xbb9c0038	-0.0047607683
224	0xbde6216f	-0.11236846
225	0xbe233aec	-0.15940446
226	0x3dc31fbf	0.095275395
227	0x3dde4950	0.10853827
228	0xba56733d	-0.0008180624
229	0x3d4e556a	0.050374426
230	0xbd7bf1ee	-0.06151002
231	0x3e680612	0.22658566
232	0xbbc7ea51	-0.0061009307
233	0xbe70849e	-0.2348809
234	0x3dbb8496	0.09156148
235	0xbe7f8fce	-0.24957201
236	0x3e0cf4a7	0.13765202
237	0x3ea92a0e	0.33039898
238	0x3e4d4579	0.20046033
239	0x3e6785b0	0.22609591
240	0x3df85712	0.12125982
241	0xbe78c9ed	-0.24295779
242	0x3e8ff505	0.28116623
243	0xbc551934	-0.013006497
244	0xbd881d11	-0.06646169
245	0x3d855d89	0.06511981
246	0x3e5f0ada	0.21781483
247	0xbe51d9d4	-0.20493251
248	0x3e24f6bf	0.16109751
249	0x3d96bdde	0.07360433
250	0xbe961c38	-0.29318404
251	0x3e7eb691	0.24874331
252	0xbd583bcc	-0.0527914
253	0xbe7dd366	-0.24787673
254	0xbe3e2f1b	-0.18572657
255	0x3e9b04c3	0.3027707

layers.0.bias f4 [128]
0	0x3e4375ab	0.19087856
1	0x3e29c9a1	0.16580822
2	0xbe7dba22	-0.24778035
3	0x3cba653e	0.022753354
4	0xbe877d1e	-0.26462644
5	0x3da60657	0.08106678
6	0x3d3961d1	0.0452593
7	0x3c9ff585	0.019526253
8	0x3d110158	0.035401672
9	0xbde332a7	-0.110936455
10	0x3e6d46b9	0.2317151
11	0xbb4dcd5a	-0.0031402917
12	0xbe6cd361	-0.2312751
13	0xbcaf8eca	-0.021430392
14	0x3dc46ae0	0.09590697
15	0xbdd7838e	-0.10523139
16	0x3eaf6c37	0.3426225
17	0x3e878be5	0.2647392
18	0xbe6f2c8b	-0.23356836
19	0xbe4067df	-0.18789624
20	0x3dbbc275	0.09167949
21	0x3c8eb602	0.017420772
22	0xbddd3b55	-0.10802332
23	0x3de0185c	0.10942146
24	0x3e855920	0.2604456
25	0x3e84b4fc	0.2591933
26	0xbc94d7e7	-0.018169357
27	0x3de1f858	0.11033696
28	0xbdb2ee5b	-0.08736869
29	0x3e92b5fb	0.28654465
30	0x3dd93af0	0.106069446
31	0x3e647e00	0.2231369
32	0x3c6ba9b1	0.014383719
33	0xbea58feb	-0.32336363
34	0x3db231aa	0.08700879
35	0xbe3e1395	-0.18562157
36	0x3d24c57a	0.04022739
37	0xbdbd1fec	-0.09234604
38	0xbe0624e6	-0.13100013
39	0x3ca7d3cc	0.020486735
40	0x3e1520d4	0.14563304
41	0x3d4096a0	0.047018647
42	0x3cce0d07	0.025152696
43	0x3e91ff0a	0.28514892
44	0x3d9e43fb	0.0772781
45	0x3dc1d640	0.09464693
46	0x3e97dbab	0.2965978
47	0x3e359460	0.17732382
48	0x3d922a9b	0.071370326
49	0x3e0ba5d7	0.13637482
50	0x3e98bef5	0.2983319
51	0xbe55569a	-0.20833817
52	0x3e465b42	0.1937075
53	0x3db43ecd	0.08801041
54	0x3e8f3bb1	0.27975228
55	0x3e125dbe	0.14293572
56	0xbe05a381	-0.13050653
57	0xbe8c9ead	-0.2746481
58	0x3d4bcaaf	0.04975384
59	0xbd971408	-0.073768675
60	0xbea51982	-0.32246023
61	0x3e8e35e2	0.27775484
62	0xbe3bec4c	-0.18351859
63	0x3da6d104	0.08145335
64	0xbe3a9325	-0.18220194
65	0x3e947cd1	0.29001477
66	0x3e9922fd	0.29909506
67	0x3e524286	0.20533189
68	0x3e30df14	0.17272598
69	0xbcbbef02	-0.022941116
70	0x3e22f086	0.15912065
71	0xbea85d26	-0.32883567
72	0x3e5acb13	0.21366529
73	0x3e5805ac	0.21095914
74	0xbd942bc8	-0.07234913
75	0xbe84bb3d	-0.259241
76	0x3e322a40	0.1739893
77	0x3e98356e	0.29728264
78	0xbe009a2c	-0.12558812
79	0xbe757f4b	-0.2397434
80	0x3e322bff	0.17399596
81	0x3b8c73c0	0.0042862594
82	0x3d6497ba	0.05580876
83	0xbe8d2cc8	-0.27573228
84	0x3d451673	0.048117112
85	0xbc8297eb	-0.01594158
86	0x3dd75709	0.105146475
87	0xbd6bb6c0	-0.05754733
88	0xbe6457a3	-0.22299056
89	0xbe7dafc8	-0.24774086
90	0xbda434ef	-0.08017909
91	0xbe6edc51	-0.23326232
92	0xbe53888b	-0.20657556
93	0xbdf9c5d2	-0.12195934
94	0x3c07eeec	0.0082967095
95	0xbded97c4	-0.116012126
96	0xbe60407f	-0.21899603
97	0xbea63bbb	-0.32467446
98	0xbdc2b940	-0.0950799
99	0xbe86df0d	-0.2634205
100	0xbe816453	-0.25271854
101	0x3d967a34	0.07347527
102	0x3e618170	0.22022033
103	0x3e8685db	0.26274
104	0x3e27384a	0.16330066
105	0x3db4c9dc	0.08827564
106	0x3d830a20	0.063984156
107	0x3d1b7c67	0.037960436
108	0xbe806e85	-0.2508432
109	0x3da4acdf	0.08040785
110	0xbdfea944	-0.124346286
111	0x3e9225b0	0.28544378
112	0xbe0fc057	-0.14038216
113	0x3e017efb	0.12646095
114	0x3e495e85	0.19664963
115	0x3b295f89	0.0025844297
116	0x3dc5cbd6	0.09658019
117	0x3ddb0528	0.10694343
118	0xbe42a248	-0.19007218
119	0xbd1afbe0	-0.037837863
120	0xbe9e2fb8	-0.30895782
121	0x3ea46373	0.32107124
122	0xbd895d37	-0.067072324
123	0x3e06d271	0.13166215
124	0xbe5d6766	-0.21621475
125	0x3e9811f5	0.297012
126	0xbe246727	-0.16054974
127	0xbde79be5	-0.113090314

layers.1.weight f4 [128, 128]
0	0x3d88b138	0.06674427
1	0x3dcf5abe	0.101247296
2	0x3c2aefce	0.01043315
3	0x3d966ec4	0.073453456
4	0xbd61a93a	-0.055093028
5	0xbd7810f7	-0.060563054
6	0x3d8c8ec1	0.06863166
7	0x3db52da9	0.088465996
8	0xbd3c76e8	-0.046011835
9	0x3cb1619e	0.021652993
10	0xbb94f1a8	-0.004545409
11	0xbc82b4e6	-0.0159554
12	0xbd53a87f	-0.051674362
13	0x3cd1039a	0.025514413
14	0x3d422ac9	0.047404084
15	0xbd1ed1fa	-0.038774468
16	0x3d6f7158	0.058457702
17	0xbc55e257	-0.013054452
18	0xbc5d09f6	-0.013491144
19	0xbd8f453a	-0.06995626
20	0x3d8d4bf9	0.06899256
21	0x3dbdd9e7	0.09270077
22	0x3ddcdb6f	0.10784041
23	0x3ddeb9a7	0.10875254
24	0x3db9f002	0.09078981
25	0x3c970d0e	0.018438842
26	0xbd1cb850	-0.03826171
27	0xbba60b91	-0.005067297
28	0x3da4a410	0.08039105
29	0xbd71665c	-0.058935508
30	0x3bad9721	0.005297557
31	0xbd8d8bf3	-0.06911459
32	0x3d9de91a	0.07710476
33	0xbd04a045	-0.032379407
34	0xbdb773bd	-0.08957622
35	0x3dacfce5	0.08446673
36	0x3c8281d1	0.015931042
37	0xbd9bdd63	-0.076105855
38	0x3c88e231	0.016709419
39	0x3d8f7a1f	0.070057146
40	0x3ccea94f	0.025227217
41	0xbd8afc3b	-0.067863904
42	0xbdb0b34d	-0.08627949
43	0xbd14d835	-0.036339004
44	0x3cfc7299	0.030816363
45	0xbc890b39	-0.016728984
46	0x3c4ec03f	0.012619077
47	0x3d287b4b	0.041133206
48	0x3d0c4694	0.034246996
49	0x3db7fe64	0.08984068
50	0x3c523eeb	0.012832384
51	0x3d867328	0.06564933
52	0xbd05b3c6	-0.03264215
53	0x3d93c39a	0.072150424
54	0xbd1ecc5e	-0.03876912
55	0xbe2031c1	-0.1564398
56	0x3d51f5d0	0.051259816
57	0x3c528394	0.0128487535
58	0x3da52c89	0.08065135
59	0xbe12f964	-0.14352947
60	0x3e096b72	0.13419893
61	0x3d029e11	0.031889025
62	0xbcd01359	-0.02539985
63	0x3bfc29b8	0.007695403
64	0xbd2a35eb	-0.041555326
65	0x3d99b36c	0.07504925
66	0xbc0a182b	-0.008428614
67	0x3d85ff03	0.0654278
68	0xbd0f456b	-0.03497831
69	0x3d0a2db6	0.033735
70	0x3c8d5ea3	0.01725704
71	0x3d854128	0.06506568
72	0xbca68155	-0.020325342
73	0x3ca458c6	0.020061862
74	0xbd7653db	-0.060138565
75	0xbd0e045c	-0.034672126
76	0x3c82290b	0.015888711
77	0xbd2f2c01	-0.042766575
78	0xbaa6ce60	-0.00127263
79	0x3dad0425	0.08448056
80	0xbd960c4d	-0.07326565
81	0x3d634967	0.055489924
82	0x3da785dc	0.081798285
83	0xbbefd311	-0.0073188622
84	0xbd261ffc	-0.040557846
85	0xbc2c44c6	-0.010514444
86	0xbba112ab	-0.0049155555
87	0xbd8a7826	-0.06761198
88	0xbd35de74	-0.0444016
89	0xbd273d08	-0.04082969
90	0xbd0be3e6	-0.034152888
91	0x3d7d23cf	0.061801728
92	0x3d3c13db	0.045917373
93	0xbd5f9f95	-0.05459555
94	0x3d674f16	0.056471907
95	0xbc005df5	-0.007834901
96	0xbcad2b24	-0.021138735
97	0xbdec65d1	-0.115428574
98	0xbdafd0fe	-0.08584784
99	0x3b607928	0.0034251902
100	0x3db539ee	0.0884894
101	0x3ce38016	0.027771037
102	0xbd9d9988	-0.076952994
103	0xbc91b83b	-0.017788043
104	0xbd60149e	-0.054707162
105	0xbd85a0d9	-0.0652482
106	0x3bce59a7	0.0062973085
107	0xbd191526	-0.037373684
108	0xbd9df6a2	-0.07713057
109	0xbbb0ac7c	-0.0053916555
110	0xbdebfc29	-0.11522705
111	0x3c971676	0.018443327
112	0xbb7a58c2	-0.0038199876
113	0xbd2943b0	-0.041324317
114	0x3de95cb1	0.113946326
115	0xbdac881c	-0.08424398
116	0x3d658865	0.05603828
117	0xbd5d8653	-0.05408318
118	0xbd0b2817	-0.03397378
119	0xbdac5328	-0.08414298
120	0xbd988fd8	-0.07449311
121	0x3d2f2a06	0.042764686
122	0x3b91c48f	0.0044484804
123	0x3da94c88	0.0826655
124	0x3d536952	0.051614113
125	0xbbaf4aa3	-0.0053494736
126	0x3daf8a75	0.085713305
127	0xbc53f525	-0.012936865
128	0xbd465938	-0.04842493
129	0xbd3b3fce	-0.045715146
130	0xbdce9a3a	-0.1008801
131	0x3d9a176a	0.07523997
132	0x3e05d5b4	0.13069803
133	0x3d308a89	0.043100867
134	0xbbf89345	-0.0075859153
135	0x3d00099b	0.03125916
136	0xbc857220	-0.01628977
137	0x3d08f1fa	0.03343389
138	0xbd23ae3d	-0.03996109
139	0x3c263895	0.010145326
140	0x3c620fb4	0.013797689
141	0x3d3f92d4	0.046770886
142	0xbd2b7c55	-0.04186662
143	0xbd75f527	-0.06004825
144	0xbc98e5b9	-0.018664228
145	0x3c3b48b7	0.011430911
146	0xbd90c7dc	-0.0706937
147	0x3d873545	0.06601957
148	0xbc95db7b	-0.018293133
149	0x3cc5c8d2	0.02414361
150	0xbd85c4f8	-0.065317094
151	0xbbdbc6b7	-0.0067070383
152	0xbdb4d88d	-0.08830366
153	0xbd74a411	-0.05972678
154	0xbd2d8197	-0.042359915
155	0xbdb3331b	-0.08749982
156	0x3c3cebbb	0.011530812
157	0x3d0f4a1a	0.034982778
158	0x3cc5bfc1	0.024139287
159	0xbbad94cf	-0.0052972804
160	0xbd34f2f2	-0.044177003
161	0x3cda1c20	0.02662474
162	0xbc3ba50f	-0.011452927
163	0x3de012f3	0.10941114
164	0x3d736bf4	0.059429124
165	0x3d273b37	0.040827956
166	0x3d608afb	0.054820042
167	0x3d4cd392	0.050006457
168	0x3d7f2f26	0.062300824
169	0x3d206117	0.039155092
170	0xbc8cf3f5	-0.017206172
171	0xbcb83a72	-0.022488806
172	0xbd877e29	-0.0661586
173	0xbcbe371d	-0.02321964
174	0xbc00fe4c	-0.007873129
175	0xbd79b795	-0.060966093
176	0xbde0e9aa	-0.10982068
177	0xbc6fe015	-0.014640828
178	0x3d4a7b8e	0.049434237
179	0x3cab1661	0.020884695
180	0xbd1434f1	-0.0361833
181	0xbc597932	-0.013273524
182	0x3d31464a	0.043279923
183	0x3d5c19e2	0.05373562
184	0xbc97f195	-0.018547812
185	0x3d128f5f	0.03578126
186	0xbe0f7f83	-0.14013486
187	0x3d16b2d6	0.036791645
188	0x3cadaefd	0.021201605
189	0x3d832d74	0.06405154
190	0xbd66265d	-0.05618893
191	0x3c95f45e	0.018305
192	0x3d2776c4	0.040884748
193	0x3db20f08	0.08694273
194	0xbd829a6f	-0.06377112
195	0xbd8a3709	-0.067487784
196	0xbd75b68e	-0.05998855
197	0x3cb6dbec	0.022321664
198	0xbd8f5c1f	-0.069999926
199	0xbd82b687	-0.063824706
200	0xbcbd3085	-0.023094425
201	0xbd318418	-0.043338865
202	0xbbc190d3	-0.005907157
203	0x3d801869	0.06254656
204	0x3d928315	0.07153908
205	0x3c414b5a	0.01179775
206	0x3d424224	0.047426358
207	0xbd78c422	-0.06073392
208	0x3cb610b5	0.022224763
209	0x3daf6502	0.085641876
210	0xbc84bd0b	-0.016203424
211	0xbdaae09d	-0.08343623
212	0x3d02da04	0.031946197
213	0xbd585c47	-0.052822378
214	0x3d2e80fd	0.04260348
215	0xbc10143c	-0.008793887
216	0x3d289262	0.041155227
217	0xbd2a08a1	-0.041512135
218	0x3d9728fe	0.073808655
219	0xbc1d1d5d	-0.00958952
220	0x3d3c509d	0.045975316
221	0x3c91db66	0.017804813
222	0x3d799271	0.060930673
223	0x3c79da4a	0.015249798
224	0x3e080e6c	0.13286752
225	0x3df38356	0.11890285
226	0xbd060b2f	-0.03272551
227	0xbdc5adb9	-0.096522756
228	0x3c4cf2d2	0.012509065
229	0x3d976b30	0.07393491
230	0xbb26f7e2	-0.002547734
231	0xbd253bbd	-0.040340174
232	0xbdd2eaef	-0.10298716
233	0x3d634103	0.055481922
234	0x3de6d6e9	0.112714596
235	0xbda37575	-0.079813875
236	0xbdf5cc66	-0.120018765
237	0x3ccb1ba5	0.024793455
238	0xbca4b78e	-0.020107057
239	0x3b4b4cb7	0.0031021067
240	0x3dcce502	0.10004617
241	0x3be49b05	0.0069764876
242	0x3d5dc9ad	0.05414741
243	0x3d12c08c	0.03582816
244	0x3cf31d94	0.02967719
245	0xbd6ed73a	-0.058310725
246	0xbde22545	-0.11042265
247	0xbd1800b8	-0.03711006
248	0x3d5911cc	0.052995488
249	0xbd9dab97	-0.07698744
250	0xbd5ded0c	-0.054181144
251	0x3d127a6a	0.035761274
252	0x3dda6035	0.10662881
253	0x3d48883c	0.04895805
254	0xbcf1be10	-0.029509574
255	0x3d41b208	0.047288924

layers.1.bias f4 [128]
0	0x3ae644de	0.0017568131
1	0xbd5f96cf	-0.05458718
2	0xbd5a1c93	-0.053249907
3	0x3dce8cb3	0.1008543
4	0xbbbfce6d	-0.0058534653
5	0x3af127ae	0.0018398666
6	0x3d78adf0	0.060712755
7	0x3d8891f1	0.06668461
8	0x3db209e7	0.08693295
9	0xbd4149ca	-0.04718951
10	0xbd4f7512	-0.050648756
11	0x3d963ce8	0.07335836
12	0xbda741c3	-0.0816684
13	0x3dc2de18	0.09515017
14	0x3ce934f0	0.028467625
15	0x3d6b036b	0.057376307
16	0xbd83d156	-0.06436412
17	0x3dc09843	0.094040416
18	0xbcff3ba2	-0.031156365
19	0xbd8e6307	-0.06952482
20	0x3cb4e195	0.022080222
21	0x3dd0930b	0.10184296
22	0xbd006ad5	-0.031351883
23	0xba440e00	-0.0007478893
24	0x3dc5e54b	0.09662875
25	0x3dbbd79b	0.09171983
26	0x3bbcca4f	0.0057614218
27	0xbd1b66d5	-0.037939865
28	0xbd2c4e5d	-0.04206692
29	0x3d16f557	0.036855068
30	0xbc321cce	-0.010871125
31	0x3da1f02e	0.07907139
32	0x3c418fc4	0.011814062
33	0xbb0f0858	-0.0021825042
34	0x3dae4440	0.085091114
35	0xbc83cdc0	-0.01608932
36	0x3cd052c8	0.025430098
37	0xbaec6113	-0.0018034301
38	0xbd60e18a	-0.05490259
39	0xbd3a0b30	-0.045420825
40	0x3d0cc0d0	0.034363568
41	0xbba6270e	-0.0050705737
42	0xbd5a2bb5	-0.05326434
43	0xbda1beee	-0.07897745
44	0x3c00bf17	0.007858059
45	0xbd1a8823	-0.037727486
46	0xbb739bc3	-0.0037171699
47	0xbcdd667d	-0.02702641
48	0xbd2720de	-0.04080283
49	0x3db3278d	0.08747778
50	0x3da1e8d3	0.07905736
51	0x3a81826d	0.0009880789
52	0xbd00fa35	-0.031488616
53	0x3cd763df	0.02629274
54	0x3c7ee3d9	0.015557253
55	0x3da9b23a	0.08285947
56	0x3c3658f6	0.011129608
57	0x3d4c94e4	0.04994668
58	0x3c35eea1	0.011104257
59	0x3d7bf859	0.06151614
60	0xbd88bedf	-0.06677031
61	0x3d594905	0.053048152
62	0xbd7a6ea0	-0.061140656
63	0xbd28d185	-0.04121544
64	0xbb38d789	-0.002820464
65	0xbd257d9e	-0.040403
66	0x3cfc73d1	0.030816944
67	0xbd373acd	-0.04473381
68	0x3dae567e	0.08512591
69	0x3d96ba37	0.073597364
70	0xbab14613	-0.0013524912
71	0x3d35e937	0.044411864
72	0xbd460453	-0.048343968
73	0xbafa4c36	-0.0019096199
74	0x3c072e02	0.008250715
75	0x3c9dc950	0.019261032
76	0x3d8e9bf2	0.06963338
77	0x3c925315	0.017861882
78	0x3d9f56c1	0.07780219
79	0x3dbe20ae	0.09283577
80	0x3d9d4b0e	0.07680331
81	0xbc833cd6	-0.01602022
82	0x3d7e4ab3	0.062082957
83	0xbd6c8a22	-0.05774892
84	0x3daed36a	0.08536418
85	0xbdc77841	-0.097397335
86	0x3b9a5461	0.004709766
87	0xbb99e172	-0.0046960646
88	0x3ce24376	0.027620059
89	0x3d34b2cf	0.044115838
90	0xbd7ef42c	-0.06224458
91	0x3c0b7cc7	0.008513636
92	0x3d2cb3d8	0.0421637
93	0x3bb3c949	0.0054866415
94	0x3d43249c	0.047642335
95	0xbd1de0d3	-0.038544487
96	0xbca8b5c7	-0.02059449
97	0xbd5ec7d7	-0.0543898
98	0xbd8adfc2	-0.0678096
99	0x3b55eee0	0.0032643601
100	0x3d95a443	0.07306721
101	0x3db0dfce	0.08636437
102	0x3c8d26db	0.017230442
103	0xbd027ad4	-0.03185542
104	0xbc452df9	-0.0120348865
105	0xbb01d481	-0.00198105
106	0xbdc9b605	-0.098491706
107	0x3d7cdf74	0.06173654
108	0x3db526f4	0.0884532
109	0xbd930c18	-0.07180041
110	0xbc9bc270	-0.019013613
111	0xbcc8cbf3	-0.024511313
112	0x3d9aaebd	0.0755286
113	0x3cc75792	0.024333749
114	0xbd845de8	-0.06463224
115	0x3a21ba0e	0.0006169387
116	0xbdc1e6cf	-0.09467851
117	0xbbdb9b9f	-0.006701901
118	0xbcc5120b	-0.024056455
119	0x3d290e38	0.041273326
120	0xbd312991	-0.04325253
121	0xbcf97e50	-0.030455738
122	0x3b88dbc1	0.0041765873
123	0xba9d9d91	-0.0012025108
124	0xbc26d148	-0.0101817325
125	0x3d9e1591	0.07718957
126	0x3d622522	0.055211194
127	0xbd98a959	-0.074541755

layers.2.weight f4 [128, 128]
0	0x3de17c14	0.11009994
1	0xbe0b5dd8	-0.13610017
2	0x3ced85a6	0.028994393
3	0x3e5aff88	0.2138654
4	0x3d55faa3	0.05224098
5	0xbcc4a1f6	-0.02400301
6	0x3d0b297a	0.033975102
7	0x3d9f1aaa	0.07768758
8	0xbda0ef23	-0.07858112
9	0x3da8cddd	0.0824239
10	0x3d1180c2	0.035523184
11	0x3daa7419	0.08322925
12	0xbe15eccc	-0.14641112
13	0x3d7f57c4	0.06233956
14	0xbca4a7b4	-0.020099498
15	0x3e3b729c	0.18305439
16	0xbc7d8e3e	-0.015475808
17	0xbd6d4117	-0.057923403
18	0xbd79a3d0	-0.06094724
19	0x3d982768	0.07429391
20	0xbd0bd6b3	-0.0341403
21	0xbca9516c	-0.020668708
22	0xbd13e9e6	-0.036111735
23	0x3d6460c9	0.055756364
24	0xbd5ecba8	-0.05439344
25	0x3de579e0	0.112048864
26	0xbce513f3	-0.027963614
27	0x3d9d0a36	0.07667963
28	0x3d28e194	0.041230753
29	0x3da70885	0.08155922
30	0xbd16774b	-0.03673486
31	0xbc701f1d	-0.0146558555
32	0x3d2c267b	0.042028885
33	0x3d79781a	0.060905553
34	0x3d02ace3	0.03190316
35	0xbdf08fc7	-0.11746173
36	0xbd3639dd	-0.044488776
37	0xbd798c73	-0.06092496
38	0xbcfe2618	-0.031024024
39	0x3d86182e	0.06547581
40	0xbd1b17a8	-0.037864357
41	0x3d80f677	0.062970094
42	0xbc9e507e	-0.019325491
43	0xbc033d83	-0.008010271
44	0x3d608b50	0.05482036
45	0xbe0e511b	-0.13898127
46	0xbdbe0a71	-0.09279335
47	0x3db893a2	0.09012534
48	0x3dc78ef2	0.097440615
49	0xbc18f885	-0.009336595
50	0x3dea4161	0.11438251
51	0x3d456938	0.048196048
52	0xbcaf00ed	-0.021362746
53	0x3da06c4c	0.07833156
54	0xbcbd7843	-0.023128634
55	0x3dac2c05	0.084068336
56	0xbd93544a	-0.07193811
57	0x3d8c91e7	0.06863766
58	0x3c65788e	0.014005793
59	0xbd7a7177	-0.061143365
60	0x3c9474cb	0.018122097
61	0x3c53ce8c	0.012927663
62	0x3d24fe3b	0.040281516
63	0xbdba97ad	-0.09110961
64	0x3d60abee	0.054851465
65	0x3ca761c7	0.020432366
66	0xbba2d28c	-0.004968947
67	0xbcbfca5e	-0.023411926
68	0x3d9f1b5e	0.07768892
69	0x3ad026c1	0.001588069
70	0xbcc3004f	-0.023803858
71	0x3d0fd06c	0.035110876
72	0xbbe3ac90	-0.0069480613
73	0x3d50f08f	0.051010665
74	0xbd99ad1a	-0.0750372
75	0xbdf86585	-0.12128738
76	0xbdb0d9a7	-0.08635264
77	0xbd02a4da	-0.031895496
78	0xbcdc77f0	-0.02691266
79	0xbd370e38	-0.044691294
80	0x3cfd5825	0.03092582
81	0xbd08871d	-0.03333198
82	0xbd0f1af3	-0.03493781
83	0xbd27d2aa	-0.04097239
84	0x3d102388	0.035190135
85	0x3e06d488	0.13167012
86	0x3d24737b	0.040149193
87	0x3d898bcc	0.06716117
88	0xbb885b4e	-0.004161275
89	0xbd25d5ea	-0.040487207
90	0xbdfa7ec6	-0.12231211
91	0x3d11f5e6	0.035634898
92	0xbcb6ca53	-0.022313273
93	0x3d0c5720	0.034262776
94	0x3d8d1d0e	0.06890307
95	0x3ca9cc4f	0.020727305
96	0x3dde490a	0.10853775
97	0x3d8e9795	0.06962506
98	0x3d21e727	0.039527085
99	0x3d8d8200	0.06909561
100	0x3c2ff2ce	0.0107390415
101	0x3deffdfa	0.11718364
102	0xbd3039e2	-0.04302395
103	0xbc4240ba	-0.011856252
104	0x3d0ab66a	0.03386537
105	0x3d995844	0.074875385
106	0x3d3ab258	0.045580238
107	0xbcf5beae	-0.02999815
108	0x3df48615	0.119396366
109	0xbb929b47	-0.004474077
110	0xbce16fd6	-0.027519148
111	0xbd81770d	-0.06321535
112	0x3cc8eb11	0.02452615
113	0xbd2950af	-0.04133671
114	0x3d14149e	0.036152475
115	0x3aa73d3c	0.0012759338
116	0xbd296686	-0.04135754
117	0x3d250611	0.04028899
118	0xbbcfbd00	-0.006339669
119	0xbc855875	-0.016277531
120	0x3d5f92a1	0.054583196
121	0xbd0a9296	-0.0338312
122	0xbc192ad1	-0.009348587
123	0xbda5cfcc	-0.08096275
124	0xbd7a4307	-0.06109908
125	0x3da29dce	0.07940255
126	0xbd33adfc	-0.043867096
127	0x3daa40ca	0.08313139
128	0xbbcfb662	-0.0063388804
129	0xbd857fea	-0.06518538
130	0xbced39bb	-0.028958192
131	0x3e51d5aa	0.20491663
132	0x3dfd9047	0.12381034
133	0xbc981393	-0.018564021
134	0x3da360ab	0.07977422
135	0xbc8ad79e	-0.016948517
136	0xbd804641	-0.062634
137	0x3d330ed5	0.043715317
138	0xbc24d0b0	-0.010059521
139	0x3c7db071	0.015483961
140	0xbdf6728a	-0.12033565
141	0xbccba8eb	-0.02486082
142	0xbca860b8	-0.020553932
143	0x3e1d433c	0.15357679
144	0xbc9e010a	-0.019287605
145	0x3dd3aacc	0.10335311
146	0xbd90f564	-0.070780545
147	0xbb92a5bb	-0.004475323
148	0x3d6acd0d	0.057324458
149	0x3bf9abf6	0.0076193763
150	0xbc9ab0dd	-0.018883163
151	0xbd834fcb	-0.06411704
152	0xbc5a0a2f	-0.013308092
153	0xbcbb365c	-0.022853069
154	0xbd662553	-0.05618794
155	0x3cbdfc3b	0.023191562
156	0x3d2f0c93	0.0427366
157	0x3dac349d	0.08408473
158	0xbda61611	-0.081096776
159	0xbc55b0b2	-0.013042616
160	0x3d9ad026	0.075592324
161	0xbc905eff	-0.017623423
162	0x3dcd20d9	0.10016031
163	0x3ab4c7dc	0.0013792473
164	0xbb2b2250	-0.002611298
165	0xbda202b0	-0.07910669
166	0xbc9be841	-0.019031646
167	0x3da80284	0.08203605
168	0xbe034498	-0.12819135
169	0xbcec408c	-0.028839372
170	0x3d83e2c1	0.06439734
171	0xbb81d2c6	-0.0039618937
172	0x3d765605	0.06014063
173	0xbd724147	-0.059144285
174	0xbddc4945	-0.107561626
175	0x3ccdf214	0.025139846
176	0x3c1fcbda	0.009753192
177	0xbc951b64	-0.018201537
178	0xbd051a82	-0.032495983
179	0xbd0d8c2d	-0.03455751
180	0x3db2fe26	0.08739881
181	0xbda27a5e	-0.07933496
182	0x3c8657c0	0.016399264
183	0xbd230176	-0.039796315
184	0x3d91a80c	0.071121305
185	0xbc93fb4a	-0.01806416
186	0x3d8f181a	0.06987019
187	0xbd3d087d	-0.046150673
188	0xbdaef75f	-0.08543276
189	0xbcb18461	-0.021669568
190	0xbbeb884c	-0.0071878787
191	0x3bedbe95	0.007255385
192	0xbd41ce23	-0.047315728
193	0xbcf46bff	-0.029836653
194	0x3c80fb78	0.01574491
195	0xbd165bad	-0.036708523
196	0x3d6c0f0d	0.05763154
197	0xbcb3df88	-0.021957174
198	0xbdd70e9d	-0.10500834
199	0x3cee2fa7	0.029075457
200	0xbdb49051	-0.08816589
201	0x3b4e2513	0.0031455203
202	0x3cf79a55	0.030224958
203	0xbd901beb	-0.07036575
204	0x3d1835cf	0.03716069
205	0x3ce8e59e	0.028429803
206	0xbd4b0349	-0.04956368
207	0xbd942cff	-0.07235145
208	0x3d5bf251	0.053697888
209	0x3d9f6283	0.077824615
210	0x3d91e859	0.07124395
211	0xbdfb7d10	-0.12279713
212	0x3c7ee839	0.015558296
213	0x3e1a2f77	0.15057169
214	0x3cf5a1a7	0.029984308
215	0x3d128724	0.03577341
216	0xbdb6b956	-0.08922069
217	0xbd2a98e3	-0.04164971
218	0xbc7269a4	-0.0147956945
219	0x3d6d5696	0.057943903
220	0x3cf46550	0.029833466
221	0x3d1b7718	0.037955374
222	0x3d4c3ae6	0.049860857
223	0xbd324791	-0.043525282
224	0x3e0666f3	0.1312521
225	0x3d5f6532	0.054539867
226	0xbdd2d56c	-0.10294613
227	0xbd991a79	-0.074757524
228	0x3dcabcbf	0.09899282
229	0x3dc2de8a	0.09515102
230	0xbcb7b905	-0.022427091
231	0x3be2b513	0.0069185584
232	0xbd1152fd	-0.035479534
233	0xbd814249	-0.06311471
234	0x3db60f9b	0.08889695
235	0x3d58942b	0.05287568
236	0x3c24e645	0.010064666
237	0x3cc31fee	0.023818936
238	0x3da6f386	0.08151917
239	0xbcd374d5	-0.025812546
240	0x3cff17d6	0.031139296
241	0xbdab3216	-0.083591625
242	0xbc75205f	-0.014961331
243	0x3d2b067f	0.041754242
244	0xbdf8d24a	-0.121494845
245	0x3da4ad91	0.08040918
246	0x3df7e36c	0.12103924
247	0x3d376079	0.044769738
248	0x3dad3c20	0.084587336
249	0x3de96627	0.11396437
250	0xbd4fe5a8	-0.050756127
251	0xbb5878a4	-0.0033030892
252	0xbdc1da5a	-0.094654754
253	0x3d9ba3a0	0.07599568
254	0xbcc2dc69	-0.02378674
255	0xbcd8d3c2	-0.026468161

layers.2.bias f4 [128]
0	0xbd8eb153	-0.06967416
1	0x3d9c5439	0.07633252
2	0x3daec88b	0.08534344
3	0x3dd4ca2f	0.10390126
4	0x3d538a84	0.05164577
5	0xbcefb875	-0.02926276
6	0x3d0dd6a4	0.034628525
7	0x3d41a7ad	0.04727905
8	0xbd13d817	-0.03609475
9	0x3c314630	0.010819957
10	0x3d5d904e	0.054092698
11	0x3db4b0ea	0.08822806
12	0xbd86533a	-0.06558843
13	0x3bb1b695	0.005423377
14	0x3d289d10	0.04116541
15	0x3d76664a	0.060156144
16	0x3d843113	0.06454673
17	0xbb6a5364	-0.003575527
18	0xbd007195	-0.03135832
19	0xbd2b4bb4	-0.041820243
20	0x3d8bcfae	0.06826721
21	0xbd4c1e2c	-0.04983346
22	0xbd43784c	-0.047722146
23	0x3d5a3e11	0.053281847
24	0x3c472403	0.012154582
25	0x3d0d0561	0.034428958
26	0xbcffb489	-0.031214016
27	0xbc5e1c5c	-0.013556566
28	0x3dc2eac3	0.095174335
29	0x3d7f90bc	0.06239389
30	0x3d19f453	0.03758652
31	0x3d3f782a	0.046745457
32	0xbd10117a	-0.035172917
33	0xbd80a208	-0.06280905
34	0x3d9643cb	0.07337149
35	0x3d8d36cf	0.068952195
36	0x3bfccf38	0.007715132
37	0xbd4519fa	-0.048120476
38	0xbc2947ad	-0.01033203
39	0xbd2643de	-0.040592067
40	0x3d72fc92	0.0593229
41	0x3bacbfae	0.0052718734
42	0xbca614b2	-0.02027354
43	0x3cee2d63	0.029074376
44	0x3cdb943a	0.026804078
45	0x3d20d330	0.039263904
46	0xbd4ef560	-0.050526977
47	0xbd4eced6	-0.050490223
48	0xbdb3ee74	-0.08785716
49	0xbca31a47	-0.019909991
50	0x3dbbd091	0.0917064
51	0x3d96af5b	0.07357665
52	0x3d92076a	0.0713032
53	0x3bde0367	0.006775308
54	0x3d13f4e0	0.036122203
55	0x3d933729	0.07188255
56	0xbc5b559d	-0.013387111
57	0xbd1fe383	-0.03903533
58	0xbcae20fe	-0.021255966
59	0xbb007bb9	-0.0019604994
60	0x3d2abc6e	0.041683607
61	0x3d848738	0.064711034
62	0xbd8268f7	-0.06367677
63	0x3d12e9b1	0.035867397
64	0x3d7a1c9c	0.06106244
65	0x3d9200c3	0.071290515
66	0xbd6f3e48	-0.058409005
67	0xbcc743fd	-0.024324412
68	0x3d98f521	0.0746863
69	0x3c26463f	0.010148584
70	0xbcd69f4f	-0.026199011
71	0x3db316db	0.08744594
72	0xbd127aaf	-0.03576153
73	0x3d84443a	0.06458326
74	0xbd841c09	-0.0645066
75	0x3ceee480	0.029161692
76	0xbd830e79	-0.06399245
77	0xbcc41068	-0.023933604
78	0x3d9643d7	0.07337158
79	0xbd5f5b98	-0.05453071
80	0x3d80f9e1	0.062976606
81	0xb891b823	-6.948437e-05
82	0xbd24e4fb	-0.040257435
83	0x3beaa1fa	0.0071604224
84	0x3d7f12ad	0.06227367
85	0x3d08f16f	0.033433374
86	0x3cab74e7	0.020929767
87	0x3b71044f	0.003677625
88	0x3c8afc0e	0.016965892
89	0x3d29feb0	0.041502655
90	0x3c7f5f4d	0.015586686
91	0xbd35c143	-0.04437376
92	0xbd8fbffa	-0.070190385
93	0xbd59c8d8	-0.053170055
94	0xba515129	-0.0007984811
95	0x3ba1714f	0.0049268375
96	0x3db9e616	0.090770885
97	0xbd3ff19a	-0.04686127
98	0x3d8ca9b2	0.06868304
99	0xbb8fe5d4	-0.0043914113
100	0x3d403375	0.046924073
101	0xbd997a34	-0.074940115
102	0xbc71237a	-0.014717931
103	0x3d645123	0.05574144
104	0xbc735a7f	-0.014853119
105	0x3d4f0822	0.050544865
106	0xbcbfa328	-0.023393229
107	0xbd7765a5	-0.06039967
108	0x3d0f2858	0.034950584
109	0xbc78ee15	-0.015193482
110	0xbd7e5e9a	-0.062101938
111	0x3c7b9528	0.015355386
112	0x3dad32a4	0.084569246
113	0xbd407b4e	-0.046992593
114	0x3b1fefbd	0.002440437
115	0x3d9a42fa	0.07532306
116	0x3d7f8d94	0.06239088
117	0x3d987283	0.074437164
118	0x3b85f546	0.0040880768
119	0x3cf45aef	0.029828517
120	0x3d034ece	0.032057576
121	0x3c1f6dad	0.009730739
122	0xbd31e0fd	-0.043427456
123	0xbd0288f3	-0.031868886
124	0x3da6b76b	0.08140453
125	0xb9bcbff2	-0.00036001165
126	0x3d439479	0.047749016
127	0xbd73fef7	-0.059569325

layers.3.weight f4 [1, 128]
0	0xbda65a6c	-0.08122715
1	0xbd644d5b	-0.055737834
2	0x3cd4027b	0.025880089
3	0xbde6dafb	-0.11272236
4	0xbd9dac70	-0.076989055
5	0x3d4948d2	0.049141712
6	0x3dd8d157	0.105868034
7	0xbdd99e0e	-0.1062585
8	0x3dfc4d2b	0.12319406
9	0xbdfbc887	-0.12294107
10	0xbda17b0a	-0.07884796
11	0x3dc2bfd0	0.095092416
12	0x3e0d0204	0.137703
13	0xbdc7a784	-0.09748748
14	0xbdc4648e	-0.09589492
15	0xbdee5df2	-0.116390124
16	0xbc18cddf	-0.009326427
17	0x3daa2d9d	0.08309481
18	0xbdc80b0d	-0.09767733
19	0xbdb78c2a	-0.08962281
20	0x3dbb7c3d	0.09154556
21	0x3e007d8e	0.12547895
22	0x3de28314	0.110601574
23	0x3de3f85c	0.11131355
24	0xbd2fbc6b	-0.0429043
25	0xbd3025a5	-0.04300465
26	0x3ddd15b4	0.10795155
27	0xbdac3746	-0.0840898
28	0xbde38459	-0.11109228
29	0x3d59bb8a	0.053157367
30	0x3d5d78cd	0.054070283
31	0x3dc9518a	0.098300055
32	0xbd7fe9df	-0.062478896
33	0x3d956de3	0.0729635
34	0xbd201de6	-0.039091013
35	0xbcd59073	-0.026069855
36	0xbdb4332c	-0.08798823
37	0x3d9fc197	0.07800596
38	0xbdbf1da1	-0.09331823
39	0xbddad08c	-0.106843084
40	0xbdca54b9	-0.09879441
41	0x3da1c0ca	0.078981
42	0x3daee5c9	0.08539922
43	0xbd81ec2c	-0.06343874
44	0x3e5937bd	0.21212669
45	0x3d5f8ec7	0.054579522
46	0xbd7544d1	-0.05988008
47	0xbd358244	-0.044313684
48	0xbcbcd617	-0.023051305
49	0xbd94a8f6	-0.07258789
50	0x3cd28ade	0.025700983
51	0xbd78304b	-0.06059293
52	0x3d85ecd4	0.06539312
53	0xbd0736d2	-0.033011265
54	0xbda3e2bb	-0.0800223
55	0x3deec130	0.11657941
56	0x3d904134	0.070436865
57	0x3db76a4f	0.08955824
58	0x3d8b2dd4	0.067958504
59	0x3e27836b	0.16358726
60	0xbd963d21	-0.07335878
61	0x3e10451c	0.14088863
62	0xbddd43a8	-0.1080392
63	0xbde56514	-0.1120092
64	0xbdcdc7b6	-0.100478575
65	0x3dcb8b78	0.09938711
66	0x3db25455	0.08707491
67	0x3dfd4f84	0.12368682
68	0x3e13969d	0.14412923
69	0xbdd4bf2d	-0.103880264
70	0xbcef3772	-0.029201243
71	0xbda32356	-0.07965724
72	0x3d778061	0.060425166
73	0xbdd7f1bb	-0.10544153
74	0xbd896f95	-0.06710736
75	0x3dfed0f3	0.12442198
76	0xbe00ed04	-0.12590414
77	0xbd088e1b	-0.033338647
78	0x3e00e070	0.12585616
79	0x3dc880d0	0.09790194
80	0xbdb51a08	-0.08842856
81	0x3e25bc4f	0.16185115
82	0x3df99f85	0.12188629
83	0x3dde6ef9	0.1086101
84	0xbdc74f82	-0.09731962
85	0x3e11532b	0.14191882
86	0x3d9a9a1b	0.075489245
87	0x3df19e41	0.11797763
88	0x3dfba5fd	0.12287519
89	0xbd2372ee	-0.039904527
90	0x3e0061cc	0.12537307
91	0x3e1e48a9	0.15457405
92	0xbd9ea963	-0.07747152
93	0xbdd77cfc	-0.10521886
94	0x3de07380	0.1095953
95	0xbdbfdbcc	-0.09368095
96	0xbd332959	-0.043740604
97	0xbd078620	-0.033086896
98	0x3e180a77	0.14847742
99	0xbd834333	-0.064093016
100	0x3d47456c	0.04865019
101	0x3dac8453	0.08423676
102	0xbd28faf1	-0.04125494
103	0x3e0e6b0c	0.13908023
104	0x3dfbc3b0	0.12293184
105	0xbd3cc800	-0.046089172
106	0xbda85af0	-0.0822047
107	0x3d94b095	0.07260243
108	0xbd6fdbf7	-0.058559384
109	0xbb182cb1	-0.0023219998
110	0x3dd6cbba	0.104880765
111	0x3dc4caa1	0.09608961
112	0x3d730247	0.059328344
113	0xbd90a4a8	-0.07062656
114	0x3e13e5dc	0.14443153
115	0xbd59aacb	-0.053141396
116	0x3df8f15d	0.121554114
117	0x3dce5a9b	0.10075875
118	0x3dafe51d	0.08588622
119	0xbd71f631	-0.059072677
120	0xbd4a9c4e	-0.04946547
121	0xbd15b4c5	-0.03654935
122	0x3d99ffae	0.0751947
123	0xbdaf3026	-0.085541055
124	0xbd789e26	-0.060697697
125	0x3da35c2f	0.07976567
126	0x3d8fae2d	0.07015643
127	0x3e385dea	0.18004575
